node {
  name: "train_inputs"
  op: "Placeholder"
  attr {
    key: "dtype"
    value {
      type: DT_FLOAT
    }
  }
  attr {
    key: "shape"
    value {
      shape {
        dim {
          size: 256
        }
        dim {
          size: 28
        }
        dim {
          size: 28
        }
        dim {
          size: 1
        }
      }
    }
  }
}
node {
  name: "train_network/conv/conv2d/kernel/Initializer/truncated_normal/shape"
  op: "Const"
  attr {
    key: "_class"
    value {
      list {
        s: "loc:@train_network/conv/conv2d/kernel"
      }
    }
  }
  attr {
    key: "dtype"
    value {
      type: DT_INT32
    }
  }
  attr {
    key: "value"
    value {
      tensor {
        dtype: DT_INT32
        tensor_shape {
          dim {
            size: 4
          }
        }
        tensor_content: "\003\000\000\000\003\000\000\000\001\000\000\000 \000\000\000"
      }
    }
  }
}
node {
  name: "train_network/conv/conv2d/kernel/Initializer/truncated_normal/mean"
  op: "Const"
  attr {
    key: "_class"
    value {
      list {
        s: "loc:@train_network/conv/conv2d/kernel"
      }
    }
  }
  attr {
    key: "dtype"
    value {
      type: DT_FLOAT
    }
  }
  attr {
    key: "value"
    value {
      tensor {
        dtype: DT_FLOAT
        tensor_shape {
        }
        float_val: 0.0
      }
    }
  }
}
node {
  name: "train_network/conv/conv2d/kernel/Initializer/truncated_normal/stddev"
  op: "Const"
  attr {
    key: "_class"
    value {
      list {
        s: "loc:@train_network/conv/conv2d/kernel"
      }
    }
  }
  attr {
    key: "dtype"
    value {
      type: DT_FLOAT
    }
  }
  attr {
    key: "value"
    value {
      tensor {
        dtype: DT_FLOAT
        tensor_shape {
        }
        float_val: 0.5374838709831238
      }
    }
  }
}
node {
  name: "train_network/conv/conv2d/kernel/Initializer/truncated_normal/TruncatedNormal"
  op: "TruncatedNormal"
  input: "train_network/conv/conv2d/kernel/Initializer/truncated_normal/shape"
  attr {
    key: "T"
    value {
      type: DT_INT32
    }
  }
  attr {
    key: "_class"
    value {
      list {
        s: "loc:@train_network/conv/conv2d/kernel"
      }
    }
  }
  attr {
    key: "dtype"
    value {
      type: DT_FLOAT
    }
  }
  attr {
    key: "seed"
    value {
      i: 0
    }
  }
  attr {
    key: "seed2"
    value {
      i: 0
    }
  }
}
node {
  name: "train_network/conv/conv2d/kernel/Initializer/truncated_normal/mul"
  op: "Mul"
  input: "train_network/conv/conv2d/kernel/Initializer/truncated_normal/TruncatedNormal"
  input: "train_network/conv/conv2d/kernel/Initializer/truncated_normal/stddev"
  attr {
    key: "T"
    value {
      type: DT_FLOAT
    }
  }
  attr {
    key: "_class"
    value {
      list {
        s: "loc:@train_network/conv/conv2d/kernel"
      }
    }
  }
}
node {
  name: "train_network/conv/conv2d/kernel/Initializer/truncated_normal"
  op: "Add"
  input: "train_network/conv/conv2d/kernel/Initializer/truncated_normal/mul"
  input: "train_network/conv/conv2d/kernel/Initializer/truncated_normal/mean"
  attr {
    key: "T"
    value {
      type: DT_FLOAT
    }
  }
  attr {
    key: "_class"
    value {
      list {
        s: "loc:@train_network/conv/conv2d/kernel"
      }
    }
  }
}
node {
  name: "train_network/conv/conv2d/kernel"
  op: "VariableV2"
  attr {
    key: "_class"
    value {
      list {
        s: "loc:@train_network/conv/conv2d/kernel"
      }
    }
  }
  attr {
    key: "container"
    value {
      s: ""
    }
  }
  attr {
    key: "dtype"
    value {
      type: DT_FLOAT
    }
  }
  attr {
    key: "shape"
    value {
      shape {
        dim {
          size: 3
        }
        dim {
          size: 3
        }
        dim {
          size: 1
        }
        dim {
          size: 32
        }
      }
    }
  }
  attr {
    key: "shared_name"
    value {
      s: ""
    }
  }
}
node {
  name: "train_network/conv/conv2d/kernel/Assign"
  op: "Assign"
  input: "train_network/conv/conv2d/kernel"
  input: "train_network/conv/conv2d/kernel/Initializer/truncated_normal"
  attr {
    key: "T"
    value {
      type: DT_FLOAT
    }
  }
  attr {
    key: "_class"
    value {
      list {
        s: "loc:@train_network/conv/conv2d/kernel"
      }
    }
  }
  attr {
    key: "use_locking"
    value {
      b: true
    }
  }
  attr {
    key: "validate_shape"
    value {
      b: true
    }
  }
}
node {
  name: "train_network/conv/conv2d/kernel/read"
  op: "Identity"
  input: "train_network/conv/conv2d/kernel"
  attr {
    key: "T"
    value {
      type: DT_FLOAT
    }
  }
  attr {
    key: "_class"
    value {
      list {
        s: "loc:@train_network/conv/conv2d/kernel"
      }
    }
  }
}
node {
  name: "train_network/conv/conv2d/kernel/Regularizer/l2_regularizer/scale"
  op: "Const"
  attr {
    key: "_class"
    value {
      list {
        s: "loc:@train_network/conv/conv2d/kernel"
      }
    }
  }
  attr {
    key: "dtype"
    value {
      type: DT_FLOAT
    }
  }
  attr {
    key: "value"
    value {
      tensor {
        dtype: DT_FLOAT
        tensor_shape {
        }
        float_val: 9.999999747378752e-05
      }
    }
  }
}
node {
  name: "train_network/conv/conv2d/kernel/Regularizer/l2_regularizer/L2Loss"
  op: "L2Loss"
  input: "train_network/conv/conv2d/kernel/read"
  attr {
    key: "T"
    value {
      type: DT_FLOAT
    }
  }
  attr {
    key: "_class"
    value {
      list {
        s: "loc:@train_network/conv/conv2d/kernel"
      }
    }
  }
}
node {
  name: "train_network/conv/conv2d/kernel/Regularizer/l2_regularizer"
  op: "Mul"
  input: "train_network/conv/conv2d/kernel/Regularizer/l2_regularizer/scale"
  input: "train_network/conv/conv2d/kernel/Regularizer/l2_regularizer/L2Loss"
  attr {
    key: "T"
    value {
      type: DT_FLOAT
    }
  }
  attr {
    key: "_class"
    value {
      list {
        s: "loc:@train_network/conv/conv2d/kernel"
      }
    }
  }
}
node {
  name: "train_network/conv/conv2d/bias/Initializer/zeros"
  op: "Const"
  attr {
    key: "_class"
    value {
      list {
        s: "loc:@train_network/conv/conv2d/bias"
      }
    }
  }
  attr {
    key: "dtype"
    value {
      type: DT_FLOAT
    }
  }
  attr {
    key: "value"
    value {
      tensor {
        dtype: DT_FLOAT
        tensor_shape {
          dim {
            size: 32
          }
        }
        float_val: 0.0
      }
    }
  }
}
node {
  name: "train_network/conv/conv2d/bias"
  op: "VariableV2"
  attr {
    key: "_class"
    value {
      list {
        s: "loc:@train_network/conv/conv2d/bias"
      }
    }
  }
  attr {
    key: "container"
    value {
      s: ""
    }
  }
  attr {
    key: "dtype"
    value {
      type: DT_FLOAT
    }
  }
  attr {
    key: "shape"
    value {
      shape {
        dim {
          size: 32
        }
      }
    }
  }
  attr {
    key: "shared_name"
    value {
      s: ""
    }
  }
}
node {
  name: "train_network/conv/conv2d/bias/Assign"
  op: "Assign"
  input: "train_network/conv/conv2d/bias"
  input: "train_network/conv/conv2d/bias/Initializer/zeros"
  attr {
    key: "T"
    value {
      type: DT_FLOAT
    }
  }
  attr {
    key: "_class"
    value {
      list {
        s: "loc:@train_network/conv/conv2d/bias"
      }
    }
  }
  attr {
    key: "use_locking"
    value {
      b: true
    }
  }
  attr {
    key: "validate_shape"
    value {
      b: true
    }
  }
}
node {
  name: "train_network/conv/conv2d/bias/read"
  op: "Identity"
  input: "train_network/conv/conv2d/bias"
  attr {
    key: "T"
    value {
      type: DT_FLOAT
    }
  }
  attr {
    key: "_class"
    value {
      list {
        s: "loc:@train_network/conv/conv2d/bias"
      }
    }
  }
}
node {
  name: "train_network/conv/conv2d/dilation_rate"
  op: "Const"
  attr {
    key: "dtype"
    value {
      type: DT_INT32
    }
  }
  attr {
    key: "value"
    value {
      tensor {
        dtype: DT_INT32
        tensor_shape {
          dim {
            size: 2
          }
        }
        tensor_content: "\001\000\000\000\001\000\000\000"
      }
    }
  }
}
node {
  name: "train_network/conv/conv2d/Conv2D"
  op: "Conv2D"
  input: "train_inputs"
  input: "train_network/conv/conv2d/kernel/read"
  attr {
    key: "T"
    value {
      type: DT_FLOAT
    }
  }
  attr {
    key: "data_format"
    value {
      s: "NHWC"
    }
  }
  attr {
    key: "dilations"
    value {
      list {
        i: 1
        i: 1
        i: 1
        i: 1
      }
    }
  }
  attr {
    key: "padding"
    value {
      s: "SAME"
    }
  }
  attr {
    key: "strides"
    value {
      list {
        i: 1
        i: 1
        i: 1
        i: 1
      }
    }
  }
  attr {
    key: "use_cudnn_on_gpu"
    value {
      b: true
    }
  }
}
node {
  name: "train_network/conv/conv2d/BiasAdd"
  op: "BiasAdd"
  input: "train_network/conv/conv2d/Conv2D"
  input: "train_network/conv/conv2d/bias/read"
  attr {
    key: "T"
    value {
      type: DT_FLOAT
    }
  }
  attr {
    key: "data_format"
    value {
      s: "NHWC"
    }
  }
}
node {
  name: "train_network/resblock0_0/batch_norm_0/beta/Initializer/zeros"
  op: "Const"
  attr {
    key: "_class"
    value {
      list {
        s: "loc:@train_network/resblock0_0/batch_norm_0/beta"
      }
    }
  }
  attr {
    key: "dtype"
    value {
      type: DT_FLOAT
    }
  }
  attr {
    key: "value"
    value {
      tensor {
        dtype: DT_FLOAT
        tensor_shape {
          dim {
            size: 32
          }
        }
        float_val: 0.0
      }
    }
  }
}
node {
  name: "train_network/resblock0_0/batch_norm_0/beta"
  op: "VariableV2"
  attr {
    key: "_class"
    value {
      list {
        s: "loc:@train_network/resblock0_0/batch_norm_0/beta"
      }
    }
  }
  attr {
    key: "container"
    value {
      s: ""
    }
  }
  attr {
    key: "dtype"
    value {
      type: DT_FLOAT
    }
  }
  attr {
    key: "shape"
    value {
      shape {
        dim {
          size: 32
        }
      }
    }
  }
  attr {
    key: "shared_name"
    value {
      s: ""
    }
  }
}
node {
  name: "train_network/resblock0_0/batch_norm_0/beta/Assign"
  op: "Assign"
  input: "train_network/resblock0_0/batch_norm_0/beta"
  input: "train_network/resblock0_0/batch_norm_0/beta/Initializer/zeros"
  attr {
    key: "T"
    value {
      type: DT_FLOAT
    }
  }
  attr {
    key: "_class"
    value {
      list {
        s: "loc:@train_network/resblock0_0/batch_norm_0/beta"
      }
    }
  }
  attr {
    key: "use_locking"
    value {
      b: true
    }
  }
  attr {
    key: "validate_shape"
    value {
      b: true
    }
  }
}
node {
  name: "train_network/resblock0_0/batch_norm_0/beta/read"
  op: "Identity"
  input: "train_network/resblock0_0/batch_norm_0/beta"
  attr {
    key: "T"
    value {
      type: DT_FLOAT
    }
  }
  attr {
    key: "_class"
    value {
      list {
        s: "loc:@train_network/resblock0_0/batch_norm_0/beta"
      }
    }
  }
}
node {
  name: "train_network/resblock0_0/batch_norm_0/gamma/Initializer/ones"
  op: "Const"
  attr {
    key: "_class"
    value {
      list {
        s: "loc:@train_network/resblock0_0/batch_norm_0/gamma"
      }
    }
  }
  attr {
    key: "dtype"
    value {
      type: DT_FLOAT
    }
  }
  attr {
    key: "value"
    value {
      tensor {
        dtype: DT_FLOAT
        tensor_shape {
          dim {
            size: 32
          }
        }
        float_val: 1.0
      }
    }
  }
}
node {
  name: "train_network/resblock0_0/batch_norm_0/gamma"
  op: "VariableV2"
  attr {
    key: "_class"
    value {
      list {
        s: "loc:@train_network/resblock0_0/batch_norm_0/gamma"
      }
    }
  }
  attr {
    key: "container"
    value {
      s: ""
    }
  }
  attr {
    key: "dtype"
    value {
      type: DT_FLOAT
    }
  }
  attr {
    key: "shape"
    value {
      shape {
        dim {
          size: 32
        }
      }
    }
  }
  attr {
    key: "shared_name"
    value {
      s: ""
    }
  }
}
node {
  name: "train_network/resblock0_0/batch_norm_0/gamma/Assign"
  op: "Assign"
  input: "train_network/resblock0_0/batch_norm_0/gamma"
  input: "train_network/resblock0_0/batch_norm_0/gamma/Initializer/ones"
  attr {
    key: "T"
    value {
      type: DT_FLOAT
    }
  }
  attr {
    key: "_class"
    value {
      list {
        s: "loc:@train_network/resblock0_0/batch_norm_0/gamma"
      }
    }
  }
  attr {
    key: "use_locking"
    value {
      b: true
    }
  }
  attr {
    key: "validate_shape"
    value {
      b: true
    }
  }
}
node {
  name: "train_network/resblock0_0/batch_norm_0/gamma/read"
  op: "Identity"
  input: "train_network/resblock0_0/batch_norm_0/gamma"
  attr {
    key: "T"
    value {
      type: DT_FLOAT
    }
  }
  attr {
    key: "_class"
    value {
      list {
        s: "loc:@train_network/resblock0_0/batch_norm_0/gamma"
      }
    }
  }
}
node {
  name: "train_network/resblock0_0/batch_norm_0/moving_mean/Initializer/zeros"
  op: "Const"
  attr {
    key: "_class"
    value {
      list {
        s: "loc:@train_network/resblock0_0/batch_norm_0/moving_mean"
      }
    }
  }
  attr {
    key: "dtype"
    value {
      type: DT_FLOAT
    }
  }
  attr {
    key: "value"
    value {
      tensor {
        dtype: DT_FLOAT
        tensor_shape {
          dim {
            size: 32
          }
        }
        float_val: 0.0
      }
    }
  }
}
node {
  name: "train_network/resblock0_0/batch_norm_0/moving_mean"
  op: "VariableV2"
  attr {
    key: "_class"
    value {
      list {
        s: "loc:@train_network/resblock0_0/batch_norm_0/moving_mean"
      }
    }
  }
  attr {
    key: "container"
    value {
      s: ""
    }
  }
  attr {
    key: "dtype"
    value {
      type: DT_FLOAT
    }
  }
  attr {
    key: "shape"
    value {
      shape {
        dim {
          size: 32
        }
      }
    }
  }
  attr {
    key: "shared_name"
    value {
      s: ""
    }
  }
}
node {
  name: "train_network/resblock0_0/batch_norm_0/moving_mean/Assign"
  op: "Assign"
  input: "train_network/resblock0_0/batch_norm_0/moving_mean"
  input: "train_network/resblock0_0/batch_norm_0/moving_mean/Initializer/zeros"
  attr {
    key: "T"
    value {
      type: DT_FLOAT
    }
  }
  attr {
    key: "_class"
    value {
      list {
        s: "loc:@train_network/resblock0_0/batch_norm_0/moving_mean"
      }
    }
  }
  attr {
    key: "use_locking"
    value {
      b: true
    }
  }
  attr {
    key: "validate_shape"
    value {
      b: true
    }
  }
}
node {
  name: "train_network/resblock0_0/batch_norm_0/moving_mean/read"
  op: "Identity"
  input: "train_network/resblock0_0/batch_norm_0/moving_mean"
  attr {
    key: "T"
    value {
      type: DT_FLOAT
    }
  }
  attr {
    key: "_class"
    value {
      list {
        s: "loc:@train_network/resblock0_0/batch_norm_0/moving_mean"
      }
    }
  }
}
node {
  name: "train_network/resblock0_0/batch_norm_0/moving_variance/Initializer/ones"
  op: "Const"
  attr {
    key: "_class"
    value {
      list {
        s: "loc:@train_network/resblock0_0/batch_norm_0/moving_variance"
      }
    }
  }
  attr {
    key: "dtype"
    value {
      type: DT_FLOAT
    }
  }
  attr {
    key: "value"
    value {
      tensor {
        dtype: DT_FLOAT
        tensor_shape {
          dim {
            size: 32
          }
        }
        float_val: 1.0
      }
    }
  }
}
node {
  name: "train_network/resblock0_0/batch_norm_0/moving_variance"
  op: "VariableV2"
  attr {
    key: "_class"
    value {
      list {
        s: "loc:@train_network/resblock0_0/batch_norm_0/moving_variance"
      }
    }
  }
  attr {
    key: "container"
    value {
      s: ""
    }
  }
  attr {
    key: "dtype"
    value {
      type: DT_FLOAT
    }
  }
  attr {
    key: "shape"
    value {
      shape {
        dim {
          size: 32
        }
      }
    }
  }
  attr {
    key: "shared_name"
    value {
      s: ""
    }
  }
}
node {
  name: "train_network/resblock0_0/batch_norm_0/moving_variance/Assign"
  op: "Assign"
  input: "train_network/resblock0_0/batch_norm_0/moving_variance"
  input: "train_network/resblock0_0/batch_norm_0/moving_variance/Initializer/ones"
  attr {
    key: "T"
    value {
      type: DT_FLOAT
    }
  }
  attr {
    key: "_class"
    value {
      list {
        s: "loc:@train_network/resblock0_0/batch_norm_0/moving_variance"
      }
    }
  }
  attr {
    key: "use_locking"
    value {
      b: true
    }
  }
  attr {
    key: "validate_shape"
    value {
      b: true
    }
  }
}
node {
  name: "train_network/resblock0_0/batch_norm_0/moving_variance/read"
  op: "Identity"
  input: "train_network/resblock0_0/batch_norm_0/moving_variance"
  attr {
    key: "T"
    value {
      type: DT_FLOAT
    }
  }
  attr {
    key: "_class"
    value {
      list {
        s: "loc:@train_network/resblock0_0/batch_norm_0/moving_variance"
      }
    }
  }
}
node {
  name: "train_network/resblock0_0/batch_norm_0/Const"
  op: "Const"
  attr {
    key: "dtype"
    value {
      type: DT_FLOAT
    }
  }
  attr {
    key: "value"
    value {
      tensor {
        dtype: DT_FLOAT
        tensor_shape {
          dim {
          }
        }
      }
    }
  }
}
node {
  name: "train_network/resblock0_0/batch_norm_0/Const_1"
  op: "Const"
  attr {
    key: "dtype"
    value {
      type: DT_FLOAT
    }
  }
  attr {
    key: "value"
    value {
      tensor {
        dtype: DT_FLOAT
        tensor_shape {
          dim {
          }
        }
      }
    }
  }
}
node {
  name: "train_network/resblock0_0/batch_norm_0/FusedBatchNorm"
  op: "FusedBatchNorm"
  input: "train_network/conv/conv2d/BiasAdd"
  input: "train_network/resblock0_0/batch_norm_0/gamma/read"
  input: "train_network/resblock0_0/batch_norm_0/beta/read"
  input: "train_network/resblock0_0/batch_norm_0/Const"
  input: "train_network/resblock0_0/batch_norm_0/Const_1"
  attr {
    key: "T"
    value {
      type: DT_FLOAT
    }
  }
  attr {
    key: "data_format"
    value {
      s: "NHWC"
    }
  }
  attr {
    key: "epsilon"
    value {
      f: 1.0009999641624745e-05
    }
  }
  attr {
    key: "is_training"
    value {
      b: true
    }
  }
}
node {
  name: "train_network/resblock0_0/batch_norm_0/AssignMovingAvg/decay"
  op: "Const"
  attr {
    key: "_class"
    value {
      list {
        s: "loc:@train_network/resblock0_0/batch_norm_0/moving_mean"
      }
    }
  }
  attr {
    key: "dtype"
    value {
      type: DT_FLOAT
    }
  }
  attr {
    key: "value"
    value {
      tensor {
        dtype: DT_FLOAT
        tensor_shape {
        }
        float_val: 0.10000000149011612
      }
    }
  }
}
node {
  name: "train_network/resblock0_0/batch_norm_0/AssignMovingAvg/sub"
  op: "Sub"
  input: "train_network/resblock0_0/batch_norm_0/moving_mean/read"
  input: "train_network/resblock0_0/batch_norm_0/FusedBatchNorm:1"
  attr {
    key: "T"
    value {
      type: DT_FLOAT
    }
  }
  attr {
    key: "_class"
    value {
      list {
        s: "loc:@train_network/resblock0_0/batch_norm_0/moving_mean"
      }
    }
  }
}
node {
  name: "train_network/resblock0_0/batch_norm_0/AssignMovingAvg/mul"
  op: "Mul"
  input: "train_network/resblock0_0/batch_norm_0/AssignMovingAvg/sub"
  input: "train_network/resblock0_0/batch_norm_0/AssignMovingAvg/decay"
  attr {
    key: "T"
    value {
      type: DT_FLOAT
    }
  }
  attr {
    key: "_class"
    value {
      list {
        s: "loc:@train_network/resblock0_0/batch_norm_0/moving_mean"
      }
    }
  }
}
node {
  name: "train_network/resblock0_0/batch_norm_0/AssignMovingAvg"
  op: "AssignSub"
  input: "train_network/resblock0_0/batch_norm_0/moving_mean"
  input: "train_network/resblock0_0/batch_norm_0/AssignMovingAvg/mul"
  attr {
    key: "T"
    value {
      type: DT_FLOAT
    }
  }
  attr {
    key: "_class"
    value {
      list {
        s: "loc:@train_network/resblock0_0/batch_norm_0/moving_mean"
      }
    }
  }
  attr {
    key: "use_locking"
    value {
      b: false
    }
  }
}
node {
  name: "train_network/resblock0_0/batch_norm_0/AssignMovingAvg_1/decay"
  op: "Const"
  attr {
    key: "_class"
    value {
      list {
        s: "loc:@train_network/resblock0_0/batch_norm_0/moving_variance"
      }
    }
  }
  attr {
    key: "dtype"
    value {
      type: DT_FLOAT
    }
  }
  attr {
    key: "value"
    value {
      tensor {
        dtype: DT_FLOAT
        tensor_shape {
        }
        float_val: 0.10000000149011612
      }
    }
  }
}
node {
  name: "train_network/resblock0_0/batch_norm_0/AssignMovingAvg_1/sub"
  op: "Sub"
  input: "train_network/resblock0_0/batch_norm_0/moving_variance/read"
  input: "train_network/resblock0_0/batch_norm_0/FusedBatchNorm:2"
  attr {
    key: "T"
    value {
      type: DT_FLOAT
    }
  }
  attr {
    key: "_class"
    value {
      list {
        s: "loc:@train_network/resblock0_0/batch_norm_0/moving_variance"
      }
    }
  }
}
node {
  name: "train_network/resblock0_0/batch_norm_0/AssignMovingAvg_1/mul"
  op: "Mul"
  input: "train_network/resblock0_0/batch_norm_0/AssignMovingAvg_1/sub"
  input: "train_network/resblock0_0/batch_norm_0/AssignMovingAvg_1/decay"
  attr {
    key: "T"
    value {
      type: DT_FLOAT
    }
  }
  attr {
    key: "_class"
    value {
      list {
        s: "loc:@train_network/resblock0_0/batch_norm_0/moving_variance"
      }
    }
  }
}
node {
  name: "train_network/resblock0_0/batch_norm_0/AssignMovingAvg_1"
  op: "AssignSub"
  input: "train_network/resblock0_0/batch_norm_0/moving_variance"
  input: "train_network/resblock0_0/batch_norm_0/AssignMovingAvg_1/mul"
  attr {
    key: "T"
    value {
      type: DT_FLOAT
    }
  }
  attr {
    key: "_class"
    value {
      list {
        s: "loc:@train_network/resblock0_0/batch_norm_0/moving_variance"
      }
    }
  }
  attr {
    key: "use_locking"
    value {
      b: false
    }
  }
}
node {
  name: "train_network/resblock0_0/batch_norm_0/Identity"
  op: "Identity"
  input: "train_network/resblock0_0/batch_norm_0/FusedBatchNorm"
  input: "^train_network/resblock0_0/batch_norm_0/AssignMovingAvg"
  input: "^train_network/resblock0_0/batch_norm_0/AssignMovingAvg_1"
  attr {
    key: "T"
    value {
      type: DT_FLOAT
    }
  }
}
node {
  name: "train_network/resblock0_0/Relu"
  op: "Relu"
  input: "train_network/resblock0_0/batch_norm_0/Identity"
  attr {
    key: "T"
    value {
      type: DT_FLOAT
    }
  }
}
node {
  name: "train_network/resblock0_0/conv_0/conv2d/kernel/Initializer/truncated_normal/shape"
  op: "Const"
  attr {
    key: "_class"
    value {
      list {
        s: "loc:@train_network/resblock0_0/conv_0/conv2d/kernel"
      }
    }
  }
  attr {
    key: "dtype"
    value {
      type: DT_INT32
    }
  }
  attr {
    key: "value"
    value {
      tensor {
        dtype: DT_INT32
        tensor_shape {
          dim {
            size: 4
          }
        }
        tensor_content: "\003\000\000\000\003\000\000\000 \000\000\000 \000\000\000"
      }
    }
  }
}
node {
  name: "train_network/resblock0_0/conv_0/conv2d/kernel/Initializer/truncated_normal/mean"
  op: "Const"
  attr {
    key: "_class"
    value {
      list {
        s: "loc:@train_network/resblock0_0/conv_0/conv2d/kernel"
      }
    }
  }
  attr {
    key: "dtype"
    value {
      type: DT_FLOAT
    }
  }
  attr {
    key: "value"
    value {
      tensor {
        dtype: DT_FLOAT
        tensor_shape {
        }
        float_val: 0.0
      }
    }
  }
}
node {
  name: "train_network/resblock0_0/conv_0/conv2d/kernel/Initializer/truncated_normal/stddev"
  op: "Const"
  attr {
    key: "_class"
    value {
      list {
        s: "loc:@train_network/resblock0_0/conv_0/conv2d/kernel"
      }
    }
  }
  attr {
    key: "dtype"
    value {
      type: DT_FLOAT
    }
  }
  attr {
    key: "value"
    value {
      tensor {
        dtype: DT_FLOAT
        tensor_shape {
        }
        float_val: 0.09501461684703827
      }
    }
  }
}
node {
  name: "train_network/resblock0_0/conv_0/conv2d/kernel/Initializer/truncated_normal/TruncatedNormal"
  op: "TruncatedNormal"
  input: "train_network/resblock0_0/conv_0/conv2d/kernel/Initializer/truncated_normal/shape"
  attr {
    key: "T"
    value {
      type: DT_INT32
    }
  }
  attr {
    key: "_class"
    value {
      list {
        s: "loc:@train_network/resblock0_0/conv_0/conv2d/kernel"
      }
    }
  }
  attr {
    key: "dtype"
    value {
      type: DT_FLOAT
    }
  }
  attr {
    key: "seed"
    value {
      i: 0
    }
  }
  attr {
    key: "seed2"
    value {
      i: 0
    }
  }
}
node {
  name: "train_network/resblock0_0/conv_0/conv2d/kernel/Initializer/truncated_normal/mul"
  op: "Mul"
  input: "train_network/resblock0_0/conv_0/conv2d/kernel/Initializer/truncated_normal/TruncatedNormal"
  input: "train_network/resblock0_0/conv_0/conv2d/kernel/Initializer/truncated_normal/stddev"
  attr {
    key: "T"
    value {
      type: DT_FLOAT
    }
  }
  attr {
    key: "_class"
    value {
      list {
        s: "loc:@train_network/resblock0_0/conv_0/conv2d/kernel"
      }
    }
  }
}
node {
  name: "train_network/resblock0_0/conv_0/conv2d/kernel/Initializer/truncated_normal"
  op: "Add"
  input: "train_network/resblock0_0/conv_0/conv2d/kernel/Initializer/truncated_normal/mul"
  input: "train_network/resblock0_0/conv_0/conv2d/kernel/Initializer/truncated_normal/mean"
  attr {
    key: "T"
    value {
      type: DT_FLOAT
    }
  }
  attr {
    key: "_class"
    value {
      list {
        s: "loc:@train_network/resblock0_0/conv_0/conv2d/kernel"
      }
    }
  }
}
node {
  name: "train_network/resblock0_0/conv_0/conv2d/kernel"
  op: "VariableV2"
  attr {
    key: "_class"
    value {
      list {
        s: "loc:@train_network/resblock0_0/conv_0/conv2d/kernel"
      }
    }
  }
  attr {
    key: "container"
    value {
      s: ""
    }
  }
  attr {
    key: "dtype"
    value {
      type: DT_FLOAT
    }
  }
  attr {
    key: "shape"
    value {
      shape {
        dim {
          size: 3
        }
        dim {
          size: 3
        }
        dim {
          size: 32
        }
        dim {
          size: 32
        }
      }
    }
  }
  attr {
    key: "shared_name"
    value {
      s: ""
    }
  }
}
node {
  name: "train_network/resblock0_0/conv_0/conv2d/kernel/Assign"
  op: "Assign"
  input: "train_network/resblock0_0/conv_0/conv2d/kernel"
  input: "train_network/resblock0_0/conv_0/conv2d/kernel/Initializer/truncated_normal"
  attr {
    key: "T"
    value {
      type: DT_FLOAT
    }
  }
  attr {
    key: "_class"
    value {
      list {
        s: "loc:@train_network/resblock0_0/conv_0/conv2d/kernel"
      }
    }
  }
  attr {
    key: "use_locking"
    value {
      b: true
    }
  }
  attr {
    key: "validate_shape"
    value {
      b: true
    }
  }
}
node {
  name: "train_network/resblock0_0/conv_0/conv2d/kernel/read"
  op: "Identity"
  input: "train_network/resblock0_0/conv_0/conv2d/kernel"
  attr {
    key: "T"
    value {
      type: DT_FLOAT
    }
  }
  attr {
    key: "_class"
    value {
      list {
        s: "loc:@train_network/resblock0_0/conv_0/conv2d/kernel"
      }
    }
  }
}
node {
  name: "train_network/resblock0_0/conv_0/conv2d/kernel/Regularizer/l2_regularizer/scale"
  op: "Const"
  attr {
    key: "_class"
    value {
      list {
        s: "loc:@train_network/resblock0_0/conv_0/conv2d/kernel"
      }
    }
  }
  attr {
    key: "dtype"
    value {
      type: DT_FLOAT
    }
  }
  attr {
    key: "value"
    value {
      tensor {
        dtype: DT_FLOAT
        tensor_shape {
        }
        float_val: 9.999999747378752e-05
      }
    }
  }
}
node {
  name: "train_network/resblock0_0/conv_0/conv2d/kernel/Regularizer/l2_regularizer/L2Loss"
  op: "L2Loss"
  input: "train_network/resblock0_0/conv_0/conv2d/kernel/read"
  attr {
    key: "T"
    value {
      type: DT_FLOAT
    }
  }
  attr {
    key: "_class"
    value {
      list {
        s: "loc:@train_network/resblock0_0/conv_0/conv2d/kernel"
      }
    }
  }
}
node {
  name: "train_network/resblock0_0/conv_0/conv2d/kernel/Regularizer/l2_regularizer"
  op: "Mul"
  input: "train_network/resblock0_0/conv_0/conv2d/kernel/Regularizer/l2_regularizer/scale"
  input: "train_network/resblock0_0/conv_0/conv2d/kernel/Regularizer/l2_regularizer/L2Loss"
  attr {
    key: "T"
    value {
      type: DT_FLOAT
    }
  }
  attr {
    key: "_class"
    value {
      list {
        s: "loc:@train_network/resblock0_0/conv_0/conv2d/kernel"
      }
    }
  }
}
node {
  name: "train_network/resblock0_0/conv_0/conv2d/bias/Initializer/zeros"
  op: "Const"
  attr {
    key: "_class"
    value {
      list {
        s: "loc:@train_network/resblock0_0/conv_0/conv2d/bias"
      }
    }
  }
  attr {
    key: "dtype"
    value {
      type: DT_FLOAT
    }
  }
  attr {
    key: "value"
    value {
      tensor {
        dtype: DT_FLOAT
        tensor_shape {
          dim {
            size: 32
          }
        }
        float_val: 0.0
      }
    }
  }
}
node {
  name: "train_network/resblock0_0/conv_0/conv2d/bias"
  op: "VariableV2"
  attr {
    key: "_class"
    value {
      list {
        s: "loc:@train_network/resblock0_0/conv_0/conv2d/bias"
      }
    }
  }
  attr {
    key: "container"
    value {
      s: ""
    }
  }
  attr {
    key: "dtype"
    value {
      type: DT_FLOAT
    }
  }
  attr {
    key: "shape"
    value {
      shape {
        dim {
          size: 32
        }
      }
    }
  }
  attr {
    key: "shared_name"
    value {
      s: ""
    }
  }
}
node {
  name: "train_network/resblock0_0/conv_0/conv2d/bias/Assign"
  op: "Assign"
  input: "train_network/resblock0_0/conv_0/conv2d/bias"
  input: "train_network/resblock0_0/conv_0/conv2d/bias/Initializer/zeros"
  attr {
    key: "T"
    value {
      type: DT_FLOAT
    }
  }
  attr {
    key: "_class"
    value {
      list {
        s: "loc:@train_network/resblock0_0/conv_0/conv2d/bias"
      }
    }
  }
  attr {
    key: "use_locking"
    value {
      b: true
    }
  }
  attr {
    key: "validate_shape"
    value {
      b: true
    }
  }
}
node {
  name: "train_network/resblock0_0/conv_0/conv2d/bias/read"
  op: "Identity"
  input: "train_network/resblock0_0/conv_0/conv2d/bias"
  attr {
    key: "T"
    value {
      type: DT_FLOAT
    }
  }
  attr {
    key: "_class"
    value {
      list {
        s: "loc:@train_network/resblock0_0/conv_0/conv2d/bias"
      }
    }
  }
}
node {
  name: "train_network/resblock0_0/conv_0/conv2d/dilation_rate"
  op: "Const"
  attr {
    key: "dtype"
    value {
      type: DT_INT32
    }
  }
  attr {
    key: "value"
    value {
      tensor {
        dtype: DT_INT32
        tensor_shape {
          dim {
            size: 2
          }
        }
        tensor_content: "\001\000\000\000\001\000\000\000"
      }
    }
  }
}
node {
  name: "train_network/resblock0_0/conv_0/conv2d/Conv2D"
  op: "Conv2D"
  input: "train_network/resblock0_0/Relu"
  input: "train_network/resblock0_0/conv_0/conv2d/kernel/read"
  attr {
    key: "T"
    value {
      type: DT_FLOAT
    }
  }
  attr {
    key: "data_format"
    value {
      s: "NHWC"
    }
  }
  attr {
    key: "dilations"
    value {
      list {
        i: 1
        i: 1
        i: 1
        i: 1
      }
    }
  }
  attr {
    key: "padding"
    value {
      s: "SAME"
    }
  }
  attr {
    key: "strides"
    value {
      list {
        i: 1
        i: 1
        i: 1
        i: 1
      }
    }
  }
  attr {
    key: "use_cudnn_on_gpu"
    value {
      b: true
    }
  }
}
node {
  name: "train_network/resblock0_0/conv_0/conv2d/BiasAdd"
  op: "BiasAdd"
  input: "train_network/resblock0_0/conv_0/conv2d/Conv2D"
  input: "train_network/resblock0_0/conv_0/conv2d/bias/read"
  attr {
    key: "T"
    value {
      type: DT_FLOAT
    }
  }
  attr {
    key: "data_format"
    value {
      s: "NHWC"
    }
  }
}
node {
  name: "train_network/resblock0_0/batch_norm_1/beta/Initializer/zeros"
  op: "Const"
  attr {
    key: "_class"
    value {
      list {
        s: "loc:@train_network/resblock0_0/batch_norm_1/beta"
      }
    }
  }
  attr {
    key: "dtype"
    value {
      type: DT_FLOAT
    }
  }
  attr {
    key: "value"
    value {
      tensor {
        dtype: DT_FLOAT
        tensor_shape {
          dim {
            size: 32
          }
        }
        float_val: 0.0
      }
    }
  }
}
node {
  name: "train_network/resblock0_0/batch_norm_1/beta"
  op: "VariableV2"
  attr {
    key: "_class"
    value {
      list {
        s: "loc:@train_network/resblock0_0/batch_norm_1/beta"
      }
    }
  }
  attr {
    key: "container"
    value {
      s: ""
    }
  }
  attr {
    key: "dtype"
    value {
      type: DT_FLOAT
    }
  }
  attr {
    key: "shape"
    value {
      shape {
        dim {
          size: 32
        }
      }
    }
  }
  attr {
    key: "shared_name"
    value {
      s: ""
    }
  }
}
node {
  name: "train_network/resblock0_0/batch_norm_1/beta/Assign"
  op: "Assign"
  input: "train_network/resblock0_0/batch_norm_1/beta"
  input: "train_network/resblock0_0/batch_norm_1/beta/Initializer/zeros"
  attr {
    key: "T"
    value {
      type: DT_FLOAT
    }
  }
  attr {
    key: "_class"
    value {
      list {
        s: "loc:@train_network/resblock0_0/batch_norm_1/beta"
      }
    }
  }
  attr {
    key: "use_locking"
    value {
      b: true
    }
  }
  attr {
    key: "validate_shape"
    value {
      b: true
    }
  }
}
node {
  name: "train_network/resblock0_0/batch_norm_1/beta/read"
  op: "Identity"
  input: "train_network/resblock0_0/batch_norm_1/beta"
  attr {
    key: "T"
    value {
      type: DT_FLOAT
    }
  }
  attr {
    key: "_class"
    value {
      list {
        s: "loc:@train_network/resblock0_0/batch_norm_1/beta"
      }
    }
  }
}
node {
  name: "train_network/resblock0_0/batch_norm_1/gamma/Initializer/ones"
  op: "Const"
  attr {
    key: "_class"
    value {
      list {
        s: "loc:@train_network/resblock0_0/batch_norm_1/gamma"
      }
    }
  }
  attr {
    key: "dtype"
    value {
      type: DT_FLOAT
    }
  }
  attr {
    key: "value"
    value {
      tensor {
        dtype: DT_FLOAT
        tensor_shape {
          dim {
            size: 32
          }
        }
        float_val: 1.0
      }
    }
  }
}
node {
  name: "train_network/resblock0_0/batch_norm_1/gamma"
  op: "VariableV2"
  attr {
    key: "_class"
    value {
      list {
        s: "loc:@train_network/resblock0_0/batch_norm_1/gamma"
      }
    }
  }
  attr {
    key: "container"
    value {
      s: ""
    }
  }
  attr {
    key: "dtype"
    value {
      type: DT_FLOAT
    }
  }
  attr {
    key: "shape"
    value {
      shape {
        dim {
          size: 32
        }
      }
    }
  }
  attr {
    key: "shared_name"
    value {
      s: ""
    }
  }
}
node {
  name: "train_network/resblock0_0/batch_norm_1/gamma/Assign"
  op: "Assign"
  input: "train_network/resblock0_0/batch_norm_1/gamma"
  input: "train_network/resblock0_0/batch_norm_1/gamma/Initializer/ones"
  attr {
    key: "T"
    value {
      type: DT_FLOAT
    }
  }
  attr {
    key: "_class"
    value {
      list {
        s: "loc:@train_network/resblock0_0/batch_norm_1/gamma"
      }
    }
  }
  attr {
    key: "use_locking"
    value {
      b: true
    }
  }
  attr {
    key: "validate_shape"
    value {
      b: true
    }
  }
}
node {
  name: "train_network/resblock0_0/batch_norm_1/gamma/read"
  op: "Identity"
  input: "train_network/resblock0_0/batch_norm_1/gamma"
  attr {
    key: "T"
    value {
      type: DT_FLOAT
    }
  }
  attr {
    key: "_class"
    value {
      list {
        s: "loc:@train_network/resblock0_0/batch_norm_1/gamma"
      }
    }
  }
}
node {
  name: "train_network/resblock0_0/batch_norm_1/moving_mean/Initializer/zeros"
  op: "Const"
  attr {
    key: "_class"
    value {
      list {
        s: "loc:@train_network/resblock0_0/batch_norm_1/moving_mean"
      }
    }
  }
  attr {
    key: "dtype"
    value {
      type: DT_FLOAT
    }
  }
  attr {
    key: "value"
    value {
      tensor {
        dtype: DT_FLOAT
        tensor_shape {
          dim {
            size: 32
          }
        }
        float_val: 0.0
      }
    }
  }
}
node {
  name: "train_network/resblock0_0/batch_norm_1/moving_mean"
  op: "VariableV2"
  attr {
    key: "_class"
    value {
      list {
        s: "loc:@train_network/resblock0_0/batch_norm_1/moving_mean"
      }
    }
  }
  attr {
    key: "container"
    value {
      s: ""
    }
  }
  attr {
    key: "dtype"
    value {
      type: DT_FLOAT
    }
  }
  attr {
    key: "shape"
    value {
      shape {
        dim {
          size: 32
        }
      }
    }
  }
  attr {
    key: "shared_name"
    value {
      s: ""
    }
  }
}
node {
  name: "train_network/resblock0_0/batch_norm_1/moving_mean/Assign"
  op: "Assign"
  input: "train_network/resblock0_0/batch_norm_1/moving_mean"
  input: "train_network/resblock0_0/batch_norm_1/moving_mean/Initializer/zeros"
  attr {
    key: "T"
    value {
      type: DT_FLOAT
    }
  }
  attr {
    key: "_class"
    value {
      list {
        s: "loc:@train_network/resblock0_0/batch_norm_1/moving_mean"
      }
    }
  }
  attr {
    key: "use_locking"
    value {
      b: true
    }
  }
  attr {
    key: "validate_shape"
    value {
      b: true
    }
  }
}
node {
  name: "train_network/resblock0_0/batch_norm_1/moving_mean/read"
  op: "Identity"
  input: "train_network/resblock0_0/batch_norm_1/moving_mean"
  attr {
    key: "T"
    value {
      type: DT_FLOAT
    }
  }
  attr {
    key: "_class"
    value {
      list {
        s: "loc:@train_network/resblock0_0/batch_norm_1/moving_mean"
      }
    }
  }
}
node {
  name: "train_network/resblock0_0/batch_norm_1/moving_variance/Initializer/ones"
  op: "Const"
  attr {
    key: "_class"
    value {
      list {
        s: "loc:@train_network/resblock0_0/batch_norm_1/moving_variance"
      }
    }
  }
  attr {
    key: "dtype"
    value {
      type: DT_FLOAT
    }
  }
  attr {
    key: "value"
    value {
      tensor {
        dtype: DT_FLOAT
        tensor_shape {
          dim {
            size: 32
          }
        }
        float_val: 1.0
      }
    }
  }
}
node {
  name: "train_network/resblock0_0/batch_norm_1/moving_variance"
  op: "VariableV2"
  attr {
    key: "_class"
    value {
      list {
        s: "loc:@train_network/resblock0_0/batch_norm_1/moving_variance"
      }
    }
  }
  attr {
    key: "container"
    value {
      s: ""
    }
  }
  attr {
    key: "dtype"
    value {
      type: DT_FLOAT
    }
  }
  attr {
    key: "shape"
    value {
      shape {
        dim {
          size: 32
        }
      }
    }
  }
  attr {
    key: "shared_name"
    value {
      s: ""
    }
  }
}
node {
  name: "train_network/resblock0_0/batch_norm_1/moving_variance/Assign"
  op: "Assign"
  input: "train_network/resblock0_0/batch_norm_1/moving_variance"
  input: "train_network/resblock0_0/batch_norm_1/moving_variance/Initializer/ones"
  attr {
    key: "T"
    value {
      type: DT_FLOAT
    }
  }
  attr {
    key: "_class"
    value {
      list {
        s: "loc:@train_network/resblock0_0/batch_norm_1/moving_variance"
      }
    }
  }
  attr {
    key: "use_locking"
    value {
      b: true
    }
  }
  attr {
    key: "validate_shape"
    value {
      b: true
    }
  }
}
node {
  name: "train_network/resblock0_0/batch_norm_1/moving_variance/read"
  op: "Identity"
  input: "train_network/resblock0_0/batch_norm_1/moving_variance"
  attr {
    key: "T"
    value {
      type: DT_FLOAT
    }
  }
  attr {
    key: "_class"
    value {
      list {
        s: "loc:@train_network/resblock0_0/batch_norm_1/moving_variance"
      }
    }
  }
}
node {
  name: "train_network/resblock0_0/batch_norm_1/Const"
  op: "Const"
  attr {
    key: "dtype"
    value {
      type: DT_FLOAT
    }
  }
  attr {
    key: "value"
    value {
      tensor {
        dtype: DT_FLOAT
        tensor_shape {
          dim {
          }
        }
      }
    }
  }
}
node {
  name: "train_network/resblock0_0/batch_norm_1/Const_1"
  op: "Const"
  attr {
    key: "dtype"
    value {
      type: DT_FLOAT
    }
  }
  attr {
    key: "value"
    value {
      tensor {
        dtype: DT_FLOAT
        tensor_shape {
          dim {
          }
        }
      }
    }
  }
}
node {
  name: "train_network/resblock0_0/batch_norm_1/FusedBatchNorm"
  op: "FusedBatchNorm"
  input: "train_network/resblock0_0/conv_0/conv2d/BiasAdd"
  input: "train_network/resblock0_0/batch_norm_1/gamma/read"
  input: "train_network/resblock0_0/batch_norm_1/beta/read"
  input: "train_network/resblock0_0/batch_norm_1/Const"
  input: "train_network/resblock0_0/batch_norm_1/Const_1"
  attr {
    key: "T"
    value {
      type: DT_FLOAT
    }
  }
  attr {
    key: "data_format"
    value {
      s: "NHWC"
    }
  }
  attr {
    key: "epsilon"
    value {
      f: 1.0009999641624745e-05
    }
  }
  attr {
    key: "is_training"
    value {
      b: true
    }
  }
}
node {
  name: "train_network/resblock0_0/batch_norm_1/AssignMovingAvg/decay"
  op: "Const"
  attr {
    key: "_class"
    value {
      list {
        s: "loc:@train_network/resblock0_0/batch_norm_1/moving_mean"
      }
    }
  }
  attr {
    key: "dtype"
    value {
      type: DT_FLOAT
    }
  }
  attr {
    key: "value"
    value {
      tensor {
        dtype: DT_FLOAT
        tensor_shape {
        }
        float_val: 0.10000000149011612
      }
    }
  }
}
node {
  name: "train_network/resblock0_0/batch_norm_1/AssignMovingAvg/sub"
  op: "Sub"
  input: "train_network/resblock0_0/batch_norm_1/moving_mean/read"
  input: "train_network/resblock0_0/batch_norm_1/FusedBatchNorm:1"
  attr {
    key: "T"
    value {
      type: DT_FLOAT
    }
  }
  attr {
    key: "_class"
    value {
      list {
        s: "loc:@train_network/resblock0_0/batch_norm_1/moving_mean"
      }
    }
  }
}
node {
  name: "train_network/resblock0_0/batch_norm_1/AssignMovingAvg/mul"
  op: "Mul"
  input: "train_network/resblock0_0/batch_norm_1/AssignMovingAvg/sub"
  input: "train_network/resblock0_0/batch_norm_1/AssignMovingAvg/decay"
  attr {
    key: "T"
    value {
      type: DT_FLOAT
    }
  }
  attr {
    key: "_class"
    value {
      list {
        s: "loc:@train_network/resblock0_0/batch_norm_1/moving_mean"
      }
    }
  }
}
node {
  name: "train_network/resblock0_0/batch_norm_1/AssignMovingAvg"
  op: "AssignSub"
  input: "train_network/resblock0_0/batch_norm_1/moving_mean"
  input: "train_network/resblock0_0/batch_norm_1/AssignMovingAvg/mul"
  attr {
    key: "T"
    value {
      type: DT_FLOAT
    }
  }
  attr {
    key: "_class"
    value {
      list {
        s: "loc:@train_network/resblock0_0/batch_norm_1/moving_mean"
      }
    }
  }
  attr {
    key: "use_locking"
    value {
      b: false
    }
  }
}
node {
  name: "train_network/resblock0_0/batch_norm_1/AssignMovingAvg_1/decay"
  op: "Const"
  attr {
    key: "_class"
    value {
      list {
        s: "loc:@train_network/resblock0_0/batch_norm_1/moving_variance"
      }
    }
  }
  attr {
    key: "dtype"
    value {
      type: DT_FLOAT
    }
  }
  attr {
    key: "value"
    value {
      tensor {
        dtype: DT_FLOAT
        tensor_shape {
        }
        float_val: 0.10000000149011612
      }
    }
  }
}
node {
  name: "train_network/resblock0_0/batch_norm_1/AssignMovingAvg_1/sub"
  op: "Sub"
  input: "train_network/resblock0_0/batch_norm_1/moving_variance/read"
  input: "train_network/resblock0_0/batch_norm_1/FusedBatchNorm:2"
  attr {
    key: "T"
    value {
      type: DT_FLOAT
    }
  }
  attr {
    key: "_class"
    value {
      list {
        s: "loc:@train_network/resblock0_0/batch_norm_1/moving_variance"
      }
    }
  }
}
node {
  name: "train_network/resblock0_0/batch_norm_1/AssignMovingAvg_1/mul"
  op: "Mul"
  input: "train_network/resblock0_0/batch_norm_1/AssignMovingAvg_1/sub"
  input: "train_network/resblock0_0/batch_norm_1/AssignMovingAvg_1/decay"
  attr {
    key: "T"
    value {
      type: DT_FLOAT
    }
  }
  attr {
    key: "_class"
    value {
      list {
        s: "loc:@train_network/resblock0_0/batch_norm_1/moving_variance"
      }
    }
  }
}
node {
  name: "train_network/resblock0_0/batch_norm_1/AssignMovingAvg_1"
  op: "AssignSub"
  input: "train_network/resblock0_0/batch_norm_1/moving_variance"
  input: "train_network/resblock0_0/batch_norm_1/AssignMovingAvg_1/mul"
  attr {
    key: "T"
    value {
      type: DT_FLOAT
    }
  }
  attr {
    key: "_class"
    value {
      list {
        s: "loc:@train_network/resblock0_0/batch_norm_1/moving_variance"
      }
    }
  }
  attr {
    key: "use_locking"
    value {
      b: false
    }
  }
}
node {
  name: "train_network/resblock0_0/batch_norm_1/Identity"
  op: "Identity"
  input: "train_network/resblock0_0/batch_norm_1/FusedBatchNorm"
  input: "^train_network/resblock0_0/batch_norm_1/AssignMovingAvg"
  input: "^train_network/resblock0_0/batch_norm_1/AssignMovingAvg_1"
  attr {
    key: "T"
    value {
      type: DT_FLOAT
    }
  }
}
node {
  name: "train_network/resblock0_0/Relu_1"
  op: "Relu"
  input: "train_network/resblock0_0/batch_norm_1/Identity"
  attr {
    key: "T"
    value {
      type: DT_FLOAT
    }
  }
}
node {
  name: "train_network/resblock0_0/conv_1/conv2d/kernel/Initializer/truncated_normal/shape"
  op: "Const"
  attr {
    key: "_class"
    value {
      list {
        s: "loc:@train_network/resblock0_0/conv_1/conv2d/kernel"
      }
    }
  }
  attr {
    key: "dtype"
    value {
      type: DT_INT32
    }
  }
  attr {
    key: "value"
    value {
      tensor {
        dtype: DT_INT32
        tensor_shape {
          dim {
            size: 4
          }
        }
        tensor_content: "\003\000\000\000\003\000\000\000 \000\000\000 \000\000\000"
      }
    }
  }
}
node {
  name: "train_network/resblock0_0/conv_1/conv2d/kernel/Initializer/truncated_normal/mean"
  op: "Const"
  attr {
    key: "_class"
    value {
      list {
        s: "loc:@train_network/resblock0_0/conv_1/conv2d/kernel"
      }
    }
  }
  attr {
    key: "dtype"
    value {
      type: DT_FLOAT
    }
  }
  attr {
    key: "value"
    value {
      tensor {
        dtype: DT_FLOAT
        tensor_shape {
        }
        float_val: 0.0
      }
    }
  }
}
node {
  name: "train_network/resblock0_0/conv_1/conv2d/kernel/Initializer/truncated_normal/stddev"
  op: "Const"
  attr {
    key: "_class"
    value {
      list {
        s: "loc:@train_network/resblock0_0/conv_1/conv2d/kernel"
      }
    }
  }
  attr {
    key: "dtype"
    value {
      type: DT_FLOAT
    }
  }
  attr {
    key: "value"
    value {
      tensor {
        dtype: DT_FLOAT
        tensor_shape {
        }
        float_val: 0.09501461684703827
      }
    }
  }
}
node {
  name: "train_network/resblock0_0/conv_1/conv2d/kernel/Initializer/truncated_normal/TruncatedNormal"
  op: "TruncatedNormal"
  input: "train_network/resblock0_0/conv_1/conv2d/kernel/Initializer/truncated_normal/shape"
  attr {
    key: "T"
    value {
      type: DT_INT32
    }
  }
  attr {
    key: "_class"
    value {
      list {
        s: "loc:@train_network/resblock0_0/conv_1/conv2d/kernel"
      }
    }
  }
  attr {
    key: "dtype"
    value {
      type: DT_FLOAT
    }
  }
  attr {
    key: "seed"
    value {
      i: 0
    }
  }
  attr {
    key: "seed2"
    value {
      i: 0
    }
  }
}
node {
  name: "train_network/resblock0_0/conv_1/conv2d/kernel/Initializer/truncated_normal/mul"
  op: "Mul"
  input: "train_network/resblock0_0/conv_1/conv2d/kernel/Initializer/truncated_normal/TruncatedNormal"
  input: "train_network/resblock0_0/conv_1/conv2d/kernel/Initializer/truncated_normal/stddev"
  attr {
    key: "T"
    value {
      type: DT_FLOAT
    }
  }
  attr {
    key: "_class"
    value {
      list {
        s: "loc:@train_network/resblock0_0/conv_1/conv2d/kernel"
      }
    }
  }
}
node {
  name: "train_network/resblock0_0/conv_1/conv2d/kernel/Initializer/truncated_normal"
  op: "Add"
  input: "train_network/resblock0_0/conv_1/conv2d/kernel/Initializer/truncated_normal/mul"
  input: "train_network/resblock0_0/conv_1/conv2d/kernel/Initializer/truncated_normal/mean"
  attr {
    key: "T"
    value {
      type: DT_FLOAT
    }
  }
  attr {
    key: "_class"
    value {
      list {
        s: "loc:@train_network/resblock0_0/conv_1/conv2d/kernel"
      }
    }
  }
}
node {
  name: "train_network/resblock0_0/conv_1/conv2d/kernel"
  op: "VariableV2"
  attr {
    key: "_class"
    value {
      list {
        s: "loc:@train_network/resblock0_0/conv_1/conv2d/kernel"
      }
    }
  }
  attr {
    key: "container"
    value {
      s: ""
    }
  }
  attr {
    key: "dtype"
    value {
      type: DT_FLOAT
    }
  }
  attr {
    key: "shape"
    value {
      shape {
        dim {
          size: 3
        }
        dim {
          size: 3
        }
        dim {
          size: 32
        }
        dim {
          size: 32
        }
      }
    }
  }
  attr {
    key: "shared_name"
    value {
      s: ""
    }
  }
}
node {
  name: "train_network/resblock0_0/conv_1/conv2d/kernel/Assign"
  op: "Assign"
  input: "train_network/resblock0_0/conv_1/conv2d/kernel"
  input: "train_network/resblock0_0/conv_1/conv2d/kernel/Initializer/truncated_normal"
  attr {
    key: "T"
    value {
      type: DT_FLOAT
    }
  }
  attr {
    key: "_class"
    value {
      list {
        s: "loc:@train_network/resblock0_0/conv_1/conv2d/kernel"
      }
    }
  }
  attr {
    key: "use_locking"
    value {
      b: true
    }
  }
  attr {
    key: "validate_shape"
    value {
      b: true
    }
  }
}
node {
  name: "train_network/resblock0_0/conv_1/conv2d/kernel/read"
  op: "Identity"
  input: "train_network/resblock0_0/conv_1/conv2d/kernel"
  attr {
    key: "T"
    value {
      type: DT_FLOAT
    }
  }
  attr {
    key: "_class"
    value {
      list {
        s: "loc:@train_network/resblock0_0/conv_1/conv2d/kernel"
      }
    }
  }
}
node {
  name: "train_network/resblock0_0/conv_1/conv2d/kernel/Regularizer/l2_regularizer/scale"
  op: "Const"
  attr {
    key: "_class"
    value {
      list {
        s: "loc:@train_network/resblock0_0/conv_1/conv2d/kernel"
      }
    }
  }
  attr {
    key: "dtype"
    value {
      type: DT_FLOAT
    }
  }
  attr {
    key: "value"
    value {
      tensor {
        dtype: DT_FLOAT
        tensor_shape {
        }
        float_val: 9.999999747378752e-05
      }
    }
  }
}
node {
  name: "train_network/resblock0_0/conv_1/conv2d/kernel/Regularizer/l2_regularizer/L2Loss"
  op: "L2Loss"
  input: "train_network/resblock0_0/conv_1/conv2d/kernel/read"
  attr {
    key: "T"
    value {
      type: DT_FLOAT
    }
  }
  attr {
    key: "_class"
    value {
      list {
        s: "loc:@train_network/resblock0_0/conv_1/conv2d/kernel"
      }
    }
  }
}
node {
  name: "train_network/resblock0_0/conv_1/conv2d/kernel/Regularizer/l2_regularizer"
  op: "Mul"
  input: "train_network/resblock0_0/conv_1/conv2d/kernel/Regularizer/l2_regularizer/scale"
  input: "train_network/resblock0_0/conv_1/conv2d/kernel/Regularizer/l2_regularizer/L2Loss"
  attr {
    key: "T"
    value {
      type: DT_FLOAT
    }
  }
  attr {
    key: "_class"
    value {
      list {
        s: "loc:@train_network/resblock0_0/conv_1/conv2d/kernel"
      }
    }
  }
}
node {
  name: "train_network/resblock0_0/conv_1/conv2d/bias/Initializer/zeros"
  op: "Const"
  attr {
    key: "_class"
    value {
      list {
        s: "loc:@train_network/resblock0_0/conv_1/conv2d/bias"
      }
    }
  }
  attr {
    key: "dtype"
    value {
      type: DT_FLOAT
    }
  }
  attr {
    key: "value"
    value {
      tensor {
        dtype: DT_FLOAT
        tensor_shape {
          dim {
            size: 32
          }
        }
        float_val: 0.0
      }
    }
  }
}
node {
  name: "train_network/resblock0_0/conv_1/conv2d/bias"
  op: "VariableV2"
  attr {
    key: "_class"
    value {
      list {
        s: "loc:@train_network/resblock0_0/conv_1/conv2d/bias"
      }
    }
  }
  attr {
    key: "container"
    value {
      s: ""
    }
  }
  attr {
    key: "dtype"
    value {
      type: DT_FLOAT
    }
  }
  attr {
    key: "shape"
    value {
      shape {
        dim {
          size: 32
        }
      }
    }
  }
  attr {
    key: "shared_name"
    value {
      s: ""
    }
  }
}
node {
  name: "train_network/resblock0_0/conv_1/conv2d/bias/Assign"
  op: "Assign"
  input: "train_network/resblock0_0/conv_1/conv2d/bias"
  input: "train_network/resblock0_0/conv_1/conv2d/bias/Initializer/zeros"
  attr {
    key: "T"
    value {
      type: DT_FLOAT
    }
  }
  attr {
    key: "_class"
    value {
      list {
        s: "loc:@train_network/resblock0_0/conv_1/conv2d/bias"
      }
    }
  }
  attr {
    key: "use_locking"
    value {
      b: true
    }
  }
  attr {
    key: "validate_shape"
    value {
      b: true
    }
  }
}
node {
  name: "train_network/resblock0_0/conv_1/conv2d/bias/read"
  op: "Identity"
  input: "train_network/resblock0_0/conv_1/conv2d/bias"
  attr {
    key: "T"
    value {
      type: DT_FLOAT
    }
  }
  attr {
    key: "_class"
    value {
      list {
        s: "loc:@train_network/resblock0_0/conv_1/conv2d/bias"
      }
    }
  }
}
node {
  name: "train_network/resblock0_0/conv_1/conv2d/dilation_rate"
  op: "Const"
  attr {
    key: "dtype"
    value {
      type: DT_INT32
    }
  }
  attr {
    key: "value"
    value {
      tensor {
        dtype: DT_INT32
        tensor_shape {
          dim {
            size: 2
          }
        }
        tensor_content: "\001\000\000\000\001\000\000\000"
      }
    }
  }
}
node {
  name: "train_network/resblock0_0/conv_1/conv2d/Conv2D"
  op: "Conv2D"
  input: "train_network/resblock0_0/Relu_1"
  input: "train_network/resblock0_0/conv_1/conv2d/kernel/read"
  attr {
    key: "T"
    value {
      type: DT_FLOAT
    }
  }
  attr {
    key: "data_format"
    value {
      s: "NHWC"
    }
  }
  attr {
    key: "dilations"
    value {
      list {
        i: 1
        i: 1
        i: 1
        i: 1
      }
    }
  }
  attr {
    key: "padding"
    value {
      s: "SAME"
    }
  }
  attr {
    key: "strides"
    value {
      list {
        i: 1
        i: 1
        i: 1
        i: 1
      }
    }
  }
  attr {
    key: "use_cudnn_on_gpu"
    value {
      b: true
    }
  }
}
node {
  name: "train_network/resblock0_0/conv_1/conv2d/BiasAdd"
  op: "BiasAdd"
  input: "train_network/resblock0_0/conv_1/conv2d/Conv2D"
  input: "train_network/resblock0_0/conv_1/conv2d/bias/read"
  attr {
    key: "T"
    value {
      type: DT_FLOAT
    }
  }
  attr {
    key: "data_format"
    value {
      s: "NHWC"
    }
  }
}
node {
  name: "train_network/resblock0_0/add"
  op: "Add"
  input: "train_network/resblock0_0/conv_1/conv2d/BiasAdd"
  input: "train_network/conv/conv2d/BiasAdd"
  attr {
    key: "T"
    value {
      type: DT_FLOAT
    }
  }
}
node {
  name: "train_network/resblock0_1/batch_norm_0/beta/Initializer/zeros"
  op: "Const"
  attr {
    key: "_class"
    value {
      list {
        s: "loc:@train_network/resblock0_1/batch_norm_0/beta"
      }
    }
  }
  attr {
    key: "dtype"
    value {
      type: DT_FLOAT
    }
  }
  attr {
    key: "value"
    value {
      tensor {
        dtype: DT_FLOAT
        tensor_shape {
          dim {
            size: 32
          }
        }
        float_val: 0.0
      }
    }
  }
}
node {
  name: "train_network/resblock0_1/batch_norm_0/beta"
  op: "VariableV2"
  attr {
    key: "_class"
    value {
      list {
        s: "loc:@train_network/resblock0_1/batch_norm_0/beta"
      }
    }
  }
  attr {
    key: "container"
    value {
      s: ""
    }
  }
  attr {
    key: "dtype"
    value {
      type: DT_FLOAT
    }
  }
  attr {
    key: "shape"
    value {
      shape {
        dim {
          size: 32
        }
      }
    }
  }
  attr {
    key: "shared_name"
    value {
      s: ""
    }
  }
}
node {
  name: "train_network/resblock0_1/batch_norm_0/beta/Assign"
  op: "Assign"
  input: "train_network/resblock0_1/batch_norm_0/beta"
  input: "train_network/resblock0_1/batch_norm_0/beta/Initializer/zeros"
  attr {
    key: "T"
    value {
      type: DT_FLOAT
    }
  }
  attr {
    key: "_class"
    value {
      list {
        s: "loc:@train_network/resblock0_1/batch_norm_0/beta"
      }
    }
  }
  attr {
    key: "use_locking"
    value {
      b: true
    }
  }
  attr {
    key: "validate_shape"
    value {
      b: true
    }
  }
}
node {
  name: "train_network/resblock0_1/batch_norm_0/beta/read"
  op: "Identity"
  input: "train_network/resblock0_1/batch_norm_0/beta"
  attr {
    key: "T"
    value {
      type: DT_FLOAT
    }
  }
  attr {
    key: "_class"
    value {
      list {
        s: "loc:@train_network/resblock0_1/batch_norm_0/beta"
      }
    }
  }
}
node {
  name: "train_network/resblock0_1/batch_norm_0/gamma/Initializer/ones"
  op: "Const"
  attr {
    key: "_class"
    value {
      list {
        s: "loc:@train_network/resblock0_1/batch_norm_0/gamma"
      }
    }
  }
  attr {
    key: "dtype"
    value {
      type: DT_FLOAT
    }
  }
  attr {
    key: "value"
    value {
      tensor {
        dtype: DT_FLOAT
        tensor_shape {
          dim {
            size: 32
          }
        }
        float_val: 1.0
      }
    }
  }
}
node {
  name: "train_network/resblock0_1/batch_norm_0/gamma"
  op: "VariableV2"
  attr {
    key: "_class"
    value {
      list {
        s: "loc:@train_network/resblock0_1/batch_norm_0/gamma"
      }
    }
  }
  attr {
    key: "container"
    value {
      s: ""
    }
  }
  attr {
    key: "dtype"
    value {
      type: DT_FLOAT
    }
  }
  attr {
    key: "shape"
    value {
      shape {
        dim {
          size: 32
        }
      }
    }
  }
  attr {
    key: "shared_name"
    value {
      s: ""
    }
  }
}
node {
  name: "train_network/resblock0_1/batch_norm_0/gamma/Assign"
  op: "Assign"
  input: "train_network/resblock0_1/batch_norm_0/gamma"
  input: "train_network/resblock0_1/batch_norm_0/gamma/Initializer/ones"
  attr {
    key: "T"
    value {
      type: DT_FLOAT
    }
  }
  attr {
    key: "_class"
    value {
      list {
        s: "loc:@train_network/resblock0_1/batch_norm_0/gamma"
      }
    }
  }
  attr {
    key: "use_locking"
    value {
      b: true
    }
  }
  attr {
    key: "validate_shape"
    value {
      b: true
    }
  }
}
node {
  name: "train_network/resblock0_1/batch_norm_0/gamma/read"
  op: "Identity"
  input: "train_network/resblock0_1/batch_norm_0/gamma"
  attr {
    key: "T"
    value {
      type: DT_FLOAT
    }
  }
  attr {
    key: "_class"
    value {
      list {
        s: "loc:@train_network/resblock0_1/batch_norm_0/gamma"
      }
    }
  }
}
node {
  name: "train_network/resblock0_1/batch_norm_0/moving_mean/Initializer/zeros"
  op: "Const"
  attr {
    key: "_class"
    value {
      list {
        s: "loc:@train_network/resblock0_1/batch_norm_0/moving_mean"
      }
    }
  }
  attr {
    key: "dtype"
    value {
      type: DT_FLOAT
    }
  }
  attr {
    key: "value"
    value {
      tensor {
        dtype: DT_FLOAT
        tensor_shape {
          dim {
            size: 32
          }
        }
        float_val: 0.0
      }
    }
  }
}
node {
  name: "train_network/resblock0_1/batch_norm_0/moving_mean"
  op: "VariableV2"
  attr {
    key: "_class"
    value {
      list {
        s: "loc:@train_network/resblock0_1/batch_norm_0/moving_mean"
      }
    }
  }
  attr {
    key: "container"
    value {
      s: ""
    }
  }
  attr {
    key: "dtype"
    value {
      type: DT_FLOAT
    }
  }
  attr {
    key: "shape"
    value {
      shape {
        dim {
          size: 32
        }
      }
    }
  }
  attr {
    key: "shared_name"
    value {
      s: ""
    }
  }
}
node {
  name: "train_network/resblock0_1/batch_norm_0/moving_mean/Assign"
  op: "Assign"
  input: "train_network/resblock0_1/batch_norm_0/moving_mean"
  input: "train_network/resblock0_1/batch_norm_0/moving_mean/Initializer/zeros"
  attr {
    key: "T"
    value {
      type: DT_FLOAT
    }
  }
  attr {
    key: "_class"
    value {
      list {
        s: "loc:@train_network/resblock0_1/batch_norm_0/moving_mean"
      }
    }
  }
  attr {
    key: "use_locking"
    value {
      b: true
    }
  }
  attr {
    key: "validate_shape"
    value {
      b: true
    }
  }
}
node {
  name: "train_network/resblock0_1/batch_norm_0/moving_mean/read"
  op: "Identity"
  input: "train_network/resblock0_1/batch_norm_0/moving_mean"
  attr {
    key: "T"
    value {
      type: DT_FLOAT
    }
  }
  attr {
    key: "_class"
    value {
      list {
        s: "loc:@train_network/resblock0_1/batch_norm_0/moving_mean"
      }
    }
  }
}
node {
  name: "train_network/resblock0_1/batch_norm_0/moving_variance/Initializer/ones"
  op: "Const"
  attr {
    key: "_class"
    value {
      list {
        s: "loc:@train_network/resblock0_1/batch_norm_0/moving_variance"
      }
    }
  }
  attr {
    key: "dtype"
    value {
      type: DT_FLOAT
    }
  }
  attr {
    key: "value"
    value {
      tensor {
        dtype: DT_FLOAT
        tensor_shape {
          dim {
            size: 32
          }
        }
        float_val: 1.0
      }
    }
  }
}
node {
  name: "train_network/resblock0_1/batch_norm_0/moving_variance"
  op: "VariableV2"
  attr {
    key: "_class"
    value {
      list {
        s: "loc:@train_network/resblock0_1/batch_norm_0/moving_variance"
      }
    }
  }
  attr {
    key: "container"
    value {
      s: ""
    }
  }
  attr {
    key: "dtype"
    value {
      type: DT_FLOAT
    }
  }
  attr {
    key: "shape"
    value {
      shape {
        dim {
          size: 32
        }
      }
    }
  }
  attr {
    key: "shared_name"
    value {
      s: ""
    }
  }
}
node {
  name: "train_network/resblock0_1/batch_norm_0/moving_variance/Assign"
  op: "Assign"
  input: "train_network/resblock0_1/batch_norm_0/moving_variance"
  input: "train_network/resblock0_1/batch_norm_0/moving_variance/Initializer/ones"
  attr {
    key: "T"
    value {
      type: DT_FLOAT
    }
  }
  attr {
    key: "_class"
    value {
      list {
        s: "loc:@train_network/resblock0_1/batch_norm_0/moving_variance"
      }
    }
  }
  attr {
    key: "use_locking"
    value {
      b: true
    }
  }
  attr {
    key: "validate_shape"
    value {
      b: true
    }
  }
}
node {
  name: "train_network/resblock0_1/batch_norm_0/moving_variance/read"
  op: "Identity"
  input: "train_network/resblock0_1/batch_norm_0/moving_variance"
  attr {
    key: "T"
    value {
      type: DT_FLOAT
    }
  }
  attr {
    key: "_class"
    value {
      list {
        s: "loc:@train_network/resblock0_1/batch_norm_0/moving_variance"
      }
    }
  }
}
node {
  name: "train_network/resblock0_1/batch_norm_0/Const"
  op: "Const"
  attr {
    key: "dtype"
    value {
      type: DT_FLOAT
    }
  }
  attr {
    key: "value"
    value {
      tensor {
        dtype: DT_FLOAT
        tensor_shape {
          dim {
          }
        }
      }
    }
  }
}
node {
  name: "train_network/resblock0_1/batch_norm_0/Const_1"
  op: "Const"
  attr {
    key: "dtype"
    value {
      type: DT_FLOAT
    }
  }
  attr {
    key: "value"
    value {
      tensor {
        dtype: DT_FLOAT
        tensor_shape {
          dim {
          }
        }
      }
    }
  }
}
node {
  name: "train_network/resblock0_1/batch_norm_0/FusedBatchNorm"
  op: "FusedBatchNorm"
  input: "train_network/resblock0_0/add"
  input: "train_network/resblock0_1/batch_norm_0/gamma/read"
  input: "train_network/resblock0_1/batch_norm_0/beta/read"
  input: "train_network/resblock0_1/batch_norm_0/Const"
  input: "train_network/resblock0_1/batch_norm_0/Const_1"
  attr {
    key: "T"
    value {
      type: DT_FLOAT
    }
  }
  attr {
    key: "data_format"
    value {
      s: "NHWC"
    }
  }
  attr {
    key: "epsilon"
    value {
      f: 1.0009999641624745e-05
    }
  }
  attr {
    key: "is_training"
    value {
      b: true
    }
  }
}
node {
  name: "train_network/resblock0_1/batch_norm_0/AssignMovingAvg/decay"
  op: "Const"
  attr {
    key: "_class"
    value {
      list {
        s: "loc:@train_network/resblock0_1/batch_norm_0/moving_mean"
      }
    }
  }
  attr {
    key: "dtype"
    value {
      type: DT_FLOAT
    }
  }
  attr {
    key: "value"
    value {
      tensor {
        dtype: DT_FLOAT
        tensor_shape {
        }
        float_val: 0.10000000149011612
      }
    }
  }
}
node {
  name: "train_network/resblock0_1/batch_norm_0/AssignMovingAvg/sub"
  op: "Sub"
  input: "train_network/resblock0_1/batch_norm_0/moving_mean/read"
  input: "train_network/resblock0_1/batch_norm_0/FusedBatchNorm:1"
  attr {
    key: "T"
    value {
      type: DT_FLOAT
    }
  }
  attr {
    key: "_class"
    value {
      list {
        s: "loc:@train_network/resblock0_1/batch_norm_0/moving_mean"
      }
    }
  }
}
node {
  name: "train_network/resblock0_1/batch_norm_0/AssignMovingAvg/mul"
  op: "Mul"
  input: "train_network/resblock0_1/batch_norm_0/AssignMovingAvg/sub"
  input: "train_network/resblock0_1/batch_norm_0/AssignMovingAvg/decay"
  attr {
    key: "T"
    value {
      type: DT_FLOAT
    }
  }
  attr {
    key: "_class"
    value {
      list {
        s: "loc:@train_network/resblock0_1/batch_norm_0/moving_mean"
      }
    }
  }
}
node {
  name: "train_network/resblock0_1/batch_norm_0/AssignMovingAvg"
  op: "AssignSub"
  input: "train_network/resblock0_1/batch_norm_0/moving_mean"
  input: "train_network/resblock0_1/batch_norm_0/AssignMovingAvg/mul"
  attr {
    key: "T"
    value {
      type: DT_FLOAT
    }
  }
  attr {
    key: "_class"
    value {
      list {
        s: "loc:@train_network/resblock0_1/batch_norm_0/moving_mean"
      }
    }
  }
  attr {
    key: "use_locking"
    value {
      b: false
    }
  }
}
node {
  name: "train_network/resblock0_1/batch_norm_0/AssignMovingAvg_1/decay"
  op: "Const"
  attr {
    key: "_class"
    value {
      list {
        s: "loc:@train_network/resblock0_1/batch_norm_0/moving_variance"
      }
    }
  }
  attr {
    key: "dtype"
    value {
      type: DT_FLOAT
    }
  }
  attr {
    key: "value"
    value {
      tensor {
        dtype: DT_FLOAT
        tensor_shape {
        }
        float_val: 0.10000000149011612
      }
    }
  }
}
node {
  name: "train_network/resblock0_1/batch_norm_0/AssignMovingAvg_1/sub"
  op: "Sub"
  input: "train_network/resblock0_1/batch_norm_0/moving_variance/read"
  input: "train_network/resblock0_1/batch_norm_0/FusedBatchNorm:2"
  attr {
    key: "T"
    value {
      type: DT_FLOAT
    }
  }
  attr {
    key: "_class"
    value {
      list {
        s: "loc:@train_network/resblock0_1/batch_norm_0/moving_variance"
      }
    }
  }
}
node {
  name: "train_network/resblock0_1/batch_norm_0/AssignMovingAvg_1/mul"
  op: "Mul"
  input: "train_network/resblock0_1/batch_norm_0/AssignMovingAvg_1/sub"
  input: "train_network/resblock0_1/batch_norm_0/AssignMovingAvg_1/decay"
  attr {
    key: "T"
    value {
      type: DT_FLOAT
    }
  }
  attr {
    key: "_class"
    value {
      list {
        s: "loc:@train_network/resblock0_1/batch_norm_0/moving_variance"
      }
    }
  }
}
node {
  name: "train_network/resblock0_1/batch_norm_0/AssignMovingAvg_1"
  op: "AssignSub"
  input: "train_network/resblock0_1/batch_norm_0/moving_variance"
  input: "train_network/resblock0_1/batch_norm_0/AssignMovingAvg_1/mul"
  attr {
    key: "T"
    value {
      type: DT_FLOAT
    }
  }
  attr {
    key: "_class"
    value {
      list {
        s: "loc:@train_network/resblock0_1/batch_norm_0/moving_variance"
      }
    }
  }
  attr {
    key: "use_locking"
    value {
      b: false
    }
  }
}
node {
  name: "train_network/resblock0_1/batch_norm_0/Identity"
  op: "Identity"
  input: "train_network/resblock0_1/batch_norm_0/FusedBatchNorm"
  input: "^train_network/resblock0_1/batch_norm_0/AssignMovingAvg"
  input: "^train_network/resblock0_1/batch_norm_0/AssignMovingAvg_1"
  attr {
    key: "T"
    value {
      type: DT_FLOAT
    }
  }
}
node {
  name: "train_network/resblock0_1/Relu"
  op: "Relu"
  input: "train_network/resblock0_1/batch_norm_0/Identity"
  attr {
    key: "T"
    value {
      type: DT_FLOAT
    }
  }
}
node {
  name: "train_network/resblock0_1/conv_0/conv2d/kernel/Initializer/truncated_normal/shape"
  op: "Const"
  attr {
    key: "_class"
    value {
      list {
        s: "loc:@train_network/resblock0_1/conv_0/conv2d/kernel"
      }
    }
  }
  attr {
    key: "dtype"
    value {
      type: DT_INT32
    }
  }
  attr {
    key: "value"
    value {
      tensor {
        dtype: DT_INT32
        tensor_shape {
          dim {
            size: 4
          }
        }
        tensor_content: "\003\000\000\000\003\000\000\000 \000\000\000 \000\000\000"
      }
    }
  }
}
node {
  name: "train_network/resblock0_1/conv_0/conv2d/kernel/Initializer/truncated_normal/mean"
  op: "Const"
  attr {
    key: "_class"
    value {
      list {
        s: "loc:@train_network/resblock0_1/conv_0/conv2d/kernel"
      }
    }
  }
  attr {
    key: "dtype"
    value {
      type: DT_FLOAT
    }
  }
  attr {
    key: "value"
    value {
      tensor {
        dtype: DT_FLOAT
        tensor_shape {
        }
        float_val: 0.0
      }
    }
  }
}
node {
  name: "train_network/resblock0_1/conv_0/conv2d/kernel/Initializer/truncated_normal/stddev"
  op: "Const"
  attr {
    key: "_class"
    value {
      list {
        s: "loc:@train_network/resblock0_1/conv_0/conv2d/kernel"
      }
    }
  }
  attr {
    key: "dtype"
    value {
      type: DT_FLOAT
    }
  }
  attr {
    key: "value"
    value {
      tensor {
        dtype: DT_FLOAT
        tensor_shape {
        }
        float_val: 0.09501461684703827
      }
    }
  }
}
node {
  name: "train_network/resblock0_1/conv_0/conv2d/kernel/Initializer/truncated_normal/TruncatedNormal"
  op: "TruncatedNormal"
  input: "train_network/resblock0_1/conv_0/conv2d/kernel/Initializer/truncated_normal/shape"
  attr {
    key: "T"
    value {
      type: DT_INT32
    }
  }
  attr {
    key: "_class"
    value {
      list {
        s: "loc:@train_network/resblock0_1/conv_0/conv2d/kernel"
      }
    }
  }
  attr {
    key: "dtype"
    value {
      type: DT_FLOAT
    }
  }
  attr {
    key: "seed"
    value {
      i: 0
    }
  }
  attr {
    key: "seed2"
    value {
      i: 0
    }
  }
}
node {
  name: "train_network/resblock0_1/conv_0/conv2d/kernel/Initializer/truncated_normal/mul"
  op: "Mul"
  input: "train_network/resblock0_1/conv_0/conv2d/kernel/Initializer/truncated_normal/TruncatedNormal"
  input: "train_network/resblock0_1/conv_0/conv2d/kernel/Initializer/truncated_normal/stddev"
  attr {
    key: "T"
    value {
      type: DT_FLOAT
    }
  }
  attr {
    key: "_class"
    value {
      list {
        s: "loc:@train_network/resblock0_1/conv_0/conv2d/kernel"
      }
    }
  }
}
node {
  name: "train_network/resblock0_1/conv_0/conv2d/kernel/Initializer/truncated_normal"
  op: "Add"
  input: "train_network/resblock0_1/conv_0/conv2d/kernel/Initializer/truncated_normal/mul"
  input: "train_network/resblock0_1/conv_0/conv2d/kernel/Initializer/truncated_normal/mean"
  attr {
    key: "T"
    value {
      type: DT_FLOAT
    }
  }
  attr {
    key: "_class"
    value {
      list {
        s: "loc:@train_network/resblock0_1/conv_0/conv2d/kernel"
      }
    }
  }
}
node {
  name: "train_network/resblock0_1/conv_0/conv2d/kernel"
  op: "VariableV2"
  attr {
    key: "_class"
    value {
      list {
        s: "loc:@train_network/resblock0_1/conv_0/conv2d/kernel"
      }
    }
  }
  attr {
    key: "container"
    value {
      s: ""
    }
  }
  attr {
    key: "dtype"
    value {
      type: DT_FLOAT
    }
  }
  attr {
    key: "shape"
    value {
      shape {
        dim {
          size: 3
        }
        dim {
          size: 3
        }
        dim {
          size: 32
        }
        dim {
          size: 32
        }
      }
    }
  }
  attr {
    key: "shared_name"
    value {
      s: ""
    }
  }
}
node {
  name: "train_network/resblock0_1/conv_0/conv2d/kernel/Assign"
  op: "Assign"
  input: "train_network/resblock0_1/conv_0/conv2d/kernel"
  input: "train_network/resblock0_1/conv_0/conv2d/kernel/Initializer/truncated_normal"
  attr {
    key: "T"
    value {
      type: DT_FLOAT
    }
  }
  attr {
    key: "_class"
    value {
      list {
        s: "loc:@train_network/resblock0_1/conv_0/conv2d/kernel"
      }
    }
  }
  attr {
    key: "use_locking"
    value {
      b: true
    }
  }
  attr {
    key: "validate_shape"
    value {
      b: true
    }
  }
}
node {
  name: "train_network/resblock0_1/conv_0/conv2d/kernel/read"
  op: "Identity"
  input: "train_network/resblock0_1/conv_0/conv2d/kernel"
  attr {
    key: "T"
    value {
      type: DT_FLOAT
    }
  }
  attr {
    key: "_class"
    value {
      list {
        s: "loc:@train_network/resblock0_1/conv_0/conv2d/kernel"
      }
    }
  }
}
node {
  name: "train_network/resblock0_1/conv_0/conv2d/kernel/Regularizer/l2_regularizer/scale"
  op: "Const"
  attr {
    key: "_class"
    value {
      list {
        s: "loc:@train_network/resblock0_1/conv_0/conv2d/kernel"
      }
    }
  }
  attr {
    key: "dtype"
    value {
      type: DT_FLOAT
    }
  }
  attr {
    key: "value"
    value {
      tensor {
        dtype: DT_FLOAT
        tensor_shape {
        }
        float_val: 9.999999747378752e-05
      }
    }
  }
}
node {
  name: "train_network/resblock0_1/conv_0/conv2d/kernel/Regularizer/l2_regularizer/L2Loss"
  op: "L2Loss"
  input: "train_network/resblock0_1/conv_0/conv2d/kernel/read"
  attr {
    key: "T"
    value {
      type: DT_FLOAT
    }
  }
  attr {
    key: "_class"
    value {
      list {
        s: "loc:@train_network/resblock0_1/conv_0/conv2d/kernel"
      }
    }
  }
}
node {
  name: "train_network/resblock0_1/conv_0/conv2d/kernel/Regularizer/l2_regularizer"
  op: "Mul"
  input: "train_network/resblock0_1/conv_0/conv2d/kernel/Regularizer/l2_regularizer/scale"
  input: "train_network/resblock0_1/conv_0/conv2d/kernel/Regularizer/l2_regularizer/L2Loss"
  attr {
    key: "T"
    value {
      type: DT_FLOAT
    }
  }
  attr {
    key: "_class"
    value {
      list {
        s: "loc:@train_network/resblock0_1/conv_0/conv2d/kernel"
      }
    }
  }
}
node {
  name: "train_network/resblock0_1/conv_0/conv2d/bias/Initializer/zeros"
  op: "Const"
  attr {
    key: "_class"
    value {
      list {
        s: "loc:@train_network/resblock0_1/conv_0/conv2d/bias"
      }
    }
  }
  attr {
    key: "dtype"
    value {
      type: DT_FLOAT
    }
  }
  attr {
    key: "value"
    value {
      tensor {
        dtype: DT_FLOAT
        tensor_shape {
          dim {
            size: 32
          }
        }
        float_val: 0.0
      }
    }
  }
}
node {
  name: "train_network/resblock0_1/conv_0/conv2d/bias"
  op: "VariableV2"
  attr {
    key: "_class"
    value {
      list {
        s: "loc:@train_network/resblock0_1/conv_0/conv2d/bias"
      }
    }
  }
  attr {
    key: "container"
    value {
      s: ""
    }
  }
  attr {
    key: "dtype"
    value {
      type: DT_FLOAT
    }
  }
  attr {
    key: "shape"
    value {
      shape {
        dim {
          size: 32
        }
      }
    }
  }
  attr {
    key: "shared_name"
    value {
      s: ""
    }
  }
}
node {
  name: "train_network/resblock0_1/conv_0/conv2d/bias/Assign"
  op: "Assign"
  input: "train_network/resblock0_1/conv_0/conv2d/bias"
  input: "train_network/resblock0_1/conv_0/conv2d/bias/Initializer/zeros"
  attr {
    key: "T"
    value {
      type: DT_FLOAT
    }
  }
  attr {
    key: "_class"
    value {
      list {
        s: "loc:@train_network/resblock0_1/conv_0/conv2d/bias"
      }
    }
  }
  attr {
    key: "use_locking"
    value {
      b: true
    }
  }
  attr {
    key: "validate_shape"
    value {
      b: true
    }
  }
}
node {
  name: "train_network/resblock0_1/conv_0/conv2d/bias/read"
  op: "Identity"
  input: "train_network/resblock0_1/conv_0/conv2d/bias"
  attr {
    key: "T"
    value {
      type: DT_FLOAT
    }
  }
  attr {
    key: "_class"
    value {
      list {
        s: "loc:@train_network/resblock0_1/conv_0/conv2d/bias"
      }
    }
  }
}
node {
  name: "train_network/resblock0_1/conv_0/conv2d/dilation_rate"
  op: "Const"
  attr {
    key: "dtype"
    value {
      type: DT_INT32
    }
  }
  attr {
    key: "value"
    value {
      tensor {
        dtype: DT_INT32
        tensor_shape {
          dim {
            size: 2
          }
        }
        tensor_content: "\001\000\000\000\001\000\000\000"
      }
    }
  }
}
node {
  name: "train_network/resblock0_1/conv_0/conv2d/Conv2D"
  op: "Conv2D"
  input: "train_network/resblock0_1/Relu"
  input: "train_network/resblock0_1/conv_0/conv2d/kernel/read"
  attr {
    key: "T"
    value {
      type: DT_FLOAT
    }
  }
  attr {
    key: "data_format"
    value {
      s: "NHWC"
    }
  }
  attr {
    key: "dilations"
    value {
      list {
        i: 1
        i: 1
        i: 1
        i: 1
      }
    }
  }
  attr {
    key: "padding"
    value {
      s: "SAME"
    }
  }
  attr {
    key: "strides"
    value {
      list {
        i: 1
        i: 1
        i: 1
        i: 1
      }
    }
  }
  attr {
    key: "use_cudnn_on_gpu"
    value {
      b: true
    }
  }
}
node {
  name: "train_network/resblock0_1/conv_0/conv2d/BiasAdd"
  op: "BiasAdd"
  input: "train_network/resblock0_1/conv_0/conv2d/Conv2D"
  input: "train_network/resblock0_1/conv_0/conv2d/bias/read"
  attr {
    key: "T"
    value {
      type: DT_FLOAT
    }
  }
  attr {
    key: "data_format"
    value {
      s: "NHWC"
    }
  }
}
node {
  name: "train_network/resblock0_1/batch_norm_1/beta/Initializer/zeros"
  op: "Const"
  attr {
    key: "_class"
    value {
      list {
        s: "loc:@train_network/resblock0_1/batch_norm_1/beta"
      }
    }
  }
  attr {
    key: "dtype"
    value {
      type: DT_FLOAT
    }
  }
  attr {
    key: "value"
    value {
      tensor {
        dtype: DT_FLOAT
        tensor_shape {
          dim {
            size: 32
          }
        }
        float_val: 0.0
      }
    }
  }
}
node {
  name: "train_network/resblock0_1/batch_norm_1/beta"
  op: "VariableV2"
  attr {
    key: "_class"
    value {
      list {
        s: "loc:@train_network/resblock0_1/batch_norm_1/beta"
      }
    }
  }
  attr {
    key: "container"
    value {
      s: ""
    }
  }
  attr {
    key: "dtype"
    value {
      type: DT_FLOAT
    }
  }
  attr {
    key: "shape"
    value {
      shape {
        dim {
          size: 32
        }
      }
    }
  }
  attr {
    key: "shared_name"
    value {
      s: ""
    }
  }
}
node {
  name: "train_network/resblock0_1/batch_norm_1/beta/Assign"
  op: "Assign"
  input: "train_network/resblock0_1/batch_norm_1/beta"
  input: "train_network/resblock0_1/batch_norm_1/beta/Initializer/zeros"
  attr {
    key: "T"
    value {
      type: DT_FLOAT
    }
  }
  attr {
    key: "_class"
    value {
      list {
        s: "loc:@train_network/resblock0_1/batch_norm_1/beta"
      }
    }
  }
  attr {
    key: "use_locking"
    value {
      b: true
    }
  }
  attr {
    key: "validate_shape"
    value {
      b: true
    }
  }
}
node {
  name: "train_network/resblock0_1/batch_norm_1/beta/read"
  op: "Identity"
  input: "train_network/resblock0_1/batch_norm_1/beta"
  attr {
    key: "T"
    value {
      type: DT_FLOAT
    }
  }
  attr {
    key: "_class"
    value {
      list {
        s: "loc:@train_network/resblock0_1/batch_norm_1/beta"
      }
    }
  }
}
node {
  name: "train_network/resblock0_1/batch_norm_1/gamma/Initializer/ones"
  op: "Const"
  attr {
    key: "_class"
    value {
      list {
        s: "loc:@train_network/resblock0_1/batch_norm_1/gamma"
      }
    }
  }
  attr {
    key: "dtype"
    value {
      type: DT_FLOAT
    }
  }
  attr {
    key: "value"
    value {
      tensor {
        dtype: DT_FLOAT
        tensor_shape {
          dim {
            size: 32
          }
        }
        float_val: 1.0
      }
    }
  }
}
node {
  name: "train_network/resblock0_1/batch_norm_1/gamma"
  op: "VariableV2"
  attr {
    key: "_class"
    value {
      list {
        s: "loc:@train_network/resblock0_1/batch_norm_1/gamma"
      }
    }
  }
  attr {
    key: "container"
    value {
      s: ""
    }
  }
  attr {
    key: "dtype"
    value {
      type: DT_FLOAT
    }
  }
  attr {
    key: "shape"
    value {
      shape {
        dim {
          size: 32
        }
      }
    }
  }
  attr {
    key: "shared_name"
    value {
      s: ""
    }
  }
}
node {
  name: "train_network/resblock0_1/batch_norm_1/gamma/Assign"
  op: "Assign"
  input: "train_network/resblock0_1/batch_norm_1/gamma"
  input: "train_network/resblock0_1/batch_norm_1/gamma/Initializer/ones"
  attr {
    key: "T"
    value {
      type: DT_FLOAT
    }
  }
  attr {
    key: "_class"
    value {
      list {
        s: "loc:@train_network/resblock0_1/batch_norm_1/gamma"
      }
    }
  }
  attr {
    key: "use_locking"
    value {
      b: true
    }
  }
  attr {
    key: "validate_shape"
    value {
      b: true
    }
  }
}
node {
  name: "train_network/resblock0_1/batch_norm_1/gamma/read"
  op: "Identity"
  input: "train_network/resblock0_1/batch_norm_1/gamma"
  attr {
    key: "T"
    value {
      type: DT_FLOAT
    }
  }
  attr {
    key: "_class"
    value {
      list {
        s: "loc:@train_network/resblock0_1/batch_norm_1/gamma"
      }
    }
  }
}
node {
  name: "train_network/resblock0_1/batch_norm_1/moving_mean/Initializer/zeros"
  op: "Const"
  attr {
    key: "_class"
    value {
      list {
        s: "loc:@train_network/resblock0_1/batch_norm_1/moving_mean"
      }
    }
  }
  attr {
    key: "dtype"
    value {
      type: DT_FLOAT
    }
  }
  attr {
    key: "value"
    value {
      tensor {
        dtype: DT_FLOAT
        tensor_shape {
          dim {
            size: 32
          }
        }
        float_val: 0.0
      }
    }
  }
}
node {
  name: "train_network/resblock0_1/batch_norm_1/moving_mean"
  op: "VariableV2"
  attr {
    key: "_class"
    value {
      list {
        s: "loc:@train_network/resblock0_1/batch_norm_1/moving_mean"
      }
    }
  }
  attr {
    key: "container"
    value {
      s: ""
    }
  }
  attr {
    key: "dtype"
    value {
      type: DT_FLOAT
    }
  }
  attr {
    key: "shape"
    value {
      shape {
        dim {
          size: 32
        }
      }
    }
  }
  attr {
    key: "shared_name"
    value {
      s: ""
    }
  }
}
node {
  name: "train_network/resblock0_1/batch_norm_1/moving_mean/Assign"
  op: "Assign"
  input: "train_network/resblock0_1/batch_norm_1/moving_mean"
  input: "train_network/resblock0_1/batch_norm_1/moving_mean/Initializer/zeros"
  attr {
    key: "T"
    value {
      type: DT_FLOAT
    }
  }
  attr {
    key: "_class"
    value {
      list {
        s: "loc:@train_network/resblock0_1/batch_norm_1/moving_mean"
      }
    }
  }
  attr {
    key: "use_locking"
    value {
      b: true
    }
  }
  attr {
    key: "validate_shape"
    value {
      b: true
    }
  }
}
node {
  name: "train_network/resblock0_1/batch_norm_1/moving_mean/read"
  op: "Identity"
  input: "train_network/resblock0_1/batch_norm_1/moving_mean"
  attr {
    key: "T"
    value {
      type: DT_FLOAT
    }
  }
  attr {
    key: "_class"
    value {
      list {
        s: "loc:@train_network/resblock0_1/batch_norm_1/moving_mean"
      }
    }
  }
}
node {
  name: "train_network/resblock0_1/batch_norm_1/moving_variance/Initializer/ones"
  op: "Const"
  attr {
    key: "_class"
    value {
      list {
        s: "loc:@train_network/resblock0_1/batch_norm_1/moving_variance"
      }
    }
  }
  attr {
    key: "dtype"
    value {
      type: DT_FLOAT
    }
  }
  attr {
    key: "value"
    value {
      tensor {
        dtype: DT_FLOAT
        tensor_shape {
          dim {
            size: 32
          }
        }
        float_val: 1.0
      }
    }
  }
}
node {
  name: "train_network/resblock0_1/batch_norm_1/moving_variance"
  op: "VariableV2"
  attr {
    key: "_class"
    value {
      list {
        s: "loc:@train_network/resblock0_1/batch_norm_1/moving_variance"
      }
    }
  }
  attr {
    key: "container"
    value {
      s: ""
    }
  }
  attr {
    key: "dtype"
    value {
      type: DT_FLOAT
    }
  }
  attr {
    key: "shape"
    value {
      shape {
        dim {
          size: 32
        }
      }
    }
  }
  attr {
    key: "shared_name"
    value {
      s: ""
    }
  }
}
node {
  name: "train_network/resblock0_1/batch_norm_1/moving_variance/Assign"
  op: "Assign"
  input: "train_network/resblock0_1/batch_norm_1/moving_variance"
  input: "train_network/resblock0_1/batch_norm_1/moving_variance/Initializer/ones"
  attr {
    key: "T"
    value {
      type: DT_FLOAT
    }
  }
  attr {
    key: "_class"
    value {
      list {
        s: "loc:@train_network/resblock0_1/batch_norm_1/moving_variance"
      }
    }
  }
  attr {
    key: "use_locking"
    value {
      b: true
    }
  }
  attr {
    key: "validate_shape"
    value {
      b: true
    }
  }
}
node {
  name: "train_network/resblock0_1/batch_norm_1/moving_variance/read"
  op: "Identity"
  input: "train_network/resblock0_1/batch_norm_1/moving_variance"
  attr {
    key: "T"
    value {
      type: DT_FLOAT
    }
  }
  attr {
    key: "_class"
    value {
      list {
        s: "loc:@train_network/resblock0_1/batch_norm_1/moving_variance"
      }
    }
  }
}
node {
  name: "train_network/resblock0_1/batch_norm_1/Const"
  op: "Const"
  attr {
    key: "dtype"
    value {
      type: DT_FLOAT
    }
  }
  attr {
    key: "value"
    value {
      tensor {
        dtype: DT_FLOAT
        tensor_shape {
          dim {
          }
        }
      }
    }
  }
}
node {
  name: "train_network/resblock0_1/batch_norm_1/Const_1"
  op: "Const"
  attr {
    key: "dtype"
    value {
      type: DT_FLOAT
    }
  }
  attr {
    key: "value"
    value {
      tensor {
        dtype: DT_FLOAT
        tensor_shape {
          dim {
          }
        }
      }
    }
  }
}
node {
  name: "train_network/resblock0_1/batch_norm_1/FusedBatchNorm"
  op: "FusedBatchNorm"
  input: "train_network/resblock0_1/conv_0/conv2d/BiasAdd"
  input: "train_network/resblock0_1/batch_norm_1/gamma/read"
  input: "train_network/resblock0_1/batch_norm_1/beta/read"
  input: "train_network/resblock0_1/batch_norm_1/Const"
  input: "train_network/resblock0_1/batch_norm_1/Const_1"
  attr {
    key: "T"
    value {
      type: DT_FLOAT
    }
  }
  attr {
    key: "data_format"
    value {
      s: "NHWC"
    }
  }
  attr {
    key: "epsilon"
    value {
      f: 1.0009999641624745e-05
    }
  }
  attr {
    key: "is_training"
    value {
      b: true
    }
  }
}
node {
  name: "train_network/resblock0_1/batch_norm_1/AssignMovingAvg/decay"
  op: "Const"
  attr {
    key: "_class"
    value {
      list {
        s: "loc:@train_network/resblock0_1/batch_norm_1/moving_mean"
      }
    }
  }
  attr {
    key: "dtype"
    value {
      type: DT_FLOAT
    }
  }
  attr {
    key: "value"
    value {
      tensor {
        dtype: DT_FLOAT
        tensor_shape {
        }
        float_val: 0.10000000149011612
      }
    }
  }
}
node {
  name: "train_network/resblock0_1/batch_norm_1/AssignMovingAvg/sub"
  op: "Sub"
  input: "train_network/resblock0_1/batch_norm_1/moving_mean/read"
  input: "train_network/resblock0_1/batch_norm_1/FusedBatchNorm:1"
  attr {
    key: "T"
    value {
      type: DT_FLOAT
    }
  }
  attr {
    key: "_class"
    value {
      list {
        s: "loc:@train_network/resblock0_1/batch_norm_1/moving_mean"
      }
    }
  }
}
node {
  name: "train_network/resblock0_1/batch_norm_1/AssignMovingAvg/mul"
  op: "Mul"
  input: "train_network/resblock0_1/batch_norm_1/AssignMovingAvg/sub"
  input: "train_network/resblock0_1/batch_norm_1/AssignMovingAvg/decay"
  attr {
    key: "T"
    value {
      type: DT_FLOAT
    }
  }
  attr {
    key: "_class"
    value {
      list {
        s: "loc:@train_network/resblock0_1/batch_norm_1/moving_mean"
      }
    }
  }
}
node {
  name: "train_network/resblock0_1/batch_norm_1/AssignMovingAvg"
  op: "AssignSub"
  input: "train_network/resblock0_1/batch_norm_1/moving_mean"
  input: "train_network/resblock0_1/batch_norm_1/AssignMovingAvg/mul"
  attr {
    key: "T"
    value {
      type: DT_FLOAT
    }
  }
  attr {
    key: "_class"
    value {
      list {
        s: "loc:@train_network/resblock0_1/batch_norm_1/moving_mean"
      }
    }
  }
  attr {
    key: "use_locking"
    value {
      b: false
    }
  }
}
node {
  name: "train_network/resblock0_1/batch_norm_1/AssignMovingAvg_1/decay"
  op: "Const"
  attr {
    key: "_class"
    value {
      list {
        s: "loc:@train_network/resblock0_1/batch_norm_1/moving_variance"
      }
    }
  }
  attr {
    key: "dtype"
    value {
      type: DT_FLOAT
    }
  }
  attr {
    key: "value"
    value {
      tensor {
        dtype: DT_FLOAT
        tensor_shape {
        }
        float_val: 0.10000000149011612
      }
    }
  }
}
node {
  name: "train_network/resblock0_1/batch_norm_1/AssignMovingAvg_1/sub"
  op: "Sub"
  input: "train_network/resblock0_1/batch_norm_1/moving_variance/read"
  input: "train_network/resblock0_1/batch_norm_1/FusedBatchNorm:2"
  attr {
    key: "T"
    value {
      type: DT_FLOAT
    }
  }
  attr {
    key: "_class"
    value {
      list {
        s: "loc:@train_network/resblock0_1/batch_norm_1/moving_variance"
      }
    }
  }
}
node {
  name: "train_network/resblock0_1/batch_norm_1/AssignMovingAvg_1/mul"
  op: "Mul"
  input: "train_network/resblock0_1/batch_norm_1/AssignMovingAvg_1/sub"
  input: "train_network/resblock0_1/batch_norm_1/AssignMovingAvg_1/decay"
  attr {
    key: "T"
    value {
      type: DT_FLOAT
    }
  }
  attr {
    key: "_class"
    value {
      list {
        s: "loc:@train_network/resblock0_1/batch_norm_1/moving_variance"
      }
    }
  }
}
node {
  name: "train_network/resblock0_1/batch_norm_1/AssignMovingAvg_1"
  op: "AssignSub"
  input: "train_network/resblock0_1/batch_norm_1/moving_variance"
  input: "train_network/resblock0_1/batch_norm_1/AssignMovingAvg_1/mul"
  attr {
    key: "T"
    value {
      type: DT_FLOAT
    }
  }
  attr {
    key: "_class"
    value {
      list {
        s: "loc:@train_network/resblock0_1/batch_norm_1/moving_variance"
      }
    }
  }
  attr {
    key: "use_locking"
    value {
      b: false
    }
  }
}
node {
  name: "train_network/resblock0_1/batch_norm_1/Identity"
  op: "Identity"
  input: "train_network/resblock0_1/batch_norm_1/FusedBatchNorm"
  input: "^train_network/resblock0_1/batch_norm_1/AssignMovingAvg"
  input: "^train_network/resblock0_1/batch_norm_1/AssignMovingAvg_1"
  attr {
    key: "T"
    value {
      type: DT_FLOAT
    }
  }
}
node {
  name: "train_network/resblock0_1/Relu_1"
  op: "Relu"
  input: "train_network/resblock0_1/batch_norm_1/Identity"
  attr {
    key: "T"
    value {
      type: DT_FLOAT
    }
  }
}
node {
  name: "train_network/resblock0_1/conv_1/conv2d/kernel/Initializer/truncated_normal/shape"
  op: "Const"
  attr {
    key: "_class"
    value {
      list {
        s: "loc:@train_network/resblock0_1/conv_1/conv2d/kernel"
      }
    }
  }
  attr {
    key: "dtype"
    value {
      type: DT_INT32
    }
  }
  attr {
    key: "value"
    value {
      tensor {
        dtype: DT_INT32
        tensor_shape {
          dim {
            size: 4
          }
        }
        tensor_content: "\003\000\000\000\003\000\000\000 \000\000\000 \000\000\000"
      }
    }
  }
}
node {
  name: "train_network/resblock0_1/conv_1/conv2d/kernel/Initializer/truncated_normal/mean"
  op: "Const"
  attr {
    key: "_class"
    value {
      list {
        s: "loc:@train_network/resblock0_1/conv_1/conv2d/kernel"
      }
    }
  }
  attr {
    key: "dtype"
    value {
      type: DT_FLOAT
    }
  }
  attr {
    key: "value"
    value {
      tensor {
        dtype: DT_FLOAT
        tensor_shape {
        }
        float_val: 0.0
      }
    }
  }
}
node {
  name: "train_network/resblock0_1/conv_1/conv2d/kernel/Initializer/truncated_normal/stddev"
  op: "Const"
  attr {
    key: "_class"
    value {
      list {
        s: "loc:@train_network/resblock0_1/conv_1/conv2d/kernel"
      }
    }
  }
  attr {
    key: "dtype"
    value {
      type: DT_FLOAT
    }
  }
  attr {
    key: "value"
    value {
      tensor {
        dtype: DT_FLOAT
        tensor_shape {
        }
        float_val: 0.09501461684703827
      }
    }
  }
}
node {
  name: "train_network/resblock0_1/conv_1/conv2d/kernel/Initializer/truncated_normal/TruncatedNormal"
  op: "TruncatedNormal"
  input: "train_network/resblock0_1/conv_1/conv2d/kernel/Initializer/truncated_normal/shape"
  attr {
    key: "T"
    value {
      type: DT_INT32
    }
  }
  attr {
    key: "_class"
    value {
      list {
        s: "loc:@train_network/resblock0_1/conv_1/conv2d/kernel"
      }
    }
  }
  attr {
    key: "dtype"
    value {
      type: DT_FLOAT
    }
  }
  attr {
    key: "seed"
    value {
      i: 0
    }
  }
  attr {
    key: "seed2"
    value {
      i: 0
    }
  }
}
node {
  name: "train_network/resblock0_1/conv_1/conv2d/kernel/Initializer/truncated_normal/mul"
  op: "Mul"
  input: "train_network/resblock0_1/conv_1/conv2d/kernel/Initializer/truncated_normal/TruncatedNormal"
  input: "train_network/resblock0_1/conv_1/conv2d/kernel/Initializer/truncated_normal/stddev"
  attr {
    key: "T"
    value {
      type: DT_FLOAT
    }
  }
  attr {
    key: "_class"
    value {
      list {
        s: "loc:@train_network/resblock0_1/conv_1/conv2d/kernel"
      }
    }
  }
}
node {
  name: "train_network/resblock0_1/conv_1/conv2d/kernel/Initializer/truncated_normal"
  op: "Add"
  input: "train_network/resblock0_1/conv_1/conv2d/kernel/Initializer/truncated_normal/mul"
  input: "train_network/resblock0_1/conv_1/conv2d/kernel/Initializer/truncated_normal/mean"
  attr {
    key: "T"
    value {
      type: DT_FLOAT
    }
  }
  attr {
    key: "_class"
    value {
      list {
        s: "loc:@train_network/resblock0_1/conv_1/conv2d/kernel"
      }
    }
  }
}
node {
  name: "train_network/resblock0_1/conv_1/conv2d/kernel"
  op: "VariableV2"
  attr {
    key: "_class"
    value {
      list {
        s: "loc:@train_network/resblock0_1/conv_1/conv2d/kernel"
      }
    }
  }
  attr {
    key: "container"
    value {
      s: ""
    }
  }
  attr {
    key: "dtype"
    value {
      type: DT_FLOAT
    }
  }
  attr {
    key: "shape"
    value {
      shape {
        dim {
          size: 3
        }
        dim {
          size: 3
        }
        dim {
          size: 32
        }
        dim {
          size: 32
        }
      }
    }
  }
  attr {
    key: "shared_name"
    value {
      s: ""
    }
  }
}
node {
  name: "train_network/resblock0_1/conv_1/conv2d/kernel/Assign"
  op: "Assign"
  input: "train_network/resblock0_1/conv_1/conv2d/kernel"
  input: "train_network/resblock0_1/conv_1/conv2d/kernel/Initializer/truncated_normal"
  attr {
    key: "T"
    value {
      type: DT_FLOAT
    }
  }
  attr {
    key: "_class"
    value {
      list {
        s: "loc:@train_network/resblock0_1/conv_1/conv2d/kernel"
      }
    }
  }
  attr {
    key: "use_locking"
    value {
      b: true
    }
  }
  attr {
    key: "validate_shape"
    value {
      b: true
    }
  }
}
node {
  name: "train_network/resblock0_1/conv_1/conv2d/kernel/read"
  op: "Identity"
  input: "train_network/resblock0_1/conv_1/conv2d/kernel"
  attr {
    key: "T"
    value {
      type: DT_FLOAT
    }
  }
  attr {
    key: "_class"
    value {
      list {
        s: "loc:@train_network/resblock0_1/conv_1/conv2d/kernel"
      }
    }
  }
}
node {
  name: "train_network/resblock0_1/conv_1/conv2d/kernel/Regularizer/l2_regularizer/scale"
  op: "Const"
  attr {
    key: "_class"
    value {
      list {
        s: "loc:@train_network/resblock0_1/conv_1/conv2d/kernel"
      }
    }
  }
  attr {
    key: "dtype"
    value {
      type: DT_FLOAT
    }
  }
  attr {
    key: "value"
    value {
      tensor {
        dtype: DT_FLOAT
        tensor_shape {
        }
        float_val: 9.999999747378752e-05
      }
    }
  }
}
node {
  name: "train_network/resblock0_1/conv_1/conv2d/kernel/Regularizer/l2_regularizer/L2Loss"
  op: "L2Loss"
  input: "train_network/resblock0_1/conv_1/conv2d/kernel/read"
  attr {
    key: "T"
    value {
      type: DT_FLOAT
    }
  }
  attr {
    key: "_class"
    value {
      list {
        s: "loc:@train_network/resblock0_1/conv_1/conv2d/kernel"
      }
    }
  }
}
node {
  name: "train_network/resblock0_1/conv_1/conv2d/kernel/Regularizer/l2_regularizer"
  op: "Mul"
  input: "train_network/resblock0_1/conv_1/conv2d/kernel/Regularizer/l2_regularizer/scale"
  input: "train_network/resblock0_1/conv_1/conv2d/kernel/Regularizer/l2_regularizer/L2Loss"
  attr {
    key: "T"
    value {
      type: DT_FLOAT
    }
  }
  attr {
    key: "_class"
    value {
      list {
        s: "loc:@train_network/resblock0_1/conv_1/conv2d/kernel"
      }
    }
  }
}
node {
  name: "train_network/resblock0_1/conv_1/conv2d/bias/Initializer/zeros"
  op: "Const"
  attr {
    key: "_class"
    value {
      list {
        s: "loc:@train_network/resblock0_1/conv_1/conv2d/bias"
      }
    }
  }
  attr {
    key: "dtype"
    value {
      type: DT_FLOAT
    }
  }
  attr {
    key: "value"
    value {
      tensor {
        dtype: DT_FLOAT
        tensor_shape {
          dim {
            size: 32
          }
        }
        float_val: 0.0
      }
    }
  }
}
node {
  name: "train_network/resblock0_1/conv_1/conv2d/bias"
  op: "VariableV2"
  attr {
    key: "_class"
    value {
      list {
        s: "loc:@train_network/resblock0_1/conv_1/conv2d/bias"
      }
    }
  }
  attr {
    key: "container"
    value {
      s: ""
    }
  }
  attr {
    key: "dtype"
    value {
      type: DT_FLOAT
    }
  }
  attr {
    key: "shape"
    value {
      shape {
        dim {
          size: 32
        }
      }
    }
  }
  attr {
    key: "shared_name"
    value {
      s: ""
    }
  }
}
node {
  name: "train_network/resblock0_1/conv_1/conv2d/bias/Assign"
  op: "Assign"
  input: "train_network/resblock0_1/conv_1/conv2d/bias"
  input: "train_network/resblock0_1/conv_1/conv2d/bias/Initializer/zeros"
  attr {
    key: "T"
    value {
      type: DT_FLOAT
    }
  }
  attr {
    key: "_class"
    value {
      list {
        s: "loc:@train_network/resblock0_1/conv_1/conv2d/bias"
      }
    }
  }
  attr {
    key: "use_locking"
    value {
      b: true
    }
  }
  attr {
    key: "validate_shape"
    value {
      b: true
    }
  }
}
node {
  name: "train_network/resblock0_1/conv_1/conv2d/bias/read"
  op: "Identity"
  input: "train_network/resblock0_1/conv_1/conv2d/bias"
  attr {
    key: "T"
    value {
      type: DT_FLOAT
    }
  }
  attr {
    key: "_class"
    value {
      list {
        s: "loc:@train_network/resblock0_1/conv_1/conv2d/bias"
      }
    }
  }
}
node {
  name: "train_network/resblock0_1/conv_1/conv2d/dilation_rate"
  op: "Const"
  attr {
    key: "dtype"
    value {
      type: DT_INT32
    }
  }
  attr {
    key: "value"
    value {
      tensor {
        dtype: DT_INT32
        tensor_shape {
          dim {
            size: 2
          }
        }
        tensor_content: "\001\000\000\000\001\000\000\000"
      }
    }
  }
}
node {
  name: "train_network/resblock0_1/conv_1/conv2d/Conv2D"
  op: "Conv2D"
  input: "train_network/resblock0_1/Relu_1"
  input: "train_network/resblock0_1/conv_1/conv2d/kernel/read"
  attr {
    key: "T"
    value {
      type: DT_FLOAT
    }
  }
  attr {
    key: "data_format"
    value {
      s: "NHWC"
    }
  }
  attr {
    key: "dilations"
    value {
      list {
        i: 1
        i: 1
        i: 1
        i: 1
      }
    }
  }
  attr {
    key: "padding"
    value {
      s: "SAME"
    }
  }
  attr {
    key: "strides"
    value {
      list {
        i: 1
        i: 1
        i: 1
        i: 1
      }
    }
  }
  attr {
    key: "use_cudnn_on_gpu"
    value {
      b: true
    }
  }
}
node {
  name: "train_network/resblock0_1/conv_1/conv2d/BiasAdd"
  op: "BiasAdd"
  input: "train_network/resblock0_1/conv_1/conv2d/Conv2D"
  input: "train_network/resblock0_1/conv_1/conv2d/bias/read"
  attr {
    key: "T"
    value {
      type: DT_FLOAT
    }
  }
  attr {
    key: "data_format"
    value {
      s: "NHWC"
    }
  }
}
node {
  name: "train_network/resblock0_1/add"
  op: "Add"
  input: "train_network/resblock0_1/conv_1/conv2d/BiasAdd"
  input: "train_network/resblock0_0/add"
  attr {
    key: "T"
    value {
      type: DT_FLOAT
    }
  }
}
node {
  name: "train_network/resblock1_0/batch_norm_0/beta/Initializer/zeros"
  op: "Const"
  attr {
    key: "_class"
    value {
      list {
        s: "loc:@train_network/resblock1_0/batch_norm_0/beta"
      }
    }
  }
  attr {
    key: "dtype"
    value {
      type: DT_FLOAT
    }
  }
  attr {
    key: "value"
    value {
      tensor {
        dtype: DT_FLOAT
        tensor_shape {
          dim {
            size: 32
          }
        }
        float_val: 0.0
      }
    }
  }
}
node {
  name: "train_network/resblock1_0/batch_norm_0/beta"
  op: "VariableV2"
  attr {
    key: "_class"
    value {
      list {
        s: "loc:@train_network/resblock1_0/batch_norm_0/beta"
      }
    }
  }
  attr {
    key: "container"
    value {
      s: ""
    }
  }
  attr {
    key: "dtype"
    value {
      type: DT_FLOAT
    }
  }
  attr {
    key: "shape"
    value {
      shape {
        dim {
          size: 32
        }
      }
    }
  }
  attr {
    key: "shared_name"
    value {
      s: ""
    }
  }
}
node {
  name: "train_network/resblock1_0/batch_norm_0/beta/Assign"
  op: "Assign"
  input: "train_network/resblock1_0/batch_norm_0/beta"
  input: "train_network/resblock1_0/batch_norm_0/beta/Initializer/zeros"
  attr {
    key: "T"
    value {
      type: DT_FLOAT
    }
  }
  attr {
    key: "_class"
    value {
      list {
        s: "loc:@train_network/resblock1_0/batch_norm_0/beta"
      }
    }
  }
  attr {
    key: "use_locking"
    value {
      b: true
    }
  }
  attr {
    key: "validate_shape"
    value {
      b: true
    }
  }
}
node {
  name: "train_network/resblock1_0/batch_norm_0/beta/read"
  op: "Identity"
  input: "train_network/resblock1_0/batch_norm_0/beta"
  attr {
    key: "T"
    value {
      type: DT_FLOAT
    }
  }
  attr {
    key: "_class"
    value {
      list {
        s: "loc:@train_network/resblock1_0/batch_norm_0/beta"
      }
    }
  }
}
node {
  name: "train_network/resblock1_0/batch_norm_0/gamma/Initializer/ones"
  op: "Const"
  attr {
    key: "_class"
    value {
      list {
        s: "loc:@train_network/resblock1_0/batch_norm_0/gamma"
      }
    }
  }
  attr {
    key: "dtype"
    value {
      type: DT_FLOAT
    }
  }
  attr {
    key: "value"
    value {
      tensor {
        dtype: DT_FLOAT
        tensor_shape {
          dim {
            size: 32
          }
        }
        float_val: 1.0
      }
    }
  }
}
node {
  name: "train_network/resblock1_0/batch_norm_0/gamma"
  op: "VariableV2"
  attr {
    key: "_class"
    value {
      list {
        s: "loc:@train_network/resblock1_0/batch_norm_0/gamma"
      }
    }
  }
  attr {
    key: "container"
    value {
      s: ""
    }
  }
  attr {
    key: "dtype"
    value {
      type: DT_FLOAT
    }
  }
  attr {
    key: "shape"
    value {
      shape {
        dim {
          size: 32
        }
      }
    }
  }
  attr {
    key: "shared_name"
    value {
      s: ""
    }
  }
}
node {
  name: "train_network/resblock1_0/batch_norm_0/gamma/Assign"
  op: "Assign"
  input: "train_network/resblock1_0/batch_norm_0/gamma"
  input: "train_network/resblock1_0/batch_norm_0/gamma/Initializer/ones"
  attr {
    key: "T"
    value {
      type: DT_FLOAT
    }
  }
  attr {
    key: "_class"
    value {
      list {
        s: "loc:@train_network/resblock1_0/batch_norm_0/gamma"
      }
    }
  }
  attr {
    key: "use_locking"
    value {
      b: true
    }
  }
  attr {
    key: "validate_shape"
    value {
      b: true
    }
  }
}
node {
  name: "train_network/resblock1_0/batch_norm_0/gamma/read"
  op: "Identity"
  input: "train_network/resblock1_0/batch_norm_0/gamma"
  attr {
    key: "T"
    value {
      type: DT_FLOAT
    }
  }
  attr {
    key: "_class"
    value {
      list {
        s: "loc:@train_network/resblock1_0/batch_norm_0/gamma"
      }
    }
  }
}
node {
  name: "train_network/resblock1_0/batch_norm_0/moving_mean/Initializer/zeros"
  op: "Const"
  attr {
    key: "_class"
    value {
      list {
        s: "loc:@train_network/resblock1_0/batch_norm_0/moving_mean"
      }
    }
  }
  attr {
    key: "dtype"
    value {
      type: DT_FLOAT
    }
  }
  attr {
    key: "value"
    value {
      tensor {
        dtype: DT_FLOAT
        tensor_shape {
          dim {
            size: 32
          }
        }
        float_val: 0.0
      }
    }
  }
}
node {
  name: "train_network/resblock1_0/batch_norm_0/moving_mean"
  op: "VariableV2"
  attr {
    key: "_class"
    value {
      list {
        s: "loc:@train_network/resblock1_0/batch_norm_0/moving_mean"
      }
    }
  }
  attr {
    key: "container"
    value {
      s: ""
    }
  }
  attr {
    key: "dtype"
    value {
      type: DT_FLOAT
    }
  }
  attr {
    key: "shape"
    value {
      shape {
        dim {
          size: 32
        }
      }
    }
  }
  attr {
    key: "shared_name"
    value {
      s: ""
    }
  }
}
node {
  name: "train_network/resblock1_0/batch_norm_0/moving_mean/Assign"
  op: "Assign"
  input: "train_network/resblock1_0/batch_norm_0/moving_mean"
  input: "train_network/resblock1_0/batch_norm_0/moving_mean/Initializer/zeros"
  attr {
    key: "T"
    value {
      type: DT_FLOAT
    }
  }
  attr {
    key: "_class"
    value {
      list {
        s: "loc:@train_network/resblock1_0/batch_norm_0/moving_mean"
      }
    }
  }
  attr {
    key: "use_locking"
    value {
      b: true
    }
  }
  attr {
    key: "validate_shape"
    value {
      b: true
    }
  }
}
node {
  name: "train_network/resblock1_0/batch_norm_0/moving_mean/read"
  op: "Identity"
  input: "train_network/resblock1_0/batch_norm_0/moving_mean"
  attr {
    key: "T"
    value {
      type: DT_FLOAT
    }
  }
  attr {
    key: "_class"
    value {
      list {
        s: "loc:@train_network/resblock1_0/batch_norm_0/moving_mean"
      }
    }
  }
}
node {
  name: "train_network/resblock1_0/batch_norm_0/moving_variance/Initializer/ones"
  op: "Const"
  attr {
    key: "_class"
    value {
      list {
        s: "loc:@train_network/resblock1_0/batch_norm_0/moving_variance"
      }
    }
  }
  attr {
    key: "dtype"
    value {
      type: DT_FLOAT
    }
  }
  attr {
    key: "value"
    value {
      tensor {
        dtype: DT_FLOAT
        tensor_shape {
          dim {
            size: 32
          }
        }
        float_val: 1.0
      }
    }
  }
}
node {
  name: "train_network/resblock1_0/batch_norm_0/moving_variance"
  op: "VariableV2"
  attr {
    key: "_class"
    value {
      list {
        s: "loc:@train_network/resblock1_0/batch_norm_0/moving_variance"
      }
    }
  }
  attr {
    key: "container"
    value {
      s: ""
    }
  }
  attr {
    key: "dtype"
    value {
      type: DT_FLOAT
    }
  }
  attr {
    key: "shape"
    value {
      shape {
        dim {
          size: 32
        }
      }
    }
  }
  attr {
    key: "shared_name"
    value {
      s: ""
    }
  }
}
node {
  name: "train_network/resblock1_0/batch_norm_0/moving_variance/Assign"
  op: "Assign"
  input: "train_network/resblock1_0/batch_norm_0/moving_variance"
  input: "train_network/resblock1_0/batch_norm_0/moving_variance/Initializer/ones"
  attr {
    key: "T"
    value {
      type: DT_FLOAT
    }
  }
  attr {
    key: "_class"
    value {
      list {
        s: "loc:@train_network/resblock1_0/batch_norm_0/moving_variance"
      }
    }
  }
  attr {
    key: "use_locking"
    value {
      b: true
    }
  }
  attr {
    key: "validate_shape"
    value {
      b: true
    }
  }
}
node {
  name: "train_network/resblock1_0/batch_norm_0/moving_variance/read"
  op: "Identity"
  input: "train_network/resblock1_0/batch_norm_0/moving_variance"
  attr {
    key: "T"
    value {
      type: DT_FLOAT
    }
  }
  attr {
    key: "_class"
    value {
      list {
        s: "loc:@train_network/resblock1_0/batch_norm_0/moving_variance"
      }
    }
  }
}
node {
  name: "train_network/resblock1_0/batch_norm_0/Const"
  op: "Const"
  attr {
    key: "dtype"
    value {
      type: DT_FLOAT
    }
  }
  attr {
    key: "value"
    value {
      tensor {
        dtype: DT_FLOAT
        tensor_shape {
          dim {
          }
        }
      }
    }
  }
}
node {
  name: "train_network/resblock1_0/batch_norm_0/Const_1"
  op: "Const"
  attr {
    key: "dtype"
    value {
      type: DT_FLOAT
    }
  }
  attr {
    key: "value"
    value {
      tensor {
        dtype: DT_FLOAT
        tensor_shape {
          dim {
          }
        }
      }
    }
  }
}
node {
  name: "train_network/resblock1_0/batch_norm_0/FusedBatchNorm"
  op: "FusedBatchNorm"
  input: "train_network/resblock0_1/add"
  input: "train_network/resblock1_0/batch_norm_0/gamma/read"
  input: "train_network/resblock1_0/batch_norm_0/beta/read"
  input: "train_network/resblock1_0/batch_norm_0/Const"
  input: "train_network/resblock1_0/batch_norm_0/Const_1"
  attr {
    key: "T"
    value {
      type: DT_FLOAT
    }
  }
  attr {
    key: "data_format"
    value {
      s: "NHWC"
    }
  }
  attr {
    key: "epsilon"
    value {
      f: 1.0009999641624745e-05
    }
  }
  attr {
    key: "is_training"
    value {
      b: true
    }
  }
}
node {
  name: "train_network/resblock1_0/batch_norm_0/AssignMovingAvg/decay"
  op: "Const"
  attr {
    key: "_class"
    value {
      list {
        s: "loc:@train_network/resblock1_0/batch_norm_0/moving_mean"
      }
    }
  }
  attr {
    key: "dtype"
    value {
      type: DT_FLOAT
    }
  }
  attr {
    key: "value"
    value {
      tensor {
        dtype: DT_FLOAT
        tensor_shape {
        }
        float_val: 0.10000000149011612
      }
    }
  }
}
node {
  name: "train_network/resblock1_0/batch_norm_0/AssignMovingAvg/sub"
  op: "Sub"
  input: "train_network/resblock1_0/batch_norm_0/moving_mean/read"
  input: "train_network/resblock1_0/batch_norm_0/FusedBatchNorm:1"
  attr {
    key: "T"
    value {
      type: DT_FLOAT
    }
  }
  attr {
    key: "_class"
    value {
      list {
        s: "loc:@train_network/resblock1_0/batch_norm_0/moving_mean"
      }
    }
  }
}
node {
  name: "train_network/resblock1_0/batch_norm_0/AssignMovingAvg/mul"
  op: "Mul"
  input: "train_network/resblock1_0/batch_norm_0/AssignMovingAvg/sub"
  input: "train_network/resblock1_0/batch_norm_0/AssignMovingAvg/decay"
  attr {
    key: "T"
    value {
      type: DT_FLOAT
    }
  }
  attr {
    key: "_class"
    value {
      list {
        s: "loc:@train_network/resblock1_0/batch_norm_0/moving_mean"
      }
    }
  }
}
node {
  name: "train_network/resblock1_0/batch_norm_0/AssignMovingAvg"
  op: "AssignSub"
  input: "train_network/resblock1_0/batch_norm_0/moving_mean"
  input: "train_network/resblock1_0/batch_norm_0/AssignMovingAvg/mul"
  attr {
    key: "T"
    value {
      type: DT_FLOAT
    }
  }
  attr {
    key: "_class"
    value {
      list {
        s: "loc:@train_network/resblock1_0/batch_norm_0/moving_mean"
      }
    }
  }
  attr {
    key: "use_locking"
    value {
      b: false
    }
  }
}
node {
  name: "train_network/resblock1_0/batch_norm_0/AssignMovingAvg_1/decay"
  op: "Const"
  attr {
    key: "_class"
    value {
      list {
        s: "loc:@train_network/resblock1_0/batch_norm_0/moving_variance"
      }
    }
  }
  attr {
    key: "dtype"
    value {
      type: DT_FLOAT
    }
  }
  attr {
    key: "value"
    value {
      tensor {
        dtype: DT_FLOAT
        tensor_shape {
        }
        float_val: 0.10000000149011612
      }
    }
  }
}
node {
  name: "train_network/resblock1_0/batch_norm_0/AssignMovingAvg_1/sub"
  op: "Sub"
  input: "train_network/resblock1_0/batch_norm_0/moving_variance/read"
  input: "train_network/resblock1_0/batch_norm_0/FusedBatchNorm:2"
  attr {
    key: "T"
    value {
      type: DT_FLOAT
    }
  }
  attr {
    key: "_class"
    value {
      list {
        s: "loc:@train_network/resblock1_0/batch_norm_0/moving_variance"
      }
    }
  }
}
node {
  name: "train_network/resblock1_0/batch_norm_0/AssignMovingAvg_1/mul"
  op: "Mul"
  input: "train_network/resblock1_0/batch_norm_0/AssignMovingAvg_1/sub"
  input: "train_network/resblock1_0/batch_norm_0/AssignMovingAvg_1/decay"
  attr {
    key: "T"
    value {
      type: DT_FLOAT
    }
  }
  attr {
    key: "_class"
    value {
      list {
        s: "loc:@train_network/resblock1_0/batch_norm_0/moving_variance"
      }
    }
  }
}
node {
  name: "train_network/resblock1_0/batch_norm_0/AssignMovingAvg_1"
  op: "AssignSub"
  input: "train_network/resblock1_0/batch_norm_0/moving_variance"
  input: "train_network/resblock1_0/batch_norm_0/AssignMovingAvg_1/mul"
  attr {
    key: "T"
    value {
      type: DT_FLOAT
    }
  }
  attr {
    key: "_class"
    value {
      list {
        s: "loc:@train_network/resblock1_0/batch_norm_0/moving_variance"
      }
    }
  }
  attr {
    key: "use_locking"
    value {
      b: false
    }
  }
}
node {
  name: "train_network/resblock1_0/batch_norm_0/Identity"
  op: "Identity"
  input: "train_network/resblock1_0/batch_norm_0/FusedBatchNorm"
  input: "^train_network/resblock1_0/batch_norm_0/AssignMovingAvg"
  input: "^train_network/resblock1_0/batch_norm_0/AssignMovingAvg_1"
  attr {
    key: "T"
    value {
      type: DT_FLOAT
    }
  }
}
node {
  name: "train_network/resblock1_0/Relu"
  op: "Relu"
  input: "train_network/resblock1_0/batch_norm_0/Identity"
  attr {
    key: "T"
    value {
      type: DT_FLOAT
    }
  }
}
node {
  name: "train_network/resblock1_0/conv_0/conv2d/kernel/Initializer/truncated_normal/shape"
  op: "Const"
  attr {
    key: "_class"
    value {
      list {
        s: "loc:@train_network/resblock1_0/conv_0/conv2d/kernel"
      }
    }
  }
  attr {
    key: "dtype"
    value {
      type: DT_INT32
    }
  }
  attr {
    key: "value"
    value {
      tensor {
        dtype: DT_INT32
        tensor_shape {
          dim {
            size: 4
          }
        }
        tensor_content: "\003\000\000\000\003\000\000\000 \000\000\000@\000\000\000"
      }
    }
  }
}
node {
  name: "train_network/resblock1_0/conv_0/conv2d/kernel/Initializer/truncated_normal/mean"
  op: "Const"
  attr {
    key: "_class"
    value {
      list {
        s: "loc:@train_network/resblock1_0/conv_0/conv2d/kernel"
      }
    }
  }
  attr {
    key: "dtype"
    value {
      type: DT_FLOAT
    }
  }
  attr {
    key: "value"
    value {
      tensor {
        dtype: DT_FLOAT
        tensor_shape {
        }
        float_val: 0.0
      }
    }
  }
}
node {
  name: "train_network/resblock1_0/conv_0/conv2d/kernel/Initializer/truncated_normal/stddev"
  op: "Const"
  attr {
    key: "_class"
    value {
      list {
        s: "loc:@train_network/resblock1_0/conv_0/conv2d/kernel"
      }
    }
  }
  attr {
    key: "dtype"
    value {
      type: DT_FLOAT
    }
  }
  attr {
    key: "value"
    value {
      tensor {
        dtype: DT_FLOAT
        tensor_shape {
        }
        float_val: 0.09501461684703827
      }
    }
  }
}
node {
  name: "train_network/resblock1_0/conv_0/conv2d/kernel/Initializer/truncated_normal/TruncatedNormal"
  op: "TruncatedNormal"
  input: "train_network/resblock1_0/conv_0/conv2d/kernel/Initializer/truncated_normal/shape"
  attr {
    key: "T"
    value {
      type: DT_INT32
    }
  }
  attr {
    key: "_class"
    value {
      list {
        s: "loc:@train_network/resblock1_0/conv_0/conv2d/kernel"
      }
    }
  }
  attr {
    key: "dtype"
    value {
      type: DT_FLOAT
    }
  }
  attr {
    key: "seed"
    value {
      i: 0
    }
  }
  attr {
    key: "seed2"
    value {
      i: 0
    }
  }
}
node {
  name: "train_network/resblock1_0/conv_0/conv2d/kernel/Initializer/truncated_normal/mul"
  op: "Mul"
  input: "train_network/resblock1_0/conv_0/conv2d/kernel/Initializer/truncated_normal/TruncatedNormal"
  input: "train_network/resblock1_0/conv_0/conv2d/kernel/Initializer/truncated_normal/stddev"
  attr {
    key: "T"
    value {
      type: DT_FLOAT
    }
  }
  attr {
    key: "_class"
    value {
      list {
        s: "loc:@train_network/resblock1_0/conv_0/conv2d/kernel"
      }
    }
  }
}
node {
  name: "train_network/resblock1_0/conv_0/conv2d/kernel/Initializer/truncated_normal"
  op: "Add"
  input: "train_network/resblock1_0/conv_0/conv2d/kernel/Initializer/truncated_normal/mul"
  input: "train_network/resblock1_0/conv_0/conv2d/kernel/Initializer/truncated_normal/mean"
  attr {
    key: "T"
    value {
      type: DT_FLOAT
    }
  }
  attr {
    key: "_class"
    value {
      list {
        s: "loc:@train_network/resblock1_0/conv_0/conv2d/kernel"
      }
    }
  }
}
node {
  name: "train_network/resblock1_0/conv_0/conv2d/kernel"
  op: "VariableV2"
  attr {
    key: "_class"
    value {
      list {
        s: "loc:@train_network/resblock1_0/conv_0/conv2d/kernel"
      }
    }
  }
  attr {
    key: "container"
    value {
      s: ""
    }
  }
  attr {
    key: "dtype"
    value {
      type: DT_FLOAT
    }
  }
  attr {
    key: "shape"
    value {
      shape {
        dim {
          size: 3
        }
        dim {
          size: 3
        }
        dim {
          size: 32
        }
        dim {
          size: 64
        }
      }
    }
  }
  attr {
    key: "shared_name"
    value {
      s: ""
    }
  }
}
node {
  name: "train_network/resblock1_0/conv_0/conv2d/kernel/Assign"
  op: "Assign"
  input: "train_network/resblock1_0/conv_0/conv2d/kernel"
  input: "train_network/resblock1_0/conv_0/conv2d/kernel/Initializer/truncated_normal"
  attr {
    key: "T"
    value {
      type: DT_FLOAT
    }
  }
  attr {
    key: "_class"
    value {
      list {
        s: "loc:@train_network/resblock1_0/conv_0/conv2d/kernel"
      }
    }
  }
  attr {
    key: "use_locking"
    value {
      b: true
    }
  }
  attr {
    key: "validate_shape"
    value {
      b: true
    }
  }
}
node {
  name: "train_network/resblock1_0/conv_0/conv2d/kernel/read"
  op: "Identity"
  input: "train_network/resblock1_0/conv_0/conv2d/kernel"
  attr {
    key: "T"
    value {
      type: DT_FLOAT
    }
  }
  attr {
    key: "_class"
    value {
      list {
        s: "loc:@train_network/resblock1_0/conv_0/conv2d/kernel"
      }
    }
  }
}
node {
  name: "train_network/resblock1_0/conv_0/conv2d/kernel/Regularizer/l2_regularizer/scale"
  op: "Const"
  attr {
    key: "_class"
    value {
      list {
        s: "loc:@train_network/resblock1_0/conv_0/conv2d/kernel"
      }
    }
  }
  attr {
    key: "dtype"
    value {
      type: DT_FLOAT
    }
  }
  attr {
    key: "value"
    value {
      tensor {
        dtype: DT_FLOAT
        tensor_shape {
        }
        float_val: 9.999999747378752e-05
      }
    }
  }
}
node {
  name: "train_network/resblock1_0/conv_0/conv2d/kernel/Regularizer/l2_regularizer/L2Loss"
  op: "L2Loss"
  input: "train_network/resblock1_0/conv_0/conv2d/kernel/read"
  attr {
    key: "T"
    value {
      type: DT_FLOAT
    }
  }
  attr {
    key: "_class"
    value {
      list {
        s: "loc:@train_network/resblock1_0/conv_0/conv2d/kernel"
      }
    }
  }
}
node {
  name: "train_network/resblock1_0/conv_0/conv2d/kernel/Regularizer/l2_regularizer"
  op: "Mul"
  input: "train_network/resblock1_0/conv_0/conv2d/kernel/Regularizer/l2_regularizer/scale"
  input: "train_network/resblock1_0/conv_0/conv2d/kernel/Regularizer/l2_regularizer/L2Loss"
  attr {
    key: "T"
    value {
      type: DT_FLOAT
    }
  }
  attr {
    key: "_class"
    value {
      list {
        s: "loc:@train_network/resblock1_0/conv_0/conv2d/kernel"
      }
    }
  }
}
node {
  name: "train_network/resblock1_0/conv_0/conv2d/bias/Initializer/zeros"
  op: "Const"
  attr {
    key: "_class"
    value {
      list {
        s: "loc:@train_network/resblock1_0/conv_0/conv2d/bias"
      }
    }
  }
  attr {
    key: "dtype"
    value {
      type: DT_FLOAT
    }
  }
  attr {
    key: "value"
    value {
      tensor {
        dtype: DT_FLOAT
        tensor_shape {
          dim {
            size: 64
          }
        }
        float_val: 0.0
      }
    }
  }
}
node {
  name: "train_network/resblock1_0/conv_0/conv2d/bias"
  op: "VariableV2"
  attr {
    key: "_class"
    value {
      list {
        s: "loc:@train_network/resblock1_0/conv_0/conv2d/bias"
      }
    }
  }
  attr {
    key: "container"
    value {
      s: ""
    }
  }
  attr {
    key: "dtype"
    value {
      type: DT_FLOAT
    }
  }
  attr {
    key: "shape"
    value {
      shape {
        dim {
          size: 64
        }
      }
    }
  }
  attr {
    key: "shared_name"
    value {
      s: ""
    }
  }
}
node {
  name: "train_network/resblock1_0/conv_0/conv2d/bias/Assign"
  op: "Assign"
  input: "train_network/resblock1_0/conv_0/conv2d/bias"
  input: "train_network/resblock1_0/conv_0/conv2d/bias/Initializer/zeros"
  attr {
    key: "T"
    value {
      type: DT_FLOAT
    }
  }
  attr {
    key: "_class"
    value {
      list {
        s: "loc:@train_network/resblock1_0/conv_0/conv2d/bias"
      }
    }
  }
  attr {
    key: "use_locking"
    value {
      b: true
    }
  }
  attr {
    key: "validate_shape"
    value {
      b: true
    }
  }
}
node {
  name: "train_network/resblock1_0/conv_0/conv2d/bias/read"
  op: "Identity"
  input: "train_network/resblock1_0/conv_0/conv2d/bias"
  attr {
    key: "T"
    value {
      type: DT_FLOAT
    }
  }
  attr {
    key: "_class"
    value {
      list {
        s: "loc:@train_network/resblock1_0/conv_0/conv2d/bias"
      }
    }
  }
}
node {
  name: "train_network/resblock1_0/conv_0/conv2d/dilation_rate"
  op: "Const"
  attr {
    key: "dtype"
    value {
      type: DT_INT32
    }
  }
  attr {
    key: "value"
    value {
      tensor {
        dtype: DT_INT32
        tensor_shape {
          dim {
            size: 2
          }
        }
        tensor_content: "\001\000\000\000\001\000\000\000"
      }
    }
  }
}
node {
  name: "train_network/resblock1_0/conv_0/conv2d/Conv2D"
  op: "Conv2D"
  input: "train_network/resblock1_0/Relu"
  input: "train_network/resblock1_0/conv_0/conv2d/kernel/read"
  attr {
    key: "T"
    value {
      type: DT_FLOAT
    }
  }
  attr {
    key: "data_format"
    value {
      s: "NHWC"
    }
  }
  attr {
    key: "dilations"
    value {
      list {
        i: 1
        i: 1
        i: 1
        i: 1
      }
    }
  }
  attr {
    key: "padding"
    value {
      s: "SAME"
    }
  }
  attr {
    key: "strides"
    value {
      list {
        i: 1
        i: 2
        i: 2
        i: 1
      }
    }
  }
  attr {
    key: "use_cudnn_on_gpu"
    value {
      b: true
    }
  }
}
node {
  name: "train_network/resblock1_0/conv_0/conv2d/BiasAdd"
  op: "BiasAdd"
  input: "train_network/resblock1_0/conv_0/conv2d/Conv2D"
  input: "train_network/resblock1_0/conv_0/conv2d/bias/read"
  attr {
    key: "T"
    value {
      type: DT_FLOAT
    }
  }
  attr {
    key: "data_format"
    value {
      s: "NHWC"
    }
  }
}
node {
  name: "train_network/resblock1_0/conv_init/conv2d/kernel/Initializer/truncated_normal/shape"
  op: "Const"
  attr {
    key: "_class"
    value {
      list {
        s: "loc:@train_network/resblock1_0/conv_init/conv2d/kernel"
      }
    }
  }
  attr {
    key: "dtype"
    value {
      type: DT_INT32
    }
  }
  attr {
    key: "value"
    value {
      tensor {
        dtype: DT_INT32
        tensor_shape {
          dim {
            size: 4
          }
        }
        tensor_content: "\001\000\000\000\001\000\000\000 \000\000\000@\000\000\000"
      }
    }
  }
}
node {
  name: "train_network/resblock1_0/conv_init/conv2d/kernel/Initializer/truncated_normal/mean"
  op: "Const"
  attr {
    key: "_class"
    value {
      list {
        s: "loc:@train_network/resblock1_0/conv_init/conv2d/kernel"
      }
    }
  }
  attr {
    key: "dtype"
    value {
      type: DT_FLOAT
    }
  }
  attr {
    key: "value"
    value {
      tensor {
        dtype: DT_FLOAT
        tensor_shape {
        }
        float_val: 0.0
      }
    }
  }
}
node {
  name: "train_network/resblock1_0/conv_init/conv2d/kernel/Initializer/truncated_normal/stddev"
  op: "Const"
  attr {
    key: "_class"
    value {
      list {
        s: "loc:@train_network/resblock1_0/conv_init/conv2d/kernel"
      }
    }
  }
  attr {
    key: "dtype"
    value {
      type: DT_FLOAT
    }
  }
  attr {
    key: "value"
    value {
      tensor {
        dtype: DT_FLOAT
        tensor_shape {
        }
        float_val: 0.285043865442276
      }
    }
  }
}
node {
  name: "train_network/resblock1_0/conv_init/conv2d/kernel/Initializer/truncated_normal/TruncatedNormal"
  op: "TruncatedNormal"
  input: "train_network/resblock1_0/conv_init/conv2d/kernel/Initializer/truncated_normal/shape"
  attr {
    key: "T"
    value {
      type: DT_INT32
    }
  }
  attr {
    key: "_class"
    value {
      list {
        s: "loc:@train_network/resblock1_0/conv_init/conv2d/kernel"
      }
    }
  }
  attr {
    key: "dtype"
    value {
      type: DT_FLOAT
    }
  }
  attr {
    key: "seed"
    value {
      i: 0
    }
  }
  attr {
    key: "seed2"
    value {
      i: 0
    }
  }
}
node {
  name: "train_network/resblock1_0/conv_init/conv2d/kernel/Initializer/truncated_normal/mul"
  op: "Mul"
  input: "train_network/resblock1_0/conv_init/conv2d/kernel/Initializer/truncated_normal/TruncatedNormal"
  input: "train_network/resblock1_0/conv_init/conv2d/kernel/Initializer/truncated_normal/stddev"
  attr {
    key: "T"
    value {
      type: DT_FLOAT
    }
  }
  attr {
    key: "_class"
    value {
      list {
        s: "loc:@train_network/resblock1_0/conv_init/conv2d/kernel"
      }
    }
  }
}
node {
  name: "train_network/resblock1_0/conv_init/conv2d/kernel/Initializer/truncated_normal"
  op: "Add"
  input: "train_network/resblock1_0/conv_init/conv2d/kernel/Initializer/truncated_normal/mul"
  input: "train_network/resblock1_0/conv_init/conv2d/kernel/Initializer/truncated_normal/mean"
  attr {
    key: "T"
    value {
      type: DT_FLOAT
    }
  }
  attr {
    key: "_class"
    value {
      list {
        s: "loc:@train_network/resblock1_0/conv_init/conv2d/kernel"
      }
    }
  }
}
node {
  name: "train_network/resblock1_0/conv_init/conv2d/kernel"
  op: "VariableV2"
  attr {
    key: "_class"
    value {
      list {
        s: "loc:@train_network/resblock1_0/conv_init/conv2d/kernel"
      }
    }
  }
  attr {
    key: "container"
    value {
      s: ""
    }
  }
  attr {
    key: "dtype"
    value {
      type: DT_FLOAT
    }
  }
  attr {
    key: "shape"
    value {
      shape {
        dim {
          size: 1
        }
        dim {
          size: 1
        }
        dim {
          size: 32
        }
        dim {
          size: 64
        }
      }
    }
  }
  attr {
    key: "shared_name"
    value {
      s: ""
    }
  }
}
node {
  name: "train_network/resblock1_0/conv_init/conv2d/kernel/Assign"
  op: "Assign"
  input: "train_network/resblock1_0/conv_init/conv2d/kernel"
  input: "train_network/resblock1_0/conv_init/conv2d/kernel/Initializer/truncated_normal"
  attr {
    key: "T"
    value {
      type: DT_FLOAT
    }
  }
  attr {
    key: "_class"
    value {
      list {
        s: "loc:@train_network/resblock1_0/conv_init/conv2d/kernel"
      }
    }
  }
  attr {
    key: "use_locking"
    value {
      b: true
    }
  }
  attr {
    key: "validate_shape"
    value {
      b: true
    }
  }
}
node {
  name: "train_network/resblock1_0/conv_init/conv2d/kernel/read"
  op: "Identity"
  input: "train_network/resblock1_0/conv_init/conv2d/kernel"
  attr {
    key: "T"
    value {
      type: DT_FLOAT
    }
  }
  attr {
    key: "_class"
    value {
      list {
        s: "loc:@train_network/resblock1_0/conv_init/conv2d/kernel"
      }
    }
  }
}
node {
  name: "train_network/resblock1_0/conv_init/conv2d/kernel/Regularizer/l2_regularizer/scale"
  op: "Const"
  attr {
    key: "_class"
    value {
      list {
        s: "loc:@train_network/resblock1_0/conv_init/conv2d/kernel"
      }
    }
  }
  attr {
    key: "dtype"
    value {
      type: DT_FLOAT
    }
  }
  attr {
    key: "value"
    value {
      tensor {
        dtype: DT_FLOAT
        tensor_shape {
        }
        float_val: 9.999999747378752e-05
      }
    }
  }
}
node {
  name: "train_network/resblock1_0/conv_init/conv2d/kernel/Regularizer/l2_regularizer/L2Loss"
  op: "L2Loss"
  input: "train_network/resblock1_0/conv_init/conv2d/kernel/read"
  attr {
    key: "T"
    value {
      type: DT_FLOAT
    }
  }
  attr {
    key: "_class"
    value {
      list {
        s: "loc:@train_network/resblock1_0/conv_init/conv2d/kernel"
      }
    }
  }
}
node {
  name: "train_network/resblock1_0/conv_init/conv2d/kernel/Regularizer/l2_regularizer"
  op: "Mul"
  input: "train_network/resblock1_0/conv_init/conv2d/kernel/Regularizer/l2_regularizer/scale"
  input: "train_network/resblock1_0/conv_init/conv2d/kernel/Regularizer/l2_regularizer/L2Loss"
  attr {
    key: "T"
    value {
      type: DT_FLOAT
    }
  }
  attr {
    key: "_class"
    value {
      list {
        s: "loc:@train_network/resblock1_0/conv_init/conv2d/kernel"
      }
    }
  }
}
node {
  name: "train_network/resblock1_0/conv_init/conv2d/bias/Initializer/zeros"
  op: "Const"
  attr {
    key: "_class"
    value {
      list {
        s: "loc:@train_network/resblock1_0/conv_init/conv2d/bias"
      }
    }
  }
  attr {
    key: "dtype"
    value {
      type: DT_FLOAT
    }
  }
  attr {
    key: "value"
    value {
      tensor {
        dtype: DT_FLOAT
        tensor_shape {
          dim {
            size: 64
          }
        }
        float_val: 0.0
      }
    }
  }
}
node {
  name: "train_network/resblock1_0/conv_init/conv2d/bias"
  op: "VariableV2"
  attr {
    key: "_class"
    value {
      list {
        s: "loc:@train_network/resblock1_0/conv_init/conv2d/bias"
      }
    }
  }
  attr {
    key: "container"
    value {
      s: ""
    }
  }
  attr {
    key: "dtype"
    value {
      type: DT_FLOAT
    }
  }
  attr {
    key: "shape"
    value {
      shape {
        dim {
          size: 64
        }
      }
    }
  }
  attr {
    key: "shared_name"
    value {
      s: ""
    }
  }
}
node {
  name: "train_network/resblock1_0/conv_init/conv2d/bias/Assign"
  op: "Assign"
  input: "train_network/resblock1_0/conv_init/conv2d/bias"
  input: "train_network/resblock1_0/conv_init/conv2d/bias/Initializer/zeros"
  attr {
    key: "T"
    value {
      type: DT_FLOAT
    }
  }
  attr {
    key: "_class"
    value {
      list {
        s: "loc:@train_network/resblock1_0/conv_init/conv2d/bias"
      }
    }
  }
  attr {
    key: "use_locking"
    value {
      b: true
    }
  }
  attr {
    key: "validate_shape"
    value {
      b: true
    }
  }
}
node {
  name: "train_network/resblock1_0/conv_init/conv2d/bias/read"
  op: "Identity"
  input: "train_network/resblock1_0/conv_init/conv2d/bias"
  attr {
    key: "T"
    value {
      type: DT_FLOAT
    }
  }
  attr {
    key: "_class"
    value {
      list {
        s: "loc:@train_network/resblock1_0/conv_init/conv2d/bias"
      }
    }
  }
}
node {
  name: "train_network/resblock1_0/conv_init/conv2d/dilation_rate"
  op: "Const"
  attr {
    key: "dtype"
    value {
      type: DT_INT32
    }
  }
  attr {
    key: "value"
    value {
      tensor {
        dtype: DT_INT32
        tensor_shape {
          dim {
            size: 2
          }
        }
        tensor_content: "\001\000\000\000\001\000\000\000"
      }
    }
  }
}
node {
  name: "train_network/resblock1_0/conv_init/conv2d/Conv2D"
  op: "Conv2D"
  input: "train_network/resblock0_1/add"
  input: "train_network/resblock1_0/conv_init/conv2d/kernel/read"
  attr {
    key: "T"
    value {
      type: DT_FLOAT
    }
  }
  attr {
    key: "data_format"
    value {
      s: "NHWC"
    }
  }
  attr {
    key: "dilations"
    value {
      list {
        i: 1
        i: 1
        i: 1
        i: 1
      }
    }
  }
  attr {
    key: "padding"
    value {
      s: "SAME"
    }
  }
  attr {
    key: "strides"
    value {
      list {
        i: 1
        i: 2
        i: 2
        i: 1
      }
    }
  }
  attr {
    key: "use_cudnn_on_gpu"
    value {
      b: true
    }
  }
}
node {
  name: "train_network/resblock1_0/conv_init/conv2d/BiasAdd"
  op: "BiasAdd"
  input: "train_network/resblock1_0/conv_init/conv2d/Conv2D"
  input: "train_network/resblock1_0/conv_init/conv2d/bias/read"
  attr {
    key: "T"
    value {
      type: DT_FLOAT
    }
  }
  attr {
    key: "data_format"
    value {
      s: "NHWC"
    }
  }
}
node {
  name: "train_network/resblock1_0/batch_norm_1/beta/Initializer/zeros"
  op: "Const"
  attr {
    key: "_class"
    value {
      list {
        s: "loc:@train_network/resblock1_0/batch_norm_1/beta"
      }
    }
  }
  attr {
    key: "dtype"
    value {
      type: DT_FLOAT
    }
  }
  attr {
    key: "value"
    value {
      tensor {
        dtype: DT_FLOAT
        tensor_shape {
          dim {
            size: 64
          }
        }
        float_val: 0.0
      }
    }
  }
}
node {
  name: "train_network/resblock1_0/batch_norm_1/beta"
  op: "VariableV2"
  attr {
    key: "_class"
    value {
      list {
        s: "loc:@train_network/resblock1_0/batch_norm_1/beta"
      }
    }
  }
  attr {
    key: "container"
    value {
      s: ""
    }
  }
  attr {
    key: "dtype"
    value {
      type: DT_FLOAT
    }
  }
  attr {
    key: "shape"
    value {
      shape {
        dim {
          size: 64
        }
      }
    }
  }
  attr {
    key: "shared_name"
    value {
      s: ""
    }
  }
}
node {
  name: "train_network/resblock1_0/batch_norm_1/beta/Assign"
  op: "Assign"
  input: "train_network/resblock1_0/batch_norm_1/beta"
  input: "train_network/resblock1_0/batch_norm_1/beta/Initializer/zeros"
  attr {
    key: "T"
    value {
      type: DT_FLOAT
    }
  }
  attr {
    key: "_class"
    value {
      list {
        s: "loc:@train_network/resblock1_0/batch_norm_1/beta"
      }
    }
  }
  attr {
    key: "use_locking"
    value {
      b: true
    }
  }
  attr {
    key: "validate_shape"
    value {
      b: true
    }
  }
}
node {
  name: "train_network/resblock1_0/batch_norm_1/beta/read"
  op: "Identity"
  input: "train_network/resblock1_0/batch_norm_1/beta"
  attr {
    key: "T"
    value {
      type: DT_FLOAT
    }
  }
  attr {
    key: "_class"
    value {
      list {
        s: "loc:@train_network/resblock1_0/batch_norm_1/beta"
      }
    }
  }
}
node {
  name: "train_network/resblock1_0/batch_norm_1/gamma/Initializer/ones"
  op: "Const"
  attr {
    key: "_class"
    value {
      list {
        s: "loc:@train_network/resblock1_0/batch_norm_1/gamma"
      }
    }
  }
  attr {
    key: "dtype"
    value {
      type: DT_FLOAT
    }
  }
  attr {
    key: "value"
    value {
      tensor {
        dtype: DT_FLOAT
        tensor_shape {
          dim {
            size: 64
          }
        }
        float_val: 1.0
      }
    }
  }
}
node {
  name: "train_network/resblock1_0/batch_norm_1/gamma"
  op: "VariableV2"
  attr {
    key: "_class"
    value {
      list {
        s: "loc:@train_network/resblock1_0/batch_norm_1/gamma"
      }
    }
  }
  attr {
    key: "container"
    value {
      s: ""
    }
  }
  attr {
    key: "dtype"
    value {
      type: DT_FLOAT
    }
  }
  attr {
    key: "shape"
    value {
      shape {
        dim {
          size: 64
        }
      }
    }
  }
  attr {
    key: "shared_name"
    value {
      s: ""
    }
  }
}
node {
  name: "train_network/resblock1_0/batch_norm_1/gamma/Assign"
  op: "Assign"
  input: "train_network/resblock1_0/batch_norm_1/gamma"
  input: "train_network/resblock1_0/batch_norm_1/gamma/Initializer/ones"
  attr {
    key: "T"
    value {
      type: DT_FLOAT
    }
  }
  attr {
    key: "_class"
    value {
      list {
        s: "loc:@train_network/resblock1_0/batch_norm_1/gamma"
      }
    }
  }
  attr {
    key: "use_locking"
    value {
      b: true
    }
  }
  attr {
    key: "validate_shape"
    value {
      b: true
    }
  }
}
node {
  name: "train_network/resblock1_0/batch_norm_1/gamma/read"
  op: "Identity"
  input: "train_network/resblock1_0/batch_norm_1/gamma"
  attr {
    key: "T"
    value {
      type: DT_FLOAT
    }
  }
  attr {
    key: "_class"
    value {
      list {
        s: "loc:@train_network/resblock1_0/batch_norm_1/gamma"
      }
    }
  }
}
node {
  name: "train_network/resblock1_0/batch_norm_1/moving_mean/Initializer/zeros"
  op: "Const"
  attr {
    key: "_class"
    value {
      list {
        s: "loc:@train_network/resblock1_0/batch_norm_1/moving_mean"
      }
    }
  }
  attr {
    key: "dtype"
    value {
      type: DT_FLOAT
    }
  }
  attr {
    key: "value"
    value {
      tensor {
        dtype: DT_FLOAT
        tensor_shape {
          dim {
            size: 64
          }
        }
        float_val: 0.0
      }
    }
  }
}
node {
  name: "train_network/resblock1_0/batch_norm_1/moving_mean"
  op: "VariableV2"
  attr {
    key: "_class"
    value {
      list {
        s: "loc:@train_network/resblock1_0/batch_norm_1/moving_mean"
      }
    }
  }
  attr {
    key: "container"
    value {
      s: ""
    }
  }
  attr {
    key: "dtype"
    value {
      type: DT_FLOAT
    }
  }
  attr {
    key: "shape"
    value {
      shape {
        dim {
          size: 64
        }
      }
    }
  }
  attr {
    key: "shared_name"
    value {
      s: ""
    }
  }
}
node {
  name: "train_network/resblock1_0/batch_norm_1/moving_mean/Assign"
  op: "Assign"
  input: "train_network/resblock1_0/batch_norm_1/moving_mean"
  input: "train_network/resblock1_0/batch_norm_1/moving_mean/Initializer/zeros"
  attr {
    key: "T"
    value {
      type: DT_FLOAT
    }
  }
  attr {
    key: "_class"
    value {
      list {
        s: "loc:@train_network/resblock1_0/batch_norm_1/moving_mean"
      }
    }
  }
  attr {
    key: "use_locking"
    value {
      b: true
    }
  }
  attr {
    key: "validate_shape"
    value {
      b: true
    }
  }
}
node {
  name: "train_network/resblock1_0/batch_norm_1/moving_mean/read"
  op: "Identity"
  input: "train_network/resblock1_0/batch_norm_1/moving_mean"
  attr {
    key: "T"
    value {
      type: DT_FLOAT
    }
  }
  attr {
    key: "_class"
    value {
      list {
        s: "loc:@train_network/resblock1_0/batch_norm_1/moving_mean"
      }
    }
  }
}
node {
  name: "train_network/resblock1_0/batch_norm_1/moving_variance/Initializer/ones"
  op: "Const"
  attr {
    key: "_class"
    value {
      list {
        s: "loc:@train_network/resblock1_0/batch_norm_1/moving_variance"
      }
    }
  }
  attr {
    key: "dtype"
    value {
      type: DT_FLOAT
    }
  }
  attr {
    key: "value"
    value {
      tensor {
        dtype: DT_FLOAT
        tensor_shape {
          dim {
            size: 64
          }
        }
        float_val: 1.0
      }
    }
  }
}
node {
  name: "train_network/resblock1_0/batch_norm_1/moving_variance"
  op: "VariableV2"
  attr {
    key: "_class"
    value {
      list {
        s: "loc:@train_network/resblock1_0/batch_norm_1/moving_variance"
      }
    }
  }
  attr {
    key: "container"
    value {
      s: ""
    }
  }
  attr {
    key: "dtype"
    value {
      type: DT_FLOAT
    }
  }
  attr {
    key: "shape"
    value {
      shape {
        dim {
          size: 64
        }
      }
    }
  }
  attr {
    key: "shared_name"
    value {
      s: ""
    }
  }
}
node {
  name: "train_network/resblock1_0/batch_norm_1/moving_variance/Assign"
  op: "Assign"
  input: "train_network/resblock1_0/batch_norm_1/moving_variance"
  input: "train_network/resblock1_0/batch_norm_1/moving_variance/Initializer/ones"
  attr {
    key: "T"
    value {
      type: DT_FLOAT
    }
  }
  attr {
    key: "_class"
    value {
      list {
        s: "loc:@train_network/resblock1_0/batch_norm_1/moving_variance"
      }
    }
  }
  attr {
    key: "use_locking"
    value {
      b: true
    }
  }
  attr {
    key: "validate_shape"
    value {
      b: true
    }
  }
}
node {
  name: "train_network/resblock1_0/batch_norm_1/moving_variance/read"
  op: "Identity"
  input: "train_network/resblock1_0/batch_norm_1/moving_variance"
  attr {
    key: "T"
    value {
      type: DT_FLOAT
    }
  }
  attr {
    key: "_class"
    value {
      list {
        s: "loc:@train_network/resblock1_0/batch_norm_1/moving_variance"
      }
    }
  }
}
node {
  name: "train_network/resblock1_0/batch_norm_1/Const"
  op: "Const"
  attr {
    key: "dtype"
    value {
      type: DT_FLOAT
    }
  }
  attr {
    key: "value"
    value {
      tensor {
        dtype: DT_FLOAT
        tensor_shape {
          dim {
          }
        }
      }
    }
  }
}
node {
  name: "train_network/resblock1_0/batch_norm_1/Const_1"
  op: "Const"
  attr {
    key: "dtype"
    value {
      type: DT_FLOAT
    }
  }
  attr {
    key: "value"
    value {
      tensor {
        dtype: DT_FLOAT
        tensor_shape {
          dim {
          }
        }
      }
    }
  }
}
node {
  name: "train_network/resblock1_0/batch_norm_1/FusedBatchNorm"
  op: "FusedBatchNorm"
  input: "train_network/resblock1_0/conv_0/conv2d/BiasAdd"
  input: "train_network/resblock1_0/batch_norm_1/gamma/read"
  input: "train_network/resblock1_0/batch_norm_1/beta/read"
  input: "train_network/resblock1_0/batch_norm_1/Const"
  input: "train_network/resblock1_0/batch_norm_1/Const_1"
  attr {
    key: "T"
    value {
      type: DT_FLOAT
    }
  }
  attr {
    key: "data_format"
    value {
      s: "NHWC"
    }
  }
  attr {
    key: "epsilon"
    value {
      f: 1.0009999641624745e-05
    }
  }
  attr {
    key: "is_training"
    value {
      b: true
    }
  }
}
node {
  name: "train_network/resblock1_0/batch_norm_1/AssignMovingAvg/decay"
  op: "Const"
  attr {
    key: "_class"
    value {
      list {
        s: "loc:@train_network/resblock1_0/batch_norm_1/moving_mean"
      }
    }
  }
  attr {
    key: "dtype"
    value {
      type: DT_FLOAT
    }
  }
  attr {
    key: "value"
    value {
      tensor {
        dtype: DT_FLOAT
        tensor_shape {
        }
        float_val: 0.10000000149011612
      }
    }
  }
}
node {
  name: "train_network/resblock1_0/batch_norm_1/AssignMovingAvg/sub"
  op: "Sub"
  input: "train_network/resblock1_0/batch_norm_1/moving_mean/read"
  input: "train_network/resblock1_0/batch_norm_1/FusedBatchNorm:1"
  attr {
    key: "T"
    value {
      type: DT_FLOAT
    }
  }
  attr {
    key: "_class"
    value {
      list {
        s: "loc:@train_network/resblock1_0/batch_norm_1/moving_mean"
      }
    }
  }
}
node {
  name: "train_network/resblock1_0/batch_norm_1/AssignMovingAvg/mul"
  op: "Mul"
  input: "train_network/resblock1_0/batch_norm_1/AssignMovingAvg/sub"
  input: "train_network/resblock1_0/batch_norm_1/AssignMovingAvg/decay"
  attr {
    key: "T"
    value {
      type: DT_FLOAT
    }
  }
  attr {
    key: "_class"
    value {
      list {
        s: "loc:@train_network/resblock1_0/batch_norm_1/moving_mean"
      }
    }
  }
}
node {
  name: "train_network/resblock1_0/batch_norm_1/AssignMovingAvg"
  op: "AssignSub"
  input: "train_network/resblock1_0/batch_norm_1/moving_mean"
  input: "train_network/resblock1_0/batch_norm_1/AssignMovingAvg/mul"
  attr {
    key: "T"
    value {
      type: DT_FLOAT
    }
  }
  attr {
    key: "_class"
    value {
      list {
        s: "loc:@train_network/resblock1_0/batch_norm_1/moving_mean"
      }
    }
  }
  attr {
    key: "use_locking"
    value {
      b: false
    }
  }
}
node {
  name: "train_network/resblock1_0/batch_norm_1/AssignMovingAvg_1/decay"
  op: "Const"
  attr {
    key: "_class"
    value {
      list {
        s: "loc:@train_network/resblock1_0/batch_norm_1/moving_variance"
      }
    }
  }
  attr {
    key: "dtype"
    value {
      type: DT_FLOAT
    }
  }
  attr {
    key: "value"
    value {
      tensor {
        dtype: DT_FLOAT
        tensor_shape {
        }
        float_val: 0.10000000149011612
      }
    }
  }
}
node {
  name: "train_network/resblock1_0/batch_norm_1/AssignMovingAvg_1/sub"
  op: "Sub"
  input: "train_network/resblock1_0/batch_norm_1/moving_variance/read"
  input: "train_network/resblock1_0/batch_norm_1/FusedBatchNorm:2"
  attr {
    key: "T"
    value {
      type: DT_FLOAT
    }
  }
  attr {
    key: "_class"
    value {
      list {
        s: "loc:@train_network/resblock1_0/batch_norm_1/moving_variance"
      }
    }
  }
}
node {
  name: "train_network/resblock1_0/batch_norm_1/AssignMovingAvg_1/mul"
  op: "Mul"
  input: "train_network/resblock1_0/batch_norm_1/AssignMovingAvg_1/sub"
  input: "train_network/resblock1_0/batch_norm_1/AssignMovingAvg_1/decay"
  attr {
    key: "T"
    value {
      type: DT_FLOAT
    }
  }
  attr {
    key: "_class"
    value {
      list {
        s: "loc:@train_network/resblock1_0/batch_norm_1/moving_variance"
      }
    }
  }
}
node {
  name: "train_network/resblock1_0/batch_norm_1/AssignMovingAvg_1"
  op: "AssignSub"
  input: "train_network/resblock1_0/batch_norm_1/moving_variance"
  input: "train_network/resblock1_0/batch_norm_1/AssignMovingAvg_1/mul"
  attr {
    key: "T"
    value {
      type: DT_FLOAT
    }
  }
  attr {
    key: "_class"
    value {
      list {
        s: "loc:@train_network/resblock1_0/batch_norm_1/moving_variance"
      }
    }
  }
  attr {
    key: "use_locking"
    value {
      b: false
    }
  }
}
node {
  name: "train_network/resblock1_0/batch_norm_1/Identity"
  op: "Identity"
  input: "train_network/resblock1_0/batch_norm_1/FusedBatchNorm"
  input: "^train_network/resblock1_0/batch_norm_1/AssignMovingAvg"
  input: "^train_network/resblock1_0/batch_norm_1/AssignMovingAvg_1"
  attr {
    key: "T"
    value {
      type: DT_FLOAT
    }
  }
}
node {
  name: "train_network/resblock1_0/Relu_1"
  op: "Relu"
  input: "train_network/resblock1_0/batch_norm_1/Identity"
  attr {
    key: "T"
    value {
      type: DT_FLOAT
    }
  }
}
node {
  name: "train_network/resblock1_0/conv_1/conv2d/kernel/Initializer/truncated_normal/shape"
  op: "Const"
  attr {
    key: "_class"
    value {
      list {
        s: "loc:@train_network/resblock1_0/conv_1/conv2d/kernel"
      }
    }
  }
  attr {
    key: "dtype"
    value {
      type: DT_INT32
    }
  }
  attr {
    key: "value"
    value {
      tensor {
        dtype: DT_INT32
        tensor_shape {
          dim {
            size: 4
          }
        }
        tensor_content: "\003\000\000\000\003\000\000\000@\000\000\000@\000\000\000"
      }
    }
  }
}
node {
  name: "train_network/resblock1_0/conv_1/conv2d/kernel/Initializer/truncated_normal/mean"
  op: "Const"
  attr {
    key: "_class"
    value {
      list {
        s: "loc:@train_network/resblock1_0/conv_1/conv2d/kernel"
      }
    }
  }
  attr {
    key: "dtype"
    value {
      type: DT_FLOAT
    }
  }
  attr {
    key: "value"
    value {
      tensor {
        dtype: DT_FLOAT
        tensor_shape {
        }
        float_val: 0.0
      }
    }
  }
}
node {
  name: "train_network/resblock1_0/conv_1/conv2d/kernel/Initializer/truncated_normal/stddev"
  op: "Const"
  attr {
    key: "_class"
    value {
      list {
        s: "loc:@train_network/resblock1_0/conv_1/conv2d/kernel"
      }
    }
  }
  attr {
    key: "dtype"
    value {
      type: DT_FLOAT
    }
  }
  attr {
    key: "value"
    value {
      tensor {
        dtype: DT_FLOAT
        tensor_shape {
        }
        float_val: 0.06718548387289047
      }
    }
  }
}
node {
  name: "train_network/resblock1_0/conv_1/conv2d/kernel/Initializer/truncated_normal/TruncatedNormal"
  op: "TruncatedNormal"
  input: "train_network/resblock1_0/conv_1/conv2d/kernel/Initializer/truncated_normal/shape"
  attr {
    key: "T"
    value {
      type: DT_INT32
    }
  }
  attr {
    key: "_class"
    value {
      list {
        s: "loc:@train_network/resblock1_0/conv_1/conv2d/kernel"
      }
    }
  }
  attr {
    key: "dtype"
    value {
      type: DT_FLOAT
    }
  }
  attr {
    key: "seed"
    value {
      i: 0
    }
  }
  attr {
    key: "seed2"
    value {
      i: 0
    }
  }
}
node {
  name: "train_network/resblock1_0/conv_1/conv2d/kernel/Initializer/truncated_normal/mul"
  op: "Mul"
  input: "train_network/resblock1_0/conv_1/conv2d/kernel/Initializer/truncated_normal/TruncatedNormal"
  input: "train_network/resblock1_0/conv_1/conv2d/kernel/Initializer/truncated_normal/stddev"
  attr {
    key: "T"
    value {
      type: DT_FLOAT
    }
  }
  attr {
    key: "_class"
    value {
      list {
        s: "loc:@train_network/resblock1_0/conv_1/conv2d/kernel"
      }
    }
  }
}
node {
  name: "train_network/resblock1_0/conv_1/conv2d/kernel/Initializer/truncated_normal"
  op: "Add"
  input: "train_network/resblock1_0/conv_1/conv2d/kernel/Initializer/truncated_normal/mul"
  input: "train_network/resblock1_0/conv_1/conv2d/kernel/Initializer/truncated_normal/mean"
  attr {
    key: "T"
    value {
      type: DT_FLOAT
    }
  }
  attr {
    key: "_class"
    value {
      list {
        s: "loc:@train_network/resblock1_0/conv_1/conv2d/kernel"
      }
    }
  }
}
node {
  name: "train_network/resblock1_0/conv_1/conv2d/kernel"
  op: "VariableV2"
  attr {
    key: "_class"
    value {
      list {
        s: "loc:@train_network/resblock1_0/conv_1/conv2d/kernel"
      }
    }
  }
  attr {
    key: "container"
    value {
      s: ""
    }
  }
  attr {
    key: "dtype"
    value {
      type: DT_FLOAT
    }
  }
  attr {
    key: "shape"
    value {
      shape {
        dim {
          size: 3
        }
        dim {
          size: 3
        }
        dim {
…
  name: "train_network/resblock_3_1/batch_norm_1/moving_mean"
  op: "VariableV2"
  attr {
    key: "_class"
    value {
      list {
        s: "loc:@train_network/resblock_3_1/batch_norm_1/moving_mean"
      }
    }
  }
  attr {
    key: "container"
    value {
      s: ""
    }
  }
  attr {
    key: "dtype"
    value {
      type: DT_FLOAT
    }
  }
  attr {
    key: "shape"
    value {
      shape {
        dim {
          size: 256
        }
      }
    }
  }
  attr {
    key: "shared_name"
    value {
      s: ""
    }
  }
}
node {
  name: "train_network/resblock_3_1/batch_norm_1/moving_mean/Assign"
  op: "Assign"
  input: "train_network/resblock_3_1/batch_norm_1/moving_mean"
  input: "train_network/resblock_3_1/batch_norm_1/moving_mean/Initializer/zeros"
  attr {
    key: "T"
    value {
      type: DT_FLOAT
    }
  }
  attr {
    key: "_class"
    value {
      list {
        s: "loc:@train_network/resblock_3_1/batch_norm_1/moving_mean"
      }
    }
  }
  attr {
    key: "use_locking"
    value {
      b: true
    }
  }
  attr {
    key: "validate_shape"
    value {
      b: true
    }
  }
}
node {
  name: "train_network/resblock_3_1/batch_norm_1/moving_mean/read"
  op: "Identity"
  input: "train_network/resblock_3_1/batch_norm_1/moving_mean"
  attr {
    key: "T"
    value {
      type: DT_FLOAT
    }
  }
  attr {
    key: "_class"
    value {
      list {
        s: "loc:@train_network/resblock_3_1/batch_norm_1/moving_mean"
      }
    }
  }
}
node {
  name: "train_network/resblock_3_1/batch_norm_1/moving_variance/Initializer/ones"
  op: "Const"
  attr {
    key: "_class"
    value {
      list {
        s: "loc:@train_network/resblock_3_1/batch_norm_1/moving_variance"
      }
    }
  }
  attr {
    key: "dtype"
    value {
      type: DT_FLOAT
    }
  }
  attr {
    key: "value"
    value {
      tensor {
        dtype: DT_FLOAT
        tensor_shape {
          dim {
            size: 256
          }
        }
        float_val: 1.0
      }
    }
  }
}
node {
  name: "train_network/resblock_3_1/batch_norm_1/moving_variance"
  op: "VariableV2"
  attr {
    key: "_class"
    value {
      list {
        s: "loc:@train_network/resblock_3_1/batch_norm_1/moving_variance"
      }
    }
  }
  attr {
    key: "container"
    value {
      s: ""
    }
  }
  attr {
    key: "dtype"
    value {
      type: DT_FLOAT
    }
  }
  attr {
    key: "shape"
    value {
      shape {
        dim {
          size: 256
        }
      }
    }
  }
  attr {
    key: "shared_name"
    value {
      s: ""
    }
  }
}
node {
  name: "train_network/resblock_3_1/batch_norm_1/moving_variance/Assign"
  op: "Assign"
  input: "train_network/resblock_3_1/batch_norm_1/moving_variance"
  input: "train_network/resblock_3_1/batch_norm_1/moving_variance/Initializer/ones"
  attr {
    key: "T"
    value {
      type: DT_FLOAT
    }
  }
  attr {
    key: "_class"
    value {
      list {
        s: "loc:@train_network/resblock_3_1/batch_norm_1/moving_variance"
      }
    }
  }
  attr {
    key: "use_locking"
    value {
      b: true
    }
  }
  attr {
    key: "validate_shape"
    value {
      b: true
    }
  }
}
node {
  name: "train_network/resblock_3_1/batch_norm_1/moving_variance/read"
  op: "Identity"
  input: "train_network/resblock_3_1/batch_norm_1/moving_variance"
  attr {
    key: "T"
    value {
      type: DT_FLOAT
    }
  }
  attr {
    key: "_class"
    value {
      list {
        s: "loc:@train_network/resblock_3_1/batch_norm_1/moving_variance"
      }
    }
  }
}
node {
  name: "train_network/resblock_3_1/batch_norm_1/Const"
  op: "Const"
  attr {
    key: "dtype"
    value {
      type: DT_FLOAT
    }
  }
  attr {
    key: "value"
    value {
      tensor {
        dtype: DT_FLOAT
        tensor_shape {
          dim {
          }
        }
      }
    }
  }
}
node {
  name: "train_network/resblock_3_1/batch_norm_1/Const_1"
  op: "Const"
  attr {
    key: "dtype"
    value {
      type: DT_FLOAT
    }
  }
  attr {
    key: "value"
    value {
      tensor {
        dtype: DT_FLOAT
        tensor_shape {
          dim {
          }
        }
      }
    }
  }
}
node {
  name: "train_network/resblock_3_1/batch_norm_1/FusedBatchNorm"
  op: "FusedBatchNorm"
  input: "train_network/resblock_3_1/conv_0/conv2d/BiasAdd"
  input: "train_network/resblock_3_1/batch_norm_1/gamma/read"
  input: "train_network/resblock_3_1/batch_norm_1/beta/read"
  input: "train_network/resblock_3_1/batch_norm_1/Const"
  input: "train_network/resblock_3_1/batch_norm_1/Const_1"
  attr {
    key: "T"
    value {
      type: DT_FLOAT
    }
  }
  attr {
    key: "data_format"
    value {
      s: "NHWC"
    }
  }
  attr {
    key: "epsilon"
    value {
      f: 1.0009999641624745e-05
    }
  }
  attr {
    key: "is_training"
    value {
      b: true
    }
  }
}
node {
  name: "train_network/resblock_3_1/batch_norm_1/AssignMovingAvg/decay"
  op: "Const"
  attr {
    key: "_class"
    value {
      list {
        s: "loc:@train_network/resblock_3_1/batch_norm_1/moving_mean"
      }
    }
  }
  attr {
    key: "dtype"
    value {
      type: DT_FLOAT
    }
  }
  attr {
    key: "value"
    value {
      tensor {
        dtype: DT_FLOAT
        tensor_shape {
        }
        float_val: 0.10000000149011612
      }
    }
  }
}
node {
  name: "train_network/resblock_3_1/batch_norm_1/AssignMovingAvg/sub"
  op: "Sub"
  input: "train_network/resblock_3_1/batch_norm_1/moving_mean/read"
  input: "train_network/resblock_3_1/batch_norm_1/FusedBatchNorm:1"
  attr {
    key: "T"
    value {
      type: DT_FLOAT
    }
  }
  attr {
    key: "_class"
    value {
      list {
        s: "loc:@train_network/resblock_3_1/batch_norm_1/moving_mean"
      }
    }
  }
}
node {
  name: "train_network/resblock_3_1/batch_norm_1/AssignMovingAvg/mul"
  op: "Mul"
  input: "train_network/resblock_3_1/batch_norm_1/AssignMovingAvg/sub"
  input: "train_network/resblock_3_1/batch_norm_1/AssignMovingAvg/decay"
  attr {
    key: "T"
    value {
      type: DT_FLOAT
    }
  }
  attr {
    key: "_class"
    value {
      list {
        s: "loc:@train_network/resblock_3_1/batch_norm_1/moving_mean"
      }
    }
  }
}
node {
  name: "train_network/resblock_3_1/batch_norm_1/AssignMovingAvg"
  op: "AssignSub"
  input: "train_network/resblock_3_1/batch_norm_1/moving_mean"
  input: "train_network/resblock_3_1/batch_norm_1/AssignMovingAvg/mul"
  attr {
    key: "T"
    value {
      type: DT_FLOAT
    }
  }
  attr {
    key: "_class"
    value {
      list {
        s: "loc:@train_network/resblock_3_1/batch_norm_1/moving_mean"
      }
    }
  }
  attr {
    key: "use_locking"
    value {
      b: false
    }
  }
}
node {
  name: "train_network/resblock_3_1/batch_norm_1/AssignMovingAvg_1/decay"
  op: "Const"
  attr {
    key: "_class"
    value {
      list {
        s: "loc:@train_network/resblock_3_1/batch_norm_1/moving_variance"
      }
    }
  }
  attr {
    key: "dtype"
    value {
      type: DT_FLOAT
    }
  }
  attr {
    key: "value"
    value {
      tensor {
        dtype: DT_FLOAT
        tensor_shape {
        }
        float_val: 0.10000000149011612
      }
    }
  }
}
node {
  name: "train_network/resblock_3_1/batch_norm_1/AssignMovingAvg_1/sub"
  op: "Sub"
  input: "train_network/resblock_3_1/batch_norm_1/moving_variance/read"
  input: "train_network/resblock_3_1/batch_norm_1/FusedBatchNorm:2"
  attr {
    key: "T"
    value {
      type: DT_FLOAT
    }
  }
  attr {
    key: "_class"
    value {
      list {
        s: "loc:@train_network/resblock_3_1/batch_norm_1/moving_variance"
      }
    }
  }
}
node {
  name: "train_network/resblock_3_1/batch_norm_1/AssignMovingAvg_1/mul"
  op: "Mul"
  input: "train_network/resblock_3_1/batch_norm_1/AssignMovingAvg_1/sub"
  input: "train_network/resblock_3_1/batch_norm_1/AssignMovingAvg_1/decay"
  attr {
    key: "T"
    value {
      type: DT_FLOAT
    }
  }
  attr {
    key: "_class"
    value {
      list {
        s: "loc:@train_network/resblock_3_1/batch_norm_1/moving_variance"
      }
    }
  }
}
node {
  name: "train_network/resblock_3_1/batch_norm_1/AssignMovingAvg_1"
  op: "AssignSub"
  input: "train_network/resblock_3_1/batch_norm_1/moving_variance"
  input: "train_network/resblock_3_1/batch_norm_1/AssignMovingAvg_1/mul"
  attr {
    key: "T"
    value {
      type: DT_FLOAT
    }
  }
  attr {
    key: "_class"
    value {
      list {
        s: "loc:@train_network/resblock_3_1/batch_norm_1/moving_variance"
      }
    }
  }
  attr {
    key: "use_locking"
    value {
      b: false
    }
  }
}
node {
  name: "train_network/resblock_3_1/batch_norm_1/Identity"
  op: "Identity"
  input: "train_network/resblock_3_1/batch_norm_1/FusedBatchNorm"
  input: "^train_network/resblock_3_1/batch_norm_1/AssignMovingAvg"
  input: "^train_network/resblock_3_1/batch_norm_1/AssignMovingAvg_1"
  attr {
    key: "T"
    value {
      type: DT_FLOAT
    }
  }
}
node {
  name: "train_network/resblock_3_1/Relu_1"
  op: "Relu"
  input: "train_network/resblock_3_1/batch_norm_1/Identity"
  attr {
    key: "T"
    value {
      type: DT_FLOAT
    }
  }
}
node {
  name: "train_network/resblock_3_1/conv_1/conv2d/kernel/Initializer/truncated_normal/shape"
  op: "Const"
  attr {
    key: "_class"
    value {
      list {
        s: "loc:@train_network/resblock_3_1/conv_1/conv2d/kernel"
      }
    }
  }
  attr {
    key: "dtype"
    value {
      type: DT_INT32
    }
  }
  attr {
    key: "value"
    value {
      tensor {
        dtype: DT_INT32
        tensor_shape {
          dim {
            size: 4
          }
        }
        tensor_content: "\003\000\000\000\003\000\000\000\000\001\000\000\000\001\000\000"
      }
    }
  }
}
node {
  name: "train_network/resblock_3_1/conv_1/conv2d/kernel/Initializer/truncated_normal/mean"
  op: "Const"
  attr {
    key: "_class"
    value {
      list {
        s: "loc:@train_network/resblock_3_1/conv_1/conv2d/kernel"
      }
    }
  }
  attr {
    key: "dtype"
    value {
      type: DT_FLOAT
    }
  }
  attr {
    key: "value"
    value {
      tensor {
        dtype: DT_FLOAT
        tensor_shape {
        }
        float_val: 0.0
      }
    }
  }
}
node {
  name: "train_network/resblock_3_1/conv_1/conv2d/kernel/Initializer/truncated_normal/stddev"
  op: "Const"
  attr {
    key: "_class"
    value {
      list {
        s: "loc:@train_network/resblock_3_1/conv_1/conv2d/kernel"
      }
    }
  }
  attr {
    key: "dtype"
    value {
      type: DT_FLOAT
    }
  }
  attr {
    key: "value"
    value {
      tensor {
        dtype: DT_FLOAT
        tensor_shape {
        }
        float_val: 0.033592741936445236
      }
    }
  }
}
node {
  name: "train_network/resblock_3_1/conv_1/conv2d/kernel/Initializer/truncated_normal/TruncatedNormal"
  op: "TruncatedNormal"
  input: "train_network/resblock_3_1/conv_1/conv2d/kernel/Initializer/truncated_normal/shape"
  attr {
    key: "T"
    value {
      type: DT_INT32
    }
  }
  attr {
    key: "_class"
    value {
      list {
        s: "loc:@train_network/resblock_3_1/conv_1/conv2d/kernel"
      }
    }
  }
  attr {
    key: "dtype"
    value {
      type: DT_FLOAT
    }
  }
  attr {
    key: "seed"
    value {
      i: 0
    }
  }
  attr {
    key: "seed2"
    value {
      i: 0
    }
  }
}
node {
  name: "train_network/resblock_3_1/conv_1/conv2d/kernel/Initializer/truncated_normal/mul"
  op: "Mul"
  input: "train_network/resblock_3_1/conv_1/conv2d/kernel/Initializer/truncated_normal/TruncatedNormal"
  input: "train_network/resblock_3_1/conv_1/conv2d/kernel/Initializer/truncated_normal/stddev"
  attr {
    key: "T"
    value {
      type: DT_FLOAT
    }
  }
  attr {
    key: "_class"
    value {
      list {
        s: "loc:@train_network/resblock_3_1/conv_1/conv2d/kernel"
      }
    }
  }
}
node {
  name: "train_network/resblock_3_1/conv_1/conv2d/kernel/Initializer/truncated_normal"
  op: "Add"
  input: "train_network/resblock_3_1/conv_1/conv2d/kernel/Initializer/truncated_normal/mul"
  input: "train_network/resblock_3_1/conv_1/conv2d/kernel/Initializer/truncated_normal/mean"
  attr {
    key: "T"
    value {
      type: DT_FLOAT
    }
  }
  attr {
    key: "_class"
    value {
      list {
        s: "loc:@train_network/resblock_3_1/conv_1/conv2d/kernel"
      }
    }
  }
}
node {
  name: "train_network/resblock_3_1/conv_1/conv2d/kernel"
  op: "VariableV2"
  attr {
    key: "_class"
    value {
      list {
        s: "loc:@train_network/resblock_3_1/conv_1/conv2d/kernel"
      }
    }
  }
  attr {
    key: "container"
    value {
      s: ""
    }
  }
  attr {
    key: "dtype"
    value {
      type: DT_FLOAT
    }
  }
  attr {
    key: "shape"
    value {
      shape {
        dim {
          size: 3
        }
        dim {
          size: 3
        }
        dim {
          size: 256
        }
        dim {
          size: 256
        }
      }
    }
  }
  attr {
    key: "shared_name"
    value {
      s: ""
    }
  }
}
node {
  name: "train_network/resblock_3_1/conv_1/conv2d/kernel/Assign"
  op: "Assign"
  input: "train_network/resblock_3_1/conv_1/conv2d/kernel"
  input: "train_network/resblock_3_1/conv_1/conv2d/kernel/Initializer/truncated_normal"
  attr {
    key: "T"
    value {
      type: DT_FLOAT
    }
  }
  attr {
    key: "_class"
    value {
      list {
        s: "loc:@train_network/resblock_3_1/conv_1/conv2d/kernel"
      }
    }
  }
  attr {
    key: "use_locking"
    value {
      b: true
    }
  }
  attr {
    key: "validate_shape"
    value {
      b: true
    }
  }
}
node {
  name: "train_network/resblock_3_1/conv_1/conv2d/kernel/read"
  op: "Identity"
  input: "train_network/resblock_3_1/conv_1/conv2d/kernel"
  attr {
    key: "T"
    value {
      type: DT_FLOAT
    }
  }
  attr {
    key: "_class"
    value {
      list {
        s: "loc:@train_network/resblock_3_1/conv_1/conv2d/kernel"
      }
    }
  }
}
node {
  name: "train_network/resblock_3_1/conv_1/conv2d/kernel/Regularizer/l2_regularizer/scale"
  op: "Const"
  attr {
    key: "_class"
    value {
      list {
        s: "loc:@train_network/resblock_3_1/conv_1/conv2d/kernel"
      }
    }
  }
  attr {
    key: "dtype"
    value {
      type: DT_FLOAT
    }
  }
  attr {
    key: "value"
    value {
      tensor {
        dtype: DT_FLOAT
        tensor_shape {
        }
        float_val: 9.999999747378752e-05
      }
    }
  }
}
node {
  name: "train_network/resblock_3_1/conv_1/conv2d/kernel/Regularizer/l2_regularizer/L2Loss"
  op: "L2Loss"
  input: "train_network/resblock_3_1/conv_1/conv2d/kernel/read"
  attr {
    key: "T"
    value {
      type: DT_FLOAT
    }
  }
  attr {
    key: "_class"
    value {
      list {
        s: "loc:@train_network/resblock_3_1/conv_1/conv2d/kernel"
      }
    }
  }
}
node {
  name: "train_network/resblock_3_1/conv_1/conv2d/kernel/Regularizer/l2_regularizer"
  op: "Mul"
  input: "train_network/resblock_3_1/conv_1/conv2d/kernel/Regularizer/l2_regularizer/scale"
  input: "train_network/resblock_3_1/conv_1/conv2d/kernel/Regularizer/l2_regularizer/L2Loss"
  attr {
    key: "T"
    value {
      type: DT_FLOAT
    }
  }
  attr {
    key: "_class"
    value {
      list {
        s: "loc:@train_network/resblock_3_1/conv_1/conv2d/kernel"
      }
    }
  }
}
node {
  name: "train_network/resblock_3_1/conv_1/conv2d/bias/Initializer/zeros"
  op: "Const"
  attr {
    key: "_class"
    value {
      list {
        s: "loc:@train_network/resblock_3_1/conv_1/conv2d/bias"
      }
    }
  }
  attr {
    key: "dtype"
    value {
      type: DT_FLOAT
    }
  }
  attr {
    key: "value"
    value {
      tensor {
        dtype: DT_FLOAT
        tensor_shape {
          dim {
            size: 256
          }
        }
        float_val: 0.0
      }
    }
  }
}
node {
  name: "train_network/resblock_3_1/conv_1/conv2d/bias"
  op: "VariableV2"
  attr {
    key: "_class"
    value {
      list {
        s: "loc:@train_network/resblock_3_1/conv_1/conv2d/bias"
      }
    }
  }
  attr {
    key: "container"
    value {
      s: ""
    }
  }
  attr {
    key: "dtype"
    value {
      type: DT_FLOAT
    }
  }
  attr {
    key: "shape"
    value {
      shape {
        dim {
          size: 256
        }
      }
    }
  }
  attr {
    key: "shared_name"
    value {
      s: ""
    }
  }
}
node {
  name: "train_network/resblock_3_1/conv_1/conv2d/bias/Assign"
  op: "Assign"
  input: "train_network/resblock_3_1/conv_1/conv2d/bias"
  input: "train_network/resblock_3_1/conv_1/conv2d/bias/Initializer/zeros"
  attr {
    key: "T"
    value {
      type: DT_FLOAT
    }
  }
  attr {
    key: "_class"
    value {
      list {
        s: "loc:@train_network/resblock_3_1/conv_1/conv2d/bias"
      }
    }
  }
  attr {
    key: "use_locking"
    value {
      b: true
    }
  }
  attr {
    key: "validate_shape"
    value {
      b: true
    }
  }
}
node {
  name: "train_network/resblock_3_1/conv_1/conv2d/bias/read"
  op: "Identity"
  input: "train_network/resblock_3_1/conv_1/conv2d/bias"
  attr {
    key: "T"
    value {
      type: DT_FLOAT
    }
  }
  attr {
    key: "_class"
    value {
      list {
        s: "loc:@train_network/resblock_3_1/conv_1/conv2d/bias"
      }
    }
  }
}
node {
  name: "train_network/resblock_3_1/conv_1/conv2d/dilation_rate"
  op: "Const"
  attr {
    key: "dtype"
    value {
      type: DT_INT32
    }
  }
  attr {
    key: "value"
    value {
      tensor {
        dtype: DT_INT32
        tensor_shape {
          dim {
            size: 2
          }
        }
        tensor_content: "\001\000\000\000\001\000\000\000"
      }
    }
  }
}
node {
  name: "train_network/resblock_3_1/conv_1/conv2d/Conv2D"
  op: "Conv2D"
  input: "train_network/resblock_3_1/Relu_1"
  input: "train_network/resblock_3_1/conv_1/conv2d/kernel/read"
  attr {
    key: "T"
    value {
      type: DT_FLOAT
    }
  }
  attr {
    key: "data_format"
    value {
      s: "NHWC"
    }
  }
  attr {
    key: "dilations"
    value {
      list {
        i: 1
        i: 1
        i: 1
        i: 1
      }
    }
  }
  attr {
    key: "padding"
    value {
      s: "SAME"
    }
  }
  attr {
    key: "strides"
    value {
      list {
        i: 1
        i: 1
        i: 1
        i: 1
      }
    }
  }
  attr {
    key: "use_cudnn_on_gpu"
    value {
      b: true
    }
  }
}
node {
  name: "train_network/resblock_3_1/conv_1/conv2d/BiasAdd"
  op: "BiasAdd"
  input: "train_network/resblock_3_1/conv_1/conv2d/Conv2D"
  input: "train_network/resblock_3_1/conv_1/conv2d/bias/read"
  attr {
    key: "T"
    value {
      type: DT_FLOAT
    }
  }
  attr {
    key: "data_format"
    value {
      s: "NHWC"
    }
  }
}
node {
  name: "train_network/resblock_3_1/add"
  op: "Add"
  input: "train_network/resblock_3_1/conv_1/conv2d/BiasAdd"
  input: "train_network/resblock_3_0/add"
  attr {
    key: "T"
    value {
      type: DT_FLOAT
    }
  }
}
node {
  name: "train_network/batch_norm/beta/Initializer/zeros"
  op: "Const"
  attr {
    key: "_class"
    value {
      list {
        s: "loc:@train_network/batch_norm/beta"
      }
    }
  }
  attr {
    key: "dtype"
    value {
      type: DT_FLOAT
    }
  }
  attr {
    key: "value"
    value {
      tensor {
        dtype: DT_FLOAT
        tensor_shape {
          dim {
            size: 256
          }
        }
        float_val: 0.0
      }
    }
  }
}
node {
  name: "train_network/batch_norm/beta"
  op: "VariableV2"
  attr {
    key: "_class"
    value {
      list {
        s: "loc:@train_network/batch_norm/beta"
      }
    }
  }
  attr {
    key: "container"
    value {
      s: ""
    }
  }
  attr {
    key: "dtype"
    value {
      type: DT_FLOAT
    }
  }
  attr {
    key: "shape"
    value {
      shape {
        dim {
          size: 256
        }
      }
    }
  }
  attr {
    key: "shared_name"
    value {
      s: ""
    }
  }
}
node {
  name: "train_network/batch_norm/beta/Assign"
  op: "Assign"
  input: "train_network/batch_norm/beta"
  input: "train_network/batch_norm/beta/Initializer/zeros"
  attr {
    key: "T"
    value {
      type: DT_FLOAT
    }
  }
  attr {
    key: "_class"
    value {
      list {
        s: "loc:@train_network/batch_norm/beta"
      }
    }
  }
  attr {
    key: "use_locking"
    value {
      b: true
    }
  }
  attr {
    key: "validate_shape"
    value {
      b: true
    }
  }
}
node {
  name: "train_network/batch_norm/beta/read"
  op: "Identity"
  input: "train_network/batch_norm/beta"
  attr {
    key: "T"
    value {
      type: DT_FLOAT
    }
  }
  attr {
    key: "_class"
    value {
      list {
        s: "loc:@train_network/batch_norm/beta"
      }
    }
  }
}
node {
  name: "train_network/batch_norm/gamma/Initializer/ones"
  op: "Const"
  attr {
    key: "_class"
    value {
      list {
        s: "loc:@train_network/batch_norm/gamma"
      }
    }
  }
  attr {
    key: "dtype"
    value {
      type: DT_FLOAT
    }
  }
  attr {
    key: "value"
    value {
      tensor {
        dtype: DT_FLOAT
        tensor_shape {
          dim {
            size: 256
          }
        }
        float_val: 1.0
      }
    }
  }
}
node {
  name: "train_network/batch_norm/gamma"
  op: "VariableV2"
  attr {
    key: "_class"
    value {
      list {
        s: "loc:@train_network/batch_norm/gamma"
      }
    }
  }
  attr {
    key: "container"
    value {
      s: ""
    }
  }
  attr {
    key: "dtype"
    value {
      type: DT_FLOAT
    }
  }
  attr {
    key: "shape"
    value {
      shape {
        dim {
          size: 256
        }
      }
    }
  }
  attr {
    key: "shared_name"
    value {
      s: ""
    }
  }
}
node {
  name: "train_network/batch_norm/gamma/Assign"
  op: "Assign"
  input: "train_network/batch_norm/gamma"
  input: "train_network/batch_norm/gamma/Initializer/ones"
  attr {
    key: "T"
    value {
      type: DT_FLOAT
    }
  }
  attr {
    key: "_class"
    value {
      list {
        s: "loc:@train_network/batch_norm/gamma"
      }
    }
  }
  attr {
    key: "use_locking"
    value {
      b: true
    }
  }
  attr {
    key: "validate_shape"
    value {
      b: true
    }
  }
}
node {
  name: "train_network/batch_norm/gamma/read"
  op: "Identity"
  input: "train_network/batch_norm/gamma"
  attr {
    key: "T"
    value {
      type: DT_FLOAT
    }
  }
  attr {
    key: "_class"
    value {
      list {
        s: "loc:@train_network/batch_norm/gamma"
      }
    }
  }
}
node {
  name: "train_network/batch_norm/moving_mean/Initializer/zeros"
  op: "Const"
  attr {
    key: "_class"
    value {
      list {
        s: "loc:@train_network/batch_norm/moving_mean"
      }
    }
  }
  attr {
    key: "dtype"
    value {
      type: DT_FLOAT
    }
  }
  attr {
    key: "value"
    value {
      tensor {
        dtype: DT_FLOAT
        tensor_shape {
          dim {
            size: 256
          }
        }
        float_val: 0.0
      }
    }
  }
}
node {
  name: "train_network/batch_norm/moving_mean"
  op: "VariableV2"
  attr {
    key: "_class"
    value {
      list {
        s: "loc:@train_network/batch_norm/moving_mean"
      }
    }
  }
  attr {
    key: "container"
    value {
      s: ""
    }
  }
  attr {
    key: "dtype"
    value {
      type: DT_FLOAT
    }
  }
  attr {
    key: "shape"
    value {
      shape {
        dim {
          size: 256
        }
      }
    }
  }
  attr {
    key: "shared_name"
    value {
      s: ""
    }
  }
}
node {
  name: "train_network/batch_norm/moving_mean/Assign"
  op: "Assign"
  input: "train_network/batch_norm/moving_mean"
  input: "train_network/batch_norm/moving_mean/Initializer/zeros"
  attr {
    key: "T"
    value {
      type: DT_FLOAT
    }
  }
  attr {
    key: "_class"
    value {
      list {
        s: "loc:@train_network/batch_norm/moving_mean"
      }
    }
  }
  attr {
    key: "use_locking"
    value {
      b: true
    }
  }
  attr {
    key: "validate_shape"
    value {
      b: true
    }
  }
}
node {
  name: "train_network/batch_norm/moving_mean/read"
  op: "Identity"
  input: "train_network/batch_norm/moving_mean"
  attr {
    key: "T"
    value {
      type: DT_FLOAT
    }
  }
  attr {
    key: "_class"
    value {
      list {
        s: "loc:@train_network/batch_norm/moving_mean"
      }
    }
  }
}
node {
  name: "train_network/batch_norm/moving_variance/Initializer/ones"
  op: "Const"
  attr {
    key: "_class"
    value {
      list {
        s: "loc:@train_network/batch_norm/moving_variance"
      }
    }
  }
  attr {
    key: "dtype"
    value {
      type: DT_FLOAT
    }
  }
  attr {
    key: "value"
    value {
      tensor {
        dtype: DT_FLOAT
        tensor_shape {
          dim {
            size: 256
          }
        }
        float_val: 1.0
      }
    }
  }
}
node {
  name: "train_network/batch_norm/moving_variance"
  op: "VariableV2"
  attr {
    key: "_class"
    value {
      list {
        s: "loc:@train_network/batch_norm/moving_variance"
      }
    }
  }
  attr {
    key: "container"
    value {
      s: ""
    }
  }
  attr {
    key: "dtype"
    value {
      type: DT_FLOAT
    }
  }
  attr {
    key: "shape"
    value {
      shape {
        dim {
          size: 256
        }
      }
    }
  }
  attr {
    key: "shared_name"
    value {
      s: ""
    }
  }
}
node {
  name: "train_network/batch_norm/moving_variance/Assign"
  op: "Assign"
  input: "train_network/batch_norm/moving_variance"
  input: "train_network/batch_norm/moving_variance/Initializer/ones"
  attr {
    key: "T"
    value {
      type: DT_FLOAT
    }
  }
  attr {
    key: "_class"
    value {
      list {
        s: "loc:@train_network/batch_norm/moving_variance"
      }
    }
  }
  attr {
    key: "use_locking"
    value {
      b: true
    }
  }
  attr {
    key: "validate_shape"
    value {
      b: true
    }
  }
}
node {
  name: "train_network/batch_norm/moving_variance/read"
  op: "Identity"
  input: "train_network/batch_norm/moving_variance"
  attr {
    key: "T"
    value {
      type: DT_FLOAT
    }
  }
  attr {
    key: "_class"
    value {
      list {
        s: "loc:@train_network/batch_norm/moving_variance"
      }
    }
  }
}
node {
  name: "train_network/batch_norm/Const"
  op: "Const"
  attr {
    key: "dtype"
    value {
      type: DT_FLOAT
    }
  }
  attr {
    key: "value"
    value {
      tensor {
        dtype: DT_FLOAT
        tensor_shape {
          dim {
          }
        }
      }
    }
  }
}
node {
  name: "train_network/batch_norm/Const_1"
  op: "Const"
  attr {
    key: "dtype"
    value {
      type: DT_FLOAT
    }
  }
  attr {
    key: "value"
    value {
      tensor {
        dtype: DT_FLOAT
        tensor_shape {
          dim {
          }
        }
      }
    }
  }
}
node {
  name: "train_network/batch_norm/FusedBatchNorm"
  op: "FusedBatchNorm"
  input: "train_network/resblock_3_1/add"
  input: "train_network/batch_norm/gamma/read"
  input: "train_network/batch_norm/beta/read"
  input: "train_network/batch_norm/Const"
  input: "train_network/batch_norm/Const_1"
  attr {
    key: "T"
    value {
      type: DT_FLOAT
    }
  }
  attr {
    key: "data_format"
    value {
      s: "NHWC"
    }
  }
  attr {
    key: "epsilon"
    value {
      f: 1.0009999641624745e-05
    }
  }
  attr {
    key: "is_training"
    value {
      b: true
    }
  }
}
node {
  name: "train_network/batch_norm/AssignMovingAvg/decay"
  op: "Const"
  attr {
    key: "_class"
    value {
      list {
        s: "loc:@train_network/batch_norm/moving_mean"
      }
    }
  }
  attr {
    key: "dtype"
    value {
      type: DT_FLOAT
    }
  }
  attr {
    key: "value"
    value {
      tensor {
        dtype: DT_FLOAT
        tensor_shape {
        }
        float_val: 0.10000000149011612
      }
    }
  }
}
node {
  name: "train_network/batch_norm/AssignMovingAvg/sub"
  op: "Sub"
  input: "train_network/batch_norm/moving_mean/read"
  input: "train_network/batch_norm/FusedBatchNorm:1"
  attr {
    key: "T"
    value {
      type: DT_FLOAT
    }
  }
  attr {
    key: "_class"
    value {
      list {
        s: "loc:@train_network/batch_norm/moving_mean"
      }
    }
  }
}
node {
  name: "train_network/batch_norm/AssignMovingAvg/mul"
  op: "Mul"
  input: "train_network/batch_norm/AssignMovingAvg/sub"
  input: "train_network/batch_norm/AssignMovingAvg/decay"
  attr {
    key: "T"
    value {
      type: DT_FLOAT
    }
  }
  attr {
    key: "_class"
    value {
      list {
        s: "loc:@train_network/batch_norm/moving_mean"
      }
    }
  }
}
node {
  name: "train_network/batch_norm/AssignMovingAvg"
  op: "AssignSub"
  input: "train_network/batch_norm/moving_mean"
  input: "train_network/batch_norm/AssignMovingAvg/mul"
  attr {
    key: "T"
    value {
      type: DT_FLOAT
    }
  }
  attr {
    key: "_class"
    value {
      list {
        s: "loc:@train_network/batch_norm/moving_mean"
      }
    }
  }
  attr {
    key: "use_locking"
    value {
      b: false
    }
  }
}
node {
  name: "train_network/batch_norm/AssignMovingAvg_1/decay"
  op: "Const"
  attr {
    key: "_class"
    value {
      list {
        s: "loc:@train_network/batch_norm/moving_variance"
      }
    }
  }
  attr {
    key: "dtype"
    value {
      type: DT_FLOAT
    }
  }
  attr {
    key: "value"
    value {
      tensor {
        dtype: DT_FLOAT
        tensor_shape {
        }
        float_val: 0.10000000149011612
      }
    }
  }
}
node {
  name: "train_network/batch_norm/AssignMovingAvg_1/sub"
  op: "Sub"
  input: "train_network/batch_norm/moving_variance/read"
  input: "train_network/batch_norm/FusedBatchNorm:2"
  attr {
    key: "T"
    value {
      type: DT_FLOAT
    }
  }
  attr {
    key: "_class"
    value {
      list {
        s: "loc:@train_network/batch_norm/moving_variance"
      }
    }
  }
}
node {
  name: "train_network/batch_norm/AssignMovingAvg_1/mul"
  op: "Mul"
  input: "train_network/batch_norm/AssignMovingAvg_1/sub"
  input: "train_network/batch_norm/AssignMovingAvg_1/decay"
  attr {
    key: "T"
    value {
      type: DT_FLOAT
    }
  }
  attr {
    key: "_class"
    value {
      list {
        s: "loc:@train_network/batch_norm/moving_variance"
      }
    }
  }
}
node {
  name: "train_network/batch_norm/AssignMovingAvg_1"
  op: "AssignSub"
  input: "train_network/batch_norm/moving_variance"
  input: "train_network/batch_norm/AssignMovingAvg_1/mul"
  attr {
    key: "T"
    value {
      type: DT_FLOAT
    }
  }
  attr {
    key: "_class"
    value {
      list {
        s: "loc:@train_network/batch_norm/moving_variance"
      }
    }
  }
  attr {
    key: "use_locking"
    value {
      b: false
    }
  }
}
node {
  name: "train_network/batch_norm/Identity"
  op: "Identity"
  input: "train_network/batch_norm/FusedBatchNorm"
  input: "^train_network/batch_norm/AssignMovingAvg"
  input: "^train_network/batch_norm/AssignMovingAvg_1"
  attr {
    key: "T"
    value {
      type: DT_FLOAT
    }
  }
}
node {
  name: "train_network/Relu"
  op: "Relu"
  input: "train_network/batch_norm/Identity"
  attr {
    key: "T"
    value {
      type: DT_FLOAT
    }
  }
}
node {
  name: "train_network/Mean/reduction_indices"
  op: "Const"
  attr {
    key: "dtype"
    value {
      type: DT_INT32
    }
  }
  attr {
    key: "value"
    value {
      tensor {
        dtype: DT_INT32
        tensor_shape {
          dim {
            size: 2
          }
        }
        tensor_content: "\001\000\000\000\002\000\000\000"
      }
    }
  }
}
node {
  name: "train_network/Mean"
  op: "Mean"
  input: "train_network/Relu"
  input: "train_network/Mean/reduction_indices"
  attr {
    key: "T"
    value {
      type: DT_FLOAT
    }
  }
  attr {
    key: "Tidx"
    value {
      type: DT_INT32
    }
  }
  attr {
    key: "keep_dims"
    value {
      b: true
    }
  }
}
node {
  name: "train_network/logit/flatten/Shape"
  op: "Const"
  attr {
    key: "dtype"
    value {
      type: DT_INT32
    }
  }
  attr {
    key: "value"
    value {
      tensor {
        dtype: DT_INT32
        tensor_shape {
          dim {
            size: 4
          }
        }
        tensor_content: "\000\001\000\000\001\000\000\000\001\000\000\000\000\001\000\000"
      }
    }
  }
}
node {
  name: "train_network/logit/flatten/strided_slice/stack"
  op: "Const"
  attr {
    key: "dtype"
    value {
      type: DT_INT32
    }
  }
  attr {
    key: "value"
    value {
      tensor {
        dtype: DT_INT32
        tensor_shape {
          dim {
            size: 1
          }
        }
        int_val: 0
      }
    }
  }
}
node {
  name: "train_network/logit/flatten/strided_slice/stack_1"
  op: "Const"
  attr {
    key: "dtype"
    value {
      type: DT_INT32
    }
  }
  attr {
    key: "value"
    value {
      tensor {
        dtype: DT_INT32
        tensor_shape {
          dim {
            size: 1
          }
        }
        int_val: 1
      }
    }
  }
}
node {
  name: "train_network/logit/flatten/strided_slice/stack_2"
  op: "Const"
  attr {
    key: "dtype"
    value {
      type: DT_INT32
    }
  }
  attr {
    key: "value"
    value {
      tensor {
        dtype: DT_INT32
        tensor_shape {
          dim {
            size: 1
          }
        }
        int_val: 1
      }
    }
  }
}
node {
  name: "train_network/logit/flatten/strided_slice"
  op: "StridedSlice"
  input: "train_network/logit/flatten/Shape"
  input: "train_network/logit/flatten/strided_slice/stack"
  input: "train_network/logit/flatten/strided_slice/stack_1"
  input: "train_network/logit/flatten/strided_slice/stack_2"
  attr {
    key: "Index"
    value {
      type: DT_INT32
    }
  }
  attr {
    key: "T"
    value {
      type: DT_INT32
    }
  }
  attr {
    key: "begin_mask"
    value {
      i: 0
    }
  }
  attr {
    key: "ellipsis_mask"
    value {
      i: 0
    }
  }
  attr {
    key: "end_mask"
    value {
      i: 0
    }
  }
  attr {
    key: "new_axis_mask"
    value {
      i: 0
    }
  }
  attr {
    key: "shrink_axis_mask"
    value {
      i: 1
    }
  }
}
node {
  name: "train_network/logit/flatten/Reshape/shape/1"
  op: "Const"
  attr {
    key: "dtype"
    value {
      type: DT_INT32
    }
  }
  attr {
    key: "value"
    value {
      tensor {
        dtype: DT_INT32
        tensor_shape {
        }
        int_val: -1
      }
    }
  }
}
node {
  name: "train_network/logit/flatten/Reshape/shape"
  op: "Pack"
  input: "train_network/logit/flatten/strided_slice"
  input: "train_network/logit/flatten/Reshape/shape/1"
  attr {
    key: "N"
    value {
      i: 2
    }
  }
  attr {
    key: "T"
    value {
      type: DT_INT32
    }
  }
  attr {
    key: "axis"
    value {
      i: 0
    }
  }
}
node {
  name: "train_network/logit/flatten/Reshape"
  op: "Reshape"
  input: "train_network/Mean"
  input: "train_network/logit/flatten/Reshape/shape"
  attr {
    key: "T"
    value {
      type: DT_FLOAT
    }
  }
  attr {
    key: "Tshape"
    value {
      type: DT_INT32
    }
  }
}
node {
  name: "train_network/logit/dense/kernel/Initializer/truncated_normal/shape"
  op: "Const"
  attr {
    key: "_class"
    value {
      list {
        s: "loc:@train_network/logit/dense/kernel"
      }
    }
  }
  attr {
    key: "dtype"
    value {
      type: DT_INT32
    }
  }
  attr {
    key: "value"
    value {
      tensor {
        dtype: DT_INT32
        tensor_shape {
          dim {
            size: 2
          }
        }
        tensor_content: "\000\001\000\000\n\000\000\000"
      }
    }
  }
}
node {
  name: "train_network/logit/dense/kernel/Initializer/truncated_normal/mean"
  op: "Const"
  attr {
    key: "_class"
    value {
      list {
        s: "loc:@train_network/logit/dense/kernel"
      }
    }
  }
  attr {
    key: "dtype"
    value {
      type: DT_FLOAT
    }
  }
  attr {
    key: "value"
    value {
      tensor {
        dtype: DT_FLOAT
        tensor_shape {
        }
        float_val: 0.0
      }
    }
  }
}
node {
  name: "train_network/logit/dense/kernel/Initializer/truncated_normal/stddev"
  op: "Const"
  attr {
    key: "_class"
    value {
      list {
        s: "loc:@train_network/logit/dense/kernel"
      }
    }
  }
  attr {
    key: "dtype"
    value {
      type: DT_FLOAT
    }
  }
  attr {
    key: "value"
    value {
      tensor {
        dtype: DT_FLOAT
        tensor_shape {
        }
        float_val: 0.10077822208404541
      }
    }
  }
}
node {
  name: "train_network/logit/dense/kernel/Initializer/truncated_normal/TruncatedNormal"
  op: "TruncatedNormal"
  input: "train_network/logit/dense/kernel/Initializer/truncated_normal/shape"
  attr {
    key: "T"
    value {
      type: DT_INT32
    }
  }
  attr {
    key: "_class"
    value {
      list {
        s: "loc:@train_network/logit/dense/kernel"
      }
    }
  }
  attr {
    key: "dtype"
    value {
      type: DT_FLOAT
    }
  }
  attr {
    key: "seed"
    value {
      i: 0
    }
  }
  attr {
    key: "seed2"
    value {
      i: 0
    }
  }
}
node {
  name: "train_network/logit/dense/kernel/Initializer/truncated_normal/mul"
  op: "Mul"
  input: "train_network/logit/dense/kernel/Initializer/truncated_normal/TruncatedNormal"
  input: "train_network/logit/dense/kernel/Initializer/truncated_normal/stddev"
  attr {
    key: "T"
    value {
      type: DT_FLOAT
    }
  }
  attr {
    key: "_class"
    value {
      list {
        s: "loc:@train_network/logit/dense/kernel"
      }
    }
  }
}
node {
  name: "train_network/logit/dense/kernel/Initializer/truncated_normal"
  op: "Add"
  input: "train_network/logit/dense/kernel/Initializer/truncated_normal/mul"
  input: "train_network/logit/dense/kernel/Initializer/truncated_normal/mean"
  attr {
    key: "T"
    value {
      type: DT_FLOAT
    }
  }
  attr {
    key: "_class"
    value {
      list {
        s: "loc:@train_network/logit/dense/kernel"
      }
    }
  }
}
node {
  name: "train_network/logit/dense/kernel"
  op: "VariableV2"
  attr {
    key: "_class"
    value {
      list {
        s: "loc:@train_network/logit/dense/kernel"
      }
    }
  }
  attr {
    key: "container"
    value {
      s: ""
    }
  }
  attr {
    key: "dtype"
    value {
      type: DT_FLOAT
    }
  }
  attr {
    key: "shape"
    value {
      shape {
        dim {
          size: 256
        }
        dim {
          size: 10
        }
      }
    }
  }
  attr {
    key: "shared_name"
    value {
      s: ""
    }
  }
}
node {
  name: "train_network/logit/dense/kernel/Assign"
  op: "Assign"
  input: "train_network/logit/dense/kernel"
  input: "train_network/logit/dense/kernel/Initializer/truncated_normal"
  attr {
    key: "T"
    value {
      type: DT_FLOAT
    }
  }
  attr {
    key: "_class"
    value {
      list {
        s: "loc:@train_network/logit/dense/kernel"
      }
    }
  }
  attr {
    key: "use_locking"
    value {
      b: true
    }
  }
  attr {
    key: "validate_shape"
    value {
      b: true
    }
  }
}
node {
  name: "train_network/logit/dense/kernel/read"
  op: "Identity"
  input: "train_network/logit/dense/kernel"
  attr {
    key: "T"
    value {
      type: DT_FLOAT
    }
  }
  attr {
    key: "_class"
    value {
      list {
        s: "loc:@train_network/logit/dense/kernel"
      }
    }
  }
}
node {
  name: "train_network/logit/dense/kernel/Regularizer/l2_regularizer/scale"
  op: "Const"
  attr {
    key: "_class"
    value {
      list {
        s: "loc:@train_network/logit/dense/kernel"
      }
    }
  }
  attr {
    key: "dtype"
    value {
      type: DT_FLOAT
    }
  }
  attr {
    key: "value"
    value {
      tensor {
        dtype: DT_FLOAT
        tensor_shape {
        }
        float_val: 9.999999747378752e-05
      }
    }
  }
}
node {
  name: "train_network/logit/dense/kernel/Regularizer/l2_regularizer/L2Loss"
  op: "L2Loss"
  input: "train_network/logit/dense/kernel/read"
  attr {
    key: "T"
    value {
      type: DT_FLOAT
    }
  }
  attr {
    key: "_class"
    value {
      list {
        s: "loc:@train_network/logit/dense/kernel"
      }
    }
  }
}
node {
  name: "train_network/logit/dense/kernel/Regularizer/l2_regularizer"
  op: "Mul"
  input: "train_network/logit/dense/kernel/Regularizer/l2_regularizer/scale"
  input: "train_network/logit/dense/kernel/Regularizer/l2_regularizer/L2Loss"
  attr {
    key: "T"
    value {
      type: DT_FLOAT
    }
  }
  attr {
    key: "_class"
    value {
      list {
        s: "loc:@train_network/logit/dense/kernel"
      }
    }
  }
}
node {
  name: "train_network/logit/dense/bias/Initializer/zeros"
  op: "Const"
  attr {
    key: "_class"
    value {
      list {
        s: "loc:@train_network/logit/dense/bias"
      }
    }
  }
  attr {
    key: "dtype"
    value {
      type: DT_FLOAT
    }
  }
  attr {
    key: "value"
    value {
      tensor {
        dtype: DT_FLOAT
        tensor_shape {
          dim {
            size: 10
          }
        }
        float_val: 0.0
      }
    }
  }
}
node {
  name: "train_network/logit/dense/bias"
  op: "VariableV2"
  attr {
    key: "_class"
    value {
      list {
        s: "loc:@train_network/logit/dense/bias"
      }
    }
  }
  attr {
    key: "container"
    value {
      s: ""
    }
  }
  attr {
    key: "dtype"
    value {
      type: DT_FLOAT
    }
  }
  attr {
    key: "shape"
    value {
      shape {
        dim {
          size: 10
        }
      }
    }
  }
  attr {
    key: "shared_name"
    value {
      s: ""
    }
  }
}
node {
  name: "train_network/logit/dense/bias/Assign"
  op: "Assign"
  input: "train_network/logit/dense/bias"
  input: "train_network/logit/dense/bias/Initializer/zeros"
  attr {
    key: "T"
    value {
      type: DT_FLOAT
    }
  }
  attr {
    key: "_class"
    value {
      list {
        s: "loc:@train_network/logit/dense/bias"
      }
    }
  }
  attr {
    key: "use_locking"
    value {
      b: true
    }
  }
  attr {
    key: "validate_shape"
    value {
      b: true
    }
  }
}
node {
  name: "train_network/logit/dense/bias/read"
  op: "Identity"
  input: "train_network/logit/dense/bias"
  attr {
    key: "T"
    value {
      type: DT_FLOAT
    }
  }
  attr {
    key: "_class"
    value {
      list {
        s: "loc:@train_network/logit/dense/bias"
      }
    }
  }
}
node {
  name: "train_network/logit/dense/MatMul"
  op: "MatMul"
  input: "train_network/logit/flatten/Reshape"
  input: "train_network/logit/dense/kernel/read"
  attr {
    key: "T"
    value {
      type: DT_FLOAT
    }
  }
  attr {
    key: "transpose_a"
    value {
      b: false
    }
  }
  attr {
    key: "transpose_b"
    value {
      b: false
    }
  }
}
node {
  name: "train_network/logit/dense/BiasAdd"
  op: "BiasAdd"
  input: "train_network/logit/dense/MatMul"
  input: "train_network/logit/dense/bias/read"
  attr {
    key: "T"
    value {
      type: DT_FLOAT
    }
  }
  attr {
    key: "data_format"
    value {
      s: "NHWC"
    }
  }
}
node {
  name: "init"
  op: "NoOp"
  input: "^train_network/batch_norm/beta/Assign"
  input: "^train_network/batch_norm/gamma/Assign"
  input: "^train_network/batch_norm/moving_mean/Assign"
  input: "^train_network/batch_norm/moving_variance/Assign"
  input: "^train_network/conv/conv2d/bias/Assign"
  input: "^train_network/conv/conv2d/kernel/Assign"
  input: "^train_network/logit/dense/bias/Assign"
  input: "^train_network/logit/dense/kernel/Assign"
  input: "^train_network/resblock0_0/batch_norm_0/beta/Assign"
  input: "^train_network/resblock0_0/batch_norm_0/gamma/Assign"
  input: "^train_network/resblock0_0/batch_norm_0/moving_mean/Assign"
  input: "^train_network/resblock0_0/batch_norm_0/moving_variance/Assign"
  input: "^train_network/resblock0_0/batch_norm_1/beta/Assign"
  input: "^train_network/resblock0_0/batch_norm_1/gamma/Assign"
  input: "^train_network/resblock0_0/batch_norm_1/moving_mean/Assign"
  input: "^train_network/resblock0_0/batch_norm_1/moving_variance/Assign"
  input: "^train_network/resblock0_0/conv_0/conv2d/bias/Assign"
  input: "^train_network/resblock0_0/conv_0/conv2d/kernel/Assign"
  input: "^train_network/resblock0_0/conv_1/conv2d/bias/Assign"
  input: "^train_network/resblock0_0/conv_1/conv2d/kernel/Assign"
  input: "^train_network/resblock0_1/batch_norm_0/beta/Assign"
  input: "^train_network/resblock0_1/batch_norm_0/gamma/Assign"
  input: "^train_network/resblock0_1/batch_norm_0/moving_mean/Assign"
  input: "^train_network/resblock0_1/batch_norm_0/moving_variance/Assign"
  input: "^train_network/resblock0_1/batch_norm_1/beta/Assign"
  input: "^train_network/resblock0_1/batch_norm_1/gamma/Assign"
  input: "^train_network/resblock0_1/batch_norm_1/moving_mean/Assign"
  input: "^train_network/resblock0_1/batch_norm_1/moving_variance/Assign"
  input: "^train_network/resblock0_1/conv_0/conv2d/bias/Assign"
  input: "^train_network/resblock0_1/conv_0/conv2d/kernel/Assign"
  input: "^train_network/resblock0_1/conv_1/conv2d/bias/Assign"
  input: "^train_network/resblock0_1/conv_1/conv2d/kernel/Assign"
  input: "^train_network/resblock1_0/batch_norm_0/beta/Assign"
  input: "^train_network/resblock1_0/batch_norm_0/gamma/Assign"
  input: "^train_network/resblock1_0/batch_norm_0/moving_mean/Assign"
  input: "^train_network/resblock1_0/batch_norm_0/moving_variance/Assign"
  input: "^train_network/resblock1_0/batch_norm_1/beta/Assign"
  input: "^train_network/resblock1_0/batch_norm_1/gamma/Assign"
  input: "^train_network/resblock1_0/batch_norm_1/moving_mean/Assign"
  input: "^train_network/resblock1_0/batch_norm_1/moving_variance/Assign"
  input: "^train_network/resblock1_0/conv_0/conv2d/bias/Assign"
  input: "^train_network/resblock1_0/conv_0/conv2d/kernel/Assign"
  input: "^train_network/resblock1_0/conv_1/conv2d/bias/Assign"
  input: "^train_network/resblock1_0/conv_1/conv2d/kernel/Assign"
  input: "^train_network/resblock1_0/conv_init/conv2d/bias/Assign"
  input: "^train_network/resblock1_0/conv_init/conv2d/kernel/Assign"
  input: "^train_network/resblock1_1/batch_norm_0/beta/Assign"
  input: "^train_network/resblock1_1/batch_norm_0/gamma/Assign"
  input: "^train_network/resblock1_1/batch_norm_0/moving_mean/Assign"
  input: "^train_network/resblock1_1/batch_norm_0/moving_variance/Assign"
  input: "^train_network/resblock1_1/batch_norm_1/beta/Assign"
  input: "^train_network/resblock1_1/batch_norm_1/gamma/Assign"
  input: "^train_network/resblock1_1/batch_norm_1/moving_mean/Assign"
  input: "^train_network/resblock1_1/batch_norm_1/moving_variance/Assign"
  input: "^train_network/resblock1_1/conv_0/conv2d/bias/Assign"
  input: "^train_network/resblock1_1/conv_0/conv2d/kernel/Assign"
  input: "^train_network/resblock1_1/conv_1/conv2d/bias/Assign"
  input: "^train_network/resblock1_1/conv_1/conv2d/kernel/Assign"
  input: "^train_network/resblock2_0/batch_norm_0/beta/Assign"
  input: "^train_network/resblock2_0/batch_norm_0/gamma/Assign"
  input: "^train_network/resblock2_0/batch_norm_0/moving_mean/Assign"
  input: "^train_network/resblock2_0/batch_norm_0/moving_variance/Assign"
  input: "^train_network/resblock2_0/batch_norm_1/beta/Assign"
  input: "^train_network/resblock2_0/batch_norm_1/gamma/Assign"
  input: "^train_network/resblock2_0/batch_norm_1/moving_mean/Assign"
  input: "^train_network/resblock2_0/batch_norm_1/moving_variance/Assign"
  input: "^train_network/resblock2_0/conv_0/conv2d/bias/Assign"
  input: "^train_network/resblock2_0/conv_0/conv2d/kernel/Assign"
  input: "^train_network/resblock2_0/conv_1/conv2d/bias/Assign"
  input: "^train_network/resblock2_0/conv_1/conv2d/kernel/Assign"
  input: "^train_network/resblock2_0/conv_init/conv2d/bias/Assign"
  input: "^train_network/resblock2_0/conv_init/conv2d/kernel/Assign"
  input: "^train_network/resblock2_1/batch_norm_0/beta/Assign"
  input: "^train_network/resblock2_1/batch_norm_0/gamma/Assign"
  input: "^train_network/resblock2_1/batch_norm_0/moving_mean/Assign"
  input: "^train_network/resblock2_1/batch_norm_0/moving_variance/Assign"
  input: "^train_network/resblock2_1/batch_norm_1/beta/Assign"
  input: "^train_network/resblock2_1/batch_norm_1/gamma/Assign"
  input: "^train_network/resblock2_1/batch_norm_1/moving_mean/Assign"
  input: "^train_network/resblock2_1/batch_norm_1/moving_variance/Assign"
  input: "^train_network/resblock2_1/conv_0/conv2d/bias/Assign"
  input: "^train_network/resblock2_1/conv_0/conv2d/kernel/Assign"
  input: "^train_network/resblock2_1/conv_1/conv2d/bias/Assign"
  input: "^train_network/resblock2_1/conv_1/conv2d/kernel/Assign"
  input: "^train_network/resblock_3_0/batch_norm_0/beta/Assign"
  input: "^train_network/resblock_3_0/batch_norm_0/gamma/Assign"
  input: "^train_network/resblock_3_0/batch_norm_0/moving_mean/Assign"
  input: "^train_network/resblock_3_0/batch_norm_0/moving_variance/Assign"
  input: "^train_network/resblock_3_0/batch_norm_1/beta/Assign"
  input: "^train_network/resblock_3_0/batch_norm_1/gamma/Assign"
  input: "^train_network/resblock_3_0/batch_norm_1/moving_mean/Assign"
  input: "^train_network/resblock_3_0/batch_norm_1/moving_variance/Assign"
  input: "^train_network/resblock_3_0/conv_0/conv2d/bias/Assign"
  input: "^train_network/resblock_3_0/conv_0/conv2d/kernel/Assign"
  input: "^train_network/resblock_3_0/conv_1/conv2d/bias/Assign"
  input: "^train_network/resblock_3_0/conv_1/conv2d/kernel/Assign"
  input: "^train_network/resblock_3_0/conv_init/conv2d/bias/Assign"
  input: "^train_network/resblock_3_0/conv_init/conv2d/kernel/Assign"
  input: "^train_network/resblock_3_1/batch_norm_0/beta/Assign"
  input: "^train_network/resblock_3_1/batch_norm_0/gamma/Assign"
  input: "^train_network/resblock_3_1/batch_norm_0/moving_mean/Assign"
  input: "^train_network/resblock_3_1/batch_norm_0/moving_variance/Assign"
  input: "^train_network/resblock_3_1/batch_norm_1/beta/Assign"
  input: "^train_network/resblock_3_1/batch_norm_1/gamma/Assign"
  input: "^train_network/resblock_3_1/batch_norm_1/moving_mean/Assign"
  input: "^train_network/resblock_3_1/batch_norm_1/moving_variance/Assign"
  input: "^train_network/resblock_3_1/conv_0/conv2d/bias/Assign"
  input: "^train_network/resblock_3_1/conv_0/conv2d/kernel/Assign"
  input: "^train_network/resblock_3_1/conv_1/conv2d/bias/Assign"
  input: "^train_network/resblock_3_1/conv_1/conv2d/kernel/Assign"
}
versions {
  producer: 26
}
