node {
  name: "train_inputs"
  op: "Placeholder"
  attr {
    key: "dtype"
    value {
      type: DT_FLOAT
    }
  }
  attr {
    key: "shape"
    value {
      shape {
        dim {
          size: 256
        }
        dim {
          size: 28
        }
        dim {
          size: 28
        }
        dim {
          size: 1
        }
      }
    }
  }
}
node {
  name: "train_network/init_block/conv_bn_relu/Conv/weights/Initializer/random_uniform/shape"
  op: "Const"
  attr {
    key: "_class"
    value {
      list {
        s: "loc:@train_network/init_block/conv_bn_relu/Conv/weights"
      }
    }
  }
  attr {
    key: "dtype"
    value {
      type: DT_INT32
    }
  }
  attr {
    key: "value"
    value {
      tensor {
        dtype: DT_INT32
        tensor_shape {
          dim {
            size: 4
          }
        }
        tensor_content: "\003\000\000\000\003\000\000\000\001\000\000\000\030\000\000\000"
      }
    }
  }
}
node {
  name: "train_network/init_block/conv_bn_relu/Conv/weights/Initializer/random_uniform/min"
  op: "Const"
  attr {
    key: "_class"
    value {
      list {
        s: "loc:@train_network/init_block/conv_bn_relu/Conv/weights"
      }
    }
  }
  attr {
    key: "dtype"
    value {
      type: DT_FLOAT
    }
  }
  attr {
    key: "value"
    value {
      tensor {
        dtype: DT_FLOAT
        tensor_shape {
        }
        float_val: -0.1632993221282959
      }
    }
  }
}
node {
  name: "train_network/init_block/conv_bn_relu/Conv/weights/Initializer/random_uniform/max"
  op: "Const"
  attr {
    key: "_class"
    value {
      list {
        s: "loc:@train_network/init_block/conv_bn_relu/Conv/weights"
      }
    }
  }
  attr {
    key: "dtype"
    value {
      type: DT_FLOAT
    }
  }
  attr {
    key: "value"
    value {
      tensor {
        dtype: DT_FLOAT
        tensor_shape {
        }
        float_val: 0.1632993221282959
      }
    }
  }
}
node {
  name: "train_network/init_block/conv_bn_relu/Conv/weights/Initializer/random_uniform/RandomUniform"
  op: "RandomUniform"
  input: "train_network/init_block/conv_bn_relu/Conv/weights/Initializer/random_uniform/shape"
  attr {
    key: "T"
    value {
      type: DT_INT32
    }
  }
  attr {
    key: "_class"
    value {
      list {
        s: "loc:@train_network/init_block/conv_bn_relu/Conv/weights"
      }
    }
  }
  attr {
    key: "dtype"
    value {
      type: DT_FLOAT
    }
  }
  attr {
    key: "seed"
    value {
      i: 0
    }
  }
  attr {
    key: "seed2"
    value {
      i: 0
    }
  }
}
node {
  name: "train_network/init_block/conv_bn_relu/Conv/weights/Initializer/random_uniform/sub"
  op: "Sub"
  input: "train_network/init_block/conv_bn_relu/Conv/weights/Initializer/random_uniform/max"
  input: "train_network/init_block/conv_bn_relu/Conv/weights/Initializer/random_uniform/min"
  attr {
    key: "T"
    value {
      type: DT_FLOAT
    }
  }
  attr {
    key: "_class"
    value {
      list {
        s: "loc:@train_network/init_block/conv_bn_relu/Conv/weights"
      }
    }
  }
}
node {
  name: "train_network/init_block/conv_bn_relu/Conv/weights/Initializer/random_uniform/mul"
  op: "Mul"
  input: "train_network/init_block/conv_bn_relu/Conv/weights/Initializer/random_uniform/RandomUniform"
  input: "train_network/init_block/conv_bn_relu/Conv/weights/Initializer/random_uniform/sub"
  attr {
    key: "T"
    value {
      type: DT_FLOAT
    }
  }
  attr {
    key: "_class"
    value {
      list {
        s: "loc:@train_network/init_block/conv_bn_relu/Conv/weights"
      }
    }
  }
}
node {
  name: "train_network/init_block/conv_bn_relu/Conv/weights/Initializer/random_uniform"
  op: "Add"
  input: "train_network/init_block/conv_bn_relu/Conv/weights/Initializer/random_uniform/mul"
  input: "train_network/init_block/conv_bn_relu/Conv/weights/Initializer/random_uniform/min"
  attr {
    key: "T"
    value {
      type: DT_FLOAT
    }
  }
  attr {
    key: "_class"
    value {
      list {
        s: "loc:@train_network/init_block/conv_bn_relu/Conv/weights"
      }
    }
  }
}
node {
  name: "train_network/init_block/conv_bn_relu/Conv/weights"
  op: "VariableV2"
  attr {
    key: "_class"
    value {
      list {
        s: "loc:@train_network/init_block/conv_bn_relu/Conv/weights"
      }
    }
  }
  attr {
    key: "container"
    value {
      s: ""
    }
  }
  attr {
    key: "dtype"
    value {
      type: DT_FLOAT
    }
  }
  attr {
    key: "shape"
    value {
      shape {
        dim {
          size: 3
        }
        dim {
          size: 3
        }
        dim {
          size: 1
        }
        dim {
          size: 24
        }
      }
    }
  }
  attr {
    key: "shared_name"
    value {
      s: ""
    }
  }
}
node {
  name: "train_network/init_block/conv_bn_relu/Conv/weights/Assign"
  op: "Assign"
  input: "train_network/init_block/conv_bn_relu/Conv/weights"
  input: "train_network/init_block/conv_bn_relu/Conv/weights/Initializer/random_uniform"
  attr {
    key: "T"
    value {
      type: DT_FLOAT
    }
  }
  attr {
    key: "_class"
    value {
      list {
        s: "loc:@train_network/init_block/conv_bn_relu/Conv/weights"
      }
    }
  }
  attr {
    key: "use_locking"
    value {
      b: true
    }
  }
  attr {
    key: "validate_shape"
    value {
      b: true
    }
  }
}
node {
  name: "train_network/init_block/conv_bn_relu/Conv/weights/read"
  op: "Identity"
  input: "train_network/init_block/conv_bn_relu/Conv/weights"
  attr {
    key: "T"
    value {
      type: DT_FLOAT
    }
  }
  attr {
    key: "_class"
    value {
      list {
        s: "loc:@train_network/init_block/conv_bn_relu/Conv/weights"
      }
    }
  }
}
node {
  name: "train_network/init_block/conv_bn_relu/Conv/dilation_rate"
  op: "Const"
  attr {
    key: "dtype"
    value {
      type: DT_INT32
    }
  }
  attr {
    key: "value"
    value {
      tensor {
        dtype: DT_INT32
        tensor_shape {
          dim {
            size: 2
          }
        }
        tensor_content: "\001\000\000\000\001\000\000\000"
      }
    }
  }
}
node {
  name: "train_network/init_block/conv_bn_relu/Conv/Conv2D"
  op: "Conv2D"
  input: "train_inputs"
  input: "train_network/init_block/conv_bn_relu/Conv/weights/read"
  attr {
    key: "T"
    value {
      type: DT_FLOAT
    }
  }
  attr {
    key: "data_format"
    value {
      s: "NHWC"
    }
  }
  attr {
    key: "dilations"
    value {
      list {
        i: 1
        i: 1
        i: 1
        i: 1
      }
    }
  }
  attr {
    key: "padding"
    value {
      s: "SAME"
    }
  }
  attr {
    key: "strides"
    value {
      list {
        i: 1
        i: 2
        i: 2
        i: 1
      }
    }
  }
  attr {
    key: "use_cudnn_on_gpu"
    value {
      b: true
    }
  }
}
node {
  name: "train_network/init_block/conv_bn_relu/BatchNorm/beta/Initializer/zeros"
  op: "Const"
  attr {
    key: "_class"
    value {
      list {
        s: "loc:@train_network/init_block/conv_bn_relu/BatchNorm/beta"
      }
    }
  }
  attr {
    key: "dtype"
    value {
      type: DT_FLOAT
    }
  }
  attr {
    key: "value"
    value {
      tensor {
        dtype: DT_FLOAT
        tensor_shape {
          dim {
            size: 24
          }
        }
        float_val: 0.0
      }
    }
  }
}
node {
  name: "train_network/init_block/conv_bn_relu/BatchNorm/beta"
  op: "VariableV2"
  attr {
    key: "_class"
    value {
      list {
        s: "loc:@train_network/init_block/conv_bn_relu/BatchNorm/beta"
      }
    }
  }
  attr {
    key: "container"
    value {
      s: ""
    }
  }
  attr {
    key: "dtype"
    value {
      type: DT_FLOAT
    }
  }
  attr {
    key: "shape"
    value {
      shape {
        dim {
          size: 24
        }
      }
    }
  }
  attr {
    key: "shared_name"
    value {
      s: ""
    }
  }
}
node {
  name: "train_network/init_block/conv_bn_relu/BatchNorm/beta/Assign"
  op: "Assign"
  input: "train_network/init_block/conv_bn_relu/BatchNorm/beta"
  input: "train_network/init_block/conv_bn_relu/BatchNorm/beta/Initializer/zeros"
  attr {
    key: "T"
    value {
      type: DT_FLOAT
    }
  }
  attr {
    key: "_class"
    value {
      list {
        s: "loc:@train_network/init_block/conv_bn_relu/BatchNorm/beta"
      }
    }
  }
  attr {
    key: "use_locking"
    value {
      b: true
    }
  }
  attr {
    key: "validate_shape"
    value {
      b: true
    }
  }
}
node {
  name: "train_network/init_block/conv_bn_relu/BatchNorm/beta/read"
  op: "Identity"
  input: "train_network/init_block/conv_bn_relu/BatchNorm/beta"
  attr {
    key: "T"
    value {
      type: DT_FLOAT
    }
  }
  attr {
    key: "_class"
    value {
      list {
        s: "loc:@train_network/init_block/conv_bn_relu/BatchNorm/beta"
      }
    }
  }
}
node {
  name: "train_network/init_block/conv_bn_relu/BatchNorm/moving_mean/Initializer/zeros"
  op: "Const"
  attr {
    key: "_class"
    value {
      list {
        s: "loc:@train_network/init_block/conv_bn_relu/BatchNorm/moving_mean"
      }
    }
  }
  attr {
    key: "dtype"
    value {
      type: DT_FLOAT
    }
  }
  attr {
    key: "value"
    value {
      tensor {
        dtype: DT_FLOAT
        tensor_shape {
          dim {
            size: 24
          }
        }
        float_val: 0.0
      }
    }
  }
}
node {
  name: "train_network/init_block/conv_bn_relu/BatchNorm/moving_mean"
  op: "VariableV2"
  attr {
    key: "_class"
    value {
      list {
        s: "loc:@train_network/init_block/conv_bn_relu/BatchNorm/moving_mean"
      }
    }
  }
  attr {
    key: "container"
    value {
      s: ""
    }
  }
  attr {
    key: "dtype"
    value {
      type: DT_FLOAT
    }
  }
  attr {
    key: "shape"
    value {
      shape {
        dim {
          size: 24
        }
      }
    }
  }
  attr {
    key: "shared_name"
    value {
      s: ""
    }
  }
}
node {
  name: "train_network/init_block/conv_bn_relu/BatchNorm/moving_mean/Assign"
  op: "Assign"
  input: "train_network/init_block/conv_bn_relu/BatchNorm/moving_mean"
  input: "train_network/init_block/conv_bn_relu/BatchNorm/moving_mean/Initializer/zeros"
  attr {
    key: "T"
    value {
      type: DT_FLOAT
    }
  }
  attr {
    key: "_class"
    value {
      list {
        s: "loc:@train_network/init_block/conv_bn_relu/BatchNorm/moving_mean"
      }
    }
  }
  attr {
    key: "use_locking"
    value {
      b: true
    }
  }
  attr {
    key: "validate_shape"
    value {
      b: true
    }
  }
}
node {
  name: "train_network/init_block/conv_bn_relu/BatchNorm/moving_mean/read"
  op: "Identity"
  input: "train_network/init_block/conv_bn_relu/BatchNorm/moving_mean"
  attr {
    key: "T"
    value {
      type: DT_FLOAT
    }
  }
  attr {
    key: "_class"
    value {
      list {
        s: "loc:@train_network/init_block/conv_bn_relu/BatchNorm/moving_mean"
      }
    }
  }
}
node {
  name: "train_network/init_block/conv_bn_relu/BatchNorm/moving_variance/Initializer/ones"
  op: "Const"
  attr {
    key: "_class"
    value {
      list {
        s: "loc:@train_network/init_block/conv_bn_relu/BatchNorm/moving_variance"
      }
    }
  }
  attr {
    key: "dtype"
    value {
      type: DT_FLOAT
    }
  }
  attr {
    key: "value"
    value {
      tensor {
        dtype: DT_FLOAT
        tensor_shape {
          dim {
            size: 24
          }
        }
        float_val: 1.0
      }
    }
  }
}
node {
  name: "train_network/init_block/conv_bn_relu/BatchNorm/moving_variance"
  op: "VariableV2"
  attr {
    key: "_class"
    value {
      list {
        s: "loc:@train_network/init_block/conv_bn_relu/BatchNorm/moving_variance"
      }
    }
  }
  attr {
    key: "container"
    value {
      s: ""
    }
  }
  attr {
    key: "dtype"
    value {
      type: DT_FLOAT
    }
  }
  attr {
    key: "shape"
    value {
      shape {
        dim {
          size: 24
        }
      }
    }
  }
  attr {
    key: "shared_name"
    value {
      s: ""
    }
  }
}
node {
  name: "train_network/init_block/conv_bn_relu/BatchNorm/moving_variance/Assign"
  op: "Assign"
  input: "train_network/init_block/conv_bn_relu/BatchNorm/moving_variance"
  input: "train_network/init_block/conv_bn_relu/BatchNorm/moving_variance/Initializer/ones"
  attr {
    key: "T"
    value {
      type: DT_FLOAT
    }
  }
  attr {
    key: "_class"
    value {
      list {
        s: "loc:@train_network/init_block/conv_bn_relu/BatchNorm/moving_variance"
      }
    }
  }
  attr {
    key: "use_locking"
    value {
      b: true
    }
  }
  attr {
    key: "validate_shape"
    value {
      b: true
    }
  }
}
node {
  name: "train_network/init_block/conv_bn_relu/BatchNorm/moving_variance/read"
  op: "Identity"
  input: "train_network/init_block/conv_bn_relu/BatchNorm/moving_variance"
  attr {
    key: "T"
    value {
      type: DT_FLOAT
    }
  }
  attr {
    key: "_class"
    value {
      list {
        s: "loc:@train_network/init_block/conv_bn_relu/BatchNorm/moving_variance"
      }
    }
  }
}
node {
  name: "train_network/init_block/conv_bn_relu/BatchNorm/moments/mean/reduction_indices"
  op: "Const"
  attr {
    key: "dtype"
    value {
      type: DT_INT32
    }
  }
  attr {
    key: "value"
    value {
      tensor {
        dtype: DT_INT32
        tensor_shape {
          dim {
            size: 3
          }
        }
        tensor_content: "\000\000\000\000\001\000\000\000\002\000\000\000"
      }
    }
  }
}
node {
  name: "train_network/init_block/conv_bn_relu/BatchNorm/moments/mean"
  op: "Mean"
  input: "train_network/init_block/conv_bn_relu/Conv/Conv2D"
  input: "train_network/init_block/conv_bn_relu/BatchNorm/moments/mean/reduction_indices"
  attr {
    key: "T"
    value {
      type: DT_FLOAT
    }
  }
  attr {
    key: "Tidx"
    value {
      type: DT_INT32
    }
  }
  attr {
    key: "keep_dims"
    value {
      b: true
    }
  }
}
node {
  name: "train_network/init_block/conv_bn_relu/BatchNorm/moments/StopGradient"
  op: "StopGradient"
  input: "train_network/init_block/conv_bn_relu/BatchNorm/moments/mean"
  attr {
    key: "T"
    value {
      type: DT_FLOAT
    }
  }
}
node {
  name: "train_network/init_block/conv_bn_relu/BatchNorm/moments/SquaredDifference"
  op: "SquaredDifference"
  input: "train_network/init_block/conv_bn_relu/Conv/Conv2D"
  input: "train_network/init_block/conv_bn_relu/BatchNorm/moments/StopGradient"
  attr {
    key: "T"
    value {
      type: DT_FLOAT
    }
  }
}
node {
  name: "train_network/init_block/conv_bn_relu/BatchNorm/moments/variance/reduction_indices"
  op: "Const"
  attr {
    key: "dtype"
    value {
      type: DT_INT32
    }
  }
  attr {
    key: "value"
    value {
      tensor {
        dtype: DT_INT32
        tensor_shape {
          dim {
            size: 3
          }
        }
        tensor_content: "\000\000\000\000\001\000\000\000\002\000\000\000"
      }
    }
  }
}
node {
  name: "train_network/init_block/conv_bn_relu/BatchNorm/moments/variance"
  op: "Mean"
  input: "train_network/init_block/conv_bn_relu/BatchNorm/moments/SquaredDifference"
  input: "train_network/init_block/conv_bn_relu/BatchNorm/moments/variance/reduction_indices"
  attr {
    key: "T"
    value {
      type: DT_FLOAT
    }
  }
  attr {
    key: "Tidx"
    value {
      type: DT_INT32
    }
  }
  attr {
    key: "keep_dims"
    value {
      b: true
    }
  }
}
node {
  name: "train_network/init_block/conv_bn_relu/BatchNorm/moments/Squeeze"
  op: "Squeeze"
  input: "train_network/init_block/conv_bn_relu/BatchNorm/moments/mean"
  attr {
    key: "T"
    value {
      type: DT_FLOAT
    }
  }
  attr {
    key: "squeeze_dims"
    value {
      list {
        i: 0
        i: 1
        i: 2
      }
    }
  }
}
node {
  name: "train_network/init_block/conv_bn_relu/BatchNorm/moments/Squeeze_1"
  op: "Squeeze"
  input: "train_network/init_block/conv_bn_relu/BatchNorm/moments/variance"
  attr {
    key: "T"
    value {
      type: DT_FLOAT
    }
  }
  attr {
    key: "squeeze_dims"
    value {
      list {
        i: 0
        i: 1
        i: 2
      }
    }
  }
}
node {
  name: "train_network/init_block/conv_bn_relu/BatchNorm/AssignMovingAvg/decay"
  op: "Const"
  attr {
    key: "dtype"
    value {
      type: DT_FLOAT
    }
  }
  attr {
    key: "value"
    value {
      tensor {
        dtype: DT_FLOAT
        tensor_shape {
        }
        float_val: 0.0010000000474974513
      }
    }
  }
}
node {
  name: "train_network/init_block/conv_bn_relu/BatchNorm/AssignMovingAvg/sub"
  op: "Sub"
  input: "train_network/init_block/conv_bn_relu/BatchNorm/moving_mean/read"
  input: "train_network/init_block/conv_bn_relu/BatchNorm/moments/Squeeze"
  attr {
    key: "T"
    value {
      type: DT_FLOAT
    }
  }
}
node {
  name: "train_network/init_block/conv_bn_relu/BatchNorm/AssignMovingAvg/mul"
  op: "Mul"
  input: "train_network/init_block/conv_bn_relu/BatchNorm/AssignMovingAvg/sub"
  input: "train_network/init_block/conv_bn_relu/BatchNorm/AssignMovingAvg/decay"
  attr {
    key: "T"
    value {
      type: DT_FLOAT
    }
  }
}
node {
  name: "train_network/init_block/conv_bn_relu/BatchNorm/AssignMovingAvg"
  op: "AssignSub"
  input: "train_network/init_block/conv_bn_relu/BatchNorm/moving_mean"
  input: "train_network/init_block/conv_bn_relu/BatchNorm/AssignMovingAvg/mul"
  attr {
    key: "T"
    value {
      type: DT_FLOAT
    }
  }
  attr {
    key: "_class"
    value {
      list {
        s: "loc:@train_network/init_block/conv_bn_relu/BatchNorm/moving_mean"
      }
    }
  }
  attr {
    key: "use_locking"
    value {
      b: false
    }
  }
}
node {
  name: "train_network/init_block/conv_bn_relu/BatchNorm/AssignMovingAvg_1/decay"
  op: "Const"
  attr {
    key: "dtype"
    value {
      type: DT_FLOAT
    }
  }
  attr {
    key: "value"
    value {
      tensor {
        dtype: DT_FLOAT
        tensor_shape {
        }
        float_val: 0.0010000000474974513
      }
    }
  }
}
node {
  name: "train_network/init_block/conv_bn_relu/BatchNorm/AssignMovingAvg_1/sub"
  op: "Sub"
  input: "train_network/init_block/conv_bn_relu/BatchNorm/moving_variance/read"
  input: "train_network/init_block/conv_bn_relu/BatchNorm/moments/Squeeze_1"
  attr {
    key: "T"
    value {
      type: DT_FLOAT
    }
  }
}
node {
  name: "train_network/init_block/conv_bn_relu/BatchNorm/AssignMovingAvg_1/mul"
  op: "Mul"
  input: "train_network/init_block/conv_bn_relu/BatchNorm/AssignMovingAvg_1/sub"
  input: "train_network/init_block/conv_bn_relu/BatchNorm/AssignMovingAvg_1/decay"
  attr {
    key: "T"
    value {
      type: DT_FLOAT
    }
  }
}
node {
  name: "train_network/init_block/conv_bn_relu/BatchNorm/AssignMovingAvg_1"
  op: "AssignSub"
  input: "train_network/init_block/conv_bn_relu/BatchNorm/moving_variance"
  input: "train_network/init_block/conv_bn_relu/BatchNorm/AssignMovingAvg_1/mul"
  attr {
    key: "T"
    value {
      type: DT_FLOAT
    }
  }
  attr {
    key: "_class"
    value {
      list {
        s: "loc:@train_network/init_block/conv_bn_relu/BatchNorm/moving_variance"
      }
    }
  }
  attr {
    key: "use_locking"
    value {
      b: false
    }
  }
}
node {
  name: "train_network/init_block/conv_bn_relu/BatchNorm/batchnorm/add/y"
  op: "Const"
  attr {
    key: "dtype"
    value {
      type: DT_FLOAT
    }
  }
  attr {
    key: "value"
    value {
      tensor {
        dtype: DT_FLOAT
        tensor_shape {
        }
        float_val: 0.0010000000474974513
      }
    }
  }
}
node {
  name: "train_network/init_block/conv_bn_relu/BatchNorm/batchnorm/add"
  op: "Add"
  input: "train_network/init_block/conv_bn_relu/BatchNorm/moments/Squeeze_1"
  input: "train_network/init_block/conv_bn_relu/BatchNorm/batchnorm/add/y"
  attr {
    key: "T"
    value {
      type: DT_FLOAT
    }
  }
}
node {
  name: "train_network/init_block/conv_bn_relu/BatchNorm/batchnorm/Rsqrt"
  op: "Rsqrt"
  input: "train_network/init_block/conv_bn_relu/BatchNorm/batchnorm/add"
  attr {
    key: "T"
    value {
      type: DT_FLOAT
    }
  }
}
node {
  name: "train_network/init_block/conv_bn_relu/BatchNorm/batchnorm/mul"
  op: "Mul"
  input: "train_network/init_block/conv_bn_relu/Conv/Conv2D"
  input: "train_network/init_block/conv_bn_relu/BatchNorm/batchnorm/Rsqrt"
  attr {
    key: "T"
    value {
      type: DT_FLOAT
    }
  }
}
node {
  name: "train_network/init_block/conv_bn_relu/BatchNorm/batchnorm/mul_1"
  op: "Mul"
  input: "train_network/init_block/conv_bn_relu/BatchNorm/moments/Squeeze"
  input: "train_network/init_block/conv_bn_relu/BatchNorm/batchnorm/Rsqrt"
  attr {
    key: "T"
    value {
      type: DT_FLOAT
    }
  }
}
node {
  name: "train_network/init_block/conv_bn_relu/BatchNorm/batchnorm/sub"
  op: "Sub"
  input: "train_network/init_block/conv_bn_relu/BatchNorm/beta/read"
  input: "train_network/init_block/conv_bn_relu/BatchNorm/batchnorm/mul_1"
  attr {
    key: "T"
    value {
      type: DT_FLOAT
    }
  }
}
node {
  name: "train_network/init_block/conv_bn_relu/BatchNorm/batchnorm/add_1"
  op: "Add"
  input: "train_network/init_block/conv_bn_relu/BatchNorm/batchnorm/mul"
  input: "train_network/init_block/conv_bn_relu/BatchNorm/batchnorm/sub"
  attr {
    key: "T"
    value {
      type: DT_FLOAT
    }
  }
}
node {
  name: "train_network/init_block/conv_bn_relu/BatchNorm/Relu"
  op: "Relu"
  input: "train_network/init_block/conv_bn_relu/BatchNorm/batchnorm/add_1"
  attr {
    key: "T"
    value {
      type: DT_FLOAT
    }
  }
}
node {
  name: "train_network/init_block/MaxPool2D/MaxPool"
  op: "MaxPool"
  input: "train_network/init_block/conv_bn_relu/BatchNorm/Relu"
  attr {
    key: "T"
    value {
      type: DT_FLOAT
    }
  }
  attr {
    key: "data_format"
    value {
      s: "NHWC"
    }
  }
  attr {
    key: "ksize"
    value {
      list {
        i: 1
        i: 3
        i: 3
        i: 1
      }
    }
  }
  attr {
    key: "padding"
    value {
      s: "SAME"
    }
  }
  attr {
    key: "strides"
    value {
      list {
        i: 1
        i: 2
        i: 2
        i: 1
      }
    }
  }
}
node {
  name: "train_network/shuffle_block_0/shuffle_v2_block/conv_bn_relu/Conv/weights/Initializer/random_uniform/shape"
  op: "Const"
  attr {
    key: "_class"
    value {
      list {
        s: "loc:@train_network/shuffle_block_0/shuffle_v2_block/conv_bn_relu/Conv/weights"
      }
    }
  }
  attr {
    key: "dtype"
    value {
      type: DT_INT32
    }
  }
  attr {
    key: "value"
    value {
      tensor {
        dtype: DT_INT32
        tensor_shape {
          dim {
            size: 4
          }
        }
        tensor_content: "\001\000\000\000\001\000\000\000\030\000\000\000:\000\000\000"
      }
    }
  }
}
node {
  name: "train_network/shuffle_block_0/shuffle_v2_block/conv_bn_relu/Conv/weights/Initializer/random_uniform/min"
  op: "Const"
  attr {
    key: "_class"
    value {
      list {
        s: "loc:@train_network/shuffle_block_0/shuffle_v2_block/conv_bn_relu/Conv/weights"
      }
    }
  }
  attr {
    key: "dtype"
    value {
      type: DT_FLOAT
    }
  }
  attr {
    key: "value"
    value {
      tensor {
        dtype: DT_FLOAT
        tensor_shape {
        }
        float_val: -0.27050089836120605
      }
    }
  }
}
node {
  name: "train_network/shuffle_block_0/shuffle_v2_block/conv_bn_relu/Conv/weights/Initializer/random_uniform/max"
  op: "Const"
  attr {
    key: "_class"
    value {
      list {
        s: "loc:@train_network/shuffle_block_0/shuffle_v2_block/conv_bn_relu/Conv/weights"
      }
    }
  }
  attr {
    key: "dtype"
    value {
      type: DT_FLOAT
    }
  }
  attr {
    key: "value"
    value {
      tensor {
        dtype: DT_FLOAT
        tensor_shape {
        }
        float_val: 0.27050089836120605
      }
    }
  }
}
node {
  name: "train_network/shuffle_block_0/shuffle_v2_block/conv_bn_relu/Conv/weights/Initializer/random_uniform/RandomUniform"
  op: "RandomUniform"
  input: "train_network/shuffle_block_0/shuffle_v2_block/conv_bn_relu/Conv/weights/Initializer/random_uniform/shape"
  attr {
    key: "T"
    value {
      type: DT_INT32
    }
  }
  attr {
    key: "_class"
    value {
      list {
        s: "loc:@train_network/shuffle_block_0/shuffle_v2_block/conv_bn_relu/Conv/weights"
      }
    }
  }
  attr {
    key: "dtype"
    value {
      type: DT_FLOAT
    }
  }
  attr {
    key: "seed"
    value {
      i: 0
    }
  }
  attr {
    key: "seed2"
    value {
      i: 0
    }
  }
}
node {
  name: "train_network/shuffle_block_0/shuffle_v2_block/conv_bn_relu/Conv/weights/Initializer/random_uniform/sub"
  op: "Sub"
  input: "train_network/shuffle_block_0/shuffle_v2_block/conv_bn_relu/Conv/weights/Initializer/random_uniform/max"
  input: "train_network/shuffle_block_0/shuffle_v2_block/conv_bn_relu/Conv/weights/Initializer/random_uniform/min"
  attr {
    key: "T"
    value {
      type: DT_FLOAT
    }
  }
  attr {
    key: "_class"
    value {
      list {
        s: "loc:@train_network/shuffle_block_0/shuffle_v2_block/conv_bn_relu/Conv/weights"
      }
    }
  }
}
node {
  name: "train_network/shuffle_block_0/shuffle_v2_block/conv_bn_relu/Conv/weights/Initializer/random_uniform/mul"
  op: "Mul"
  input: "train_network/shuffle_block_0/shuffle_v2_block/conv_bn_relu/Conv/weights/Initializer/random_uniform/RandomUniform"
  input: "train_network/shuffle_block_0/shuffle_v2_block/conv_bn_relu/Conv/weights/Initializer/random_uniform/sub"
  attr {
    key: "T"
    value {
      type: DT_FLOAT
    }
  }
  attr {
    key: "_class"
    value {
      list {
        s: "loc:@train_network/shuffle_block_0/shuffle_v2_block/conv_bn_relu/Conv/weights"
      }
    }
  }
}
node {
  name: "train_network/shuffle_block_0/shuffle_v2_block/conv_bn_relu/Conv/weights/Initializer/random_uniform"
  op: "Add"
  input: "train_network/shuffle_block_0/shuffle_v2_block/conv_bn_relu/Conv/weights/Initializer/random_uniform/mul"
  input: "train_network/shuffle_block_0/shuffle_v2_block/conv_bn_relu/Conv/weights/Initializer/random_uniform/min"
  attr {
    key: "T"
    value {
      type: DT_FLOAT
    }
  }
  attr {
    key: "_class"
    value {
      list {
        s: "loc:@train_network/shuffle_block_0/shuffle_v2_block/conv_bn_relu/Conv/weights"
      }
    }
  }
}
node {
  name: "train_network/shuffle_block_0/shuffle_v2_block/conv_bn_relu/Conv/weights"
  op: "VariableV2"
  attr {
    key: "_class"
    value {
      list {
        s: "loc:@train_network/shuffle_block_0/shuffle_v2_block/conv_bn_relu/Conv/weights"
      }
    }
  }
  attr {
    key: "container"
    value {
      s: ""
    }
  }
  attr {
    key: "dtype"
    value {
      type: DT_FLOAT
    }
  }
  attr {
    key: "shape"
    value {
      shape {
        dim {
          size: 1
        }
        dim {
          size: 1
        }
        dim {
          size: 24
        }
        dim {
          size: 58
        }
      }
    }
  }
  attr {
    key: "shared_name"
    value {
      s: ""
    }
  }
}
node {
  name: "train_network/shuffle_block_0/shuffle_v2_block/conv_bn_relu/Conv/weights/Assign"
  op: "Assign"
  input: "train_network/shuffle_block_0/shuffle_v2_block/conv_bn_relu/Conv/weights"
  input: "train_network/shuffle_block_0/shuffle_v2_block/conv_bn_relu/Conv/weights/Initializer/random_uniform"
  attr {
    key: "T"
    value {
      type: DT_FLOAT
    }
  }
  attr {
    key: "_class"
    value {
      list {
        s: "loc:@train_network/shuffle_block_0/shuffle_v2_block/conv_bn_relu/Conv/weights"
      }
    }
  }
  attr {
    key: "use_locking"
    value {
      b: true
    }
  }
  attr {
    key: "validate_shape"
    value {
      b: true
    }
  }
}
node {
  name: "train_network/shuffle_block_0/shuffle_v2_block/conv_bn_relu/Conv/weights/read"
  op: "Identity"
  input: "train_network/shuffle_block_0/shuffle_v2_block/conv_bn_relu/Conv/weights"
  attr {
    key: "T"
    value {
      type: DT_FLOAT
    }
  }
  attr {
    key: "_class"
    value {
      list {
        s: "loc:@train_network/shuffle_block_0/shuffle_v2_block/conv_bn_relu/Conv/weights"
      }
    }
  }
}
node {
  name: "train_network/shuffle_block_0/shuffle_v2_block/conv_bn_relu/Conv/dilation_rate"
  op: "Const"
  attr {
    key: "dtype"
    value {
      type: DT_INT32
    }
  }
  attr {
    key: "value"
    value {
      tensor {
        dtype: DT_INT32
        tensor_shape {
          dim {
            size: 2
          }
        }
        tensor_content: "\001\000\000\000\001\000\000\000"
      }
    }
  }
}
node {
  name: "train_network/shuffle_block_0/shuffle_v2_block/conv_bn_relu/Conv/Conv2D"
  op: "Conv2D"
  input: "train_network/init_block/MaxPool2D/MaxPool"
  input: "train_network/shuffle_block_0/shuffle_v2_block/conv_bn_relu/Conv/weights/read"
  attr {
    key: "T"
    value {
      type: DT_FLOAT
    }
  }
  attr {
    key: "data_format"
    value {
      s: "NHWC"
    }
  }
  attr {
    key: "dilations"
    value {
      list {
        i: 1
        i: 1
        i: 1
        i: 1
      }
    }
  }
  attr {
    key: "padding"
    value {
      s: "SAME"
    }
  }
  attr {
    key: "strides"
    value {
      list {
        i: 1
        i: 1
        i: 1
        i: 1
      }
    }
  }
  attr {
    key: "use_cudnn_on_gpu"
    value {
      b: true
    }
  }
}
node {
  name: "train_network/shuffle_block_0/shuffle_v2_block/conv_bn_relu/BatchNorm/beta/Initializer/zeros"
  op: "Const"
  attr {
    key: "_class"
    value {
      list {
        s: "loc:@train_network/shuffle_block_0/shuffle_v2_block/conv_bn_relu/BatchNorm/beta"
      }
    }
  }
  attr {
    key: "dtype"
    value {
      type: DT_FLOAT
    }
  }
  attr {
    key: "value"
    value {
      tensor {
        dtype: DT_FLOAT
        tensor_shape {
          dim {
            size: 58
          }
        }
        float_val: 0.0
      }
    }
  }
}
node {
  name: "train_network/shuffle_block_0/shuffle_v2_block/conv_bn_relu/BatchNorm/beta"
  op: "VariableV2"
  attr {
    key: "_class"
    value {
      list {
        s: "loc:@train_network/shuffle_block_0/shuffle_v2_block/conv_bn_relu/BatchNorm/beta"
      }
    }
  }
  attr {
    key: "container"
    value {
      s: ""
    }
  }
  attr {
    key: "dtype"
    value {
      type: DT_FLOAT
    }
  }
  attr {
    key: "shape"
    value {
      shape {
        dim {
          size: 58
        }
      }
    }
  }
  attr {
    key: "shared_name"
    value {
      s: ""
    }
  }
}
node {
  name: "train_network/shuffle_block_0/shuffle_v2_block/conv_bn_relu/BatchNorm/beta/Assign"
  op: "Assign"
  input: "train_network/shuffle_block_0/shuffle_v2_block/conv_bn_relu/BatchNorm/beta"
  input: "train_network/shuffle_block_0/shuffle_v2_block/conv_bn_relu/BatchNorm/beta/Initializer/zeros"
  attr {
    key: "T"
    value {
      type: DT_FLOAT
    }
  }
  attr {
    key: "_class"
    value {
      list {
        s: "loc:@train_network/shuffle_block_0/shuffle_v2_block/conv_bn_relu/BatchNorm/beta"
      }
    }
  }
  attr {
    key: "use_locking"
    value {
      b: true
    }
  }
  attr {
    key: "validate_shape"
    value {
      b: true
    }
  }
}
node {
  name: "train_network/shuffle_block_0/shuffle_v2_block/conv_bn_relu/BatchNorm/beta/read"
  op: "Identity"
  input: "train_network/shuffle_block_0/shuffle_v2_block/conv_bn_relu/BatchNorm/beta"
  attr {
    key: "T"
    value {
      type: DT_FLOAT
    }
  }
  attr {
    key: "_class"
    value {
      list {
        s: "loc:@train_network/shuffle_block_0/shuffle_v2_block/conv_bn_relu/BatchNorm/beta"
      }
    }
  }
}
node {
  name: "train_network/shuffle_block_0/shuffle_v2_block/conv_bn_relu/BatchNorm/moving_mean/Initializer/zeros"
  op: "Const"
  attr {
    key: "_class"
    value {
      list {
        s: "loc:@train_network/shuffle_block_0/shuffle_v2_block/conv_bn_relu/BatchNorm/moving_mean"
      }
    }
  }
  attr {
    key: "dtype"
    value {
      type: DT_FLOAT
    }
  }
  attr {
    key: "value"
    value {
      tensor {
        dtype: DT_FLOAT
        tensor_shape {
          dim {
            size: 58
          }
        }
        float_val: 0.0
      }
    }
  }
}
node {
  name: "train_network/shuffle_block_0/shuffle_v2_block/conv_bn_relu/BatchNorm/moving_mean"
  op: "VariableV2"
  attr {
    key: "_class"
    value {
      list {
        s: "loc:@train_network/shuffle_block_0/shuffle_v2_block/conv_bn_relu/BatchNorm/moving_mean"
      }
    }
  }
  attr {
    key: "container"
    value {
      s: ""
    }
  }
  attr {
    key: "dtype"
    value {
      type: DT_FLOAT
    }
  }
  attr {
    key: "shape"
    value {
      shape {
        dim {
          size: 58
        }
      }
    }
  }
  attr {
    key: "shared_name"
    value {
      s: ""
    }
  }
}
node {
  name: "train_network/shuffle_block_0/shuffle_v2_block/conv_bn_relu/BatchNorm/moving_mean/Assign"
  op: "Assign"
  input: "train_network/shuffle_block_0/shuffle_v2_block/conv_bn_relu/BatchNorm/moving_mean"
  input: "train_network/shuffle_block_0/shuffle_v2_block/conv_bn_relu/BatchNorm/moving_mean/Initializer/zeros"
  attr {
    key: "T"
    value {
      type: DT_FLOAT
    }
  }
  attr {
    key: "_class"
    value {
      list {
        s: "loc:@train_network/shuffle_block_0/shuffle_v2_block/conv_bn_relu/BatchNorm/moving_mean"
      }
    }
  }
  attr {
    key: "use_locking"
    value {
      b: true
    }
  }
  attr {
    key: "validate_shape"
    value {
      b: true
    }
  }
}
node {
  name: "train_network/shuffle_block_0/shuffle_v2_block/conv_bn_relu/BatchNorm/moving_mean/read"
  op: "Identity"
  input: "train_network/shuffle_block_0/shuffle_v2_block/conv_bn_relu/BatchNorm/moving_mean"
  attr {
    key: "T"
    value {
      type: DT_FLOAT
    }
  }
  attr {
    key: "_class"
    value {
      list {
        s: "loc:@train_network/shuffle_block_0/shuffle_v2_block/conv_bn_relu/BatchNorm/moving_mean"
      }
    }
  }
}
node {
  name: "train_network/shuffle_block_0/shuffle_v2_block/conv_bn_relu/BatchNorm/moving_variance/Initializer/ones"
  op: "Const"
  attr {
    key: "_class"
    value {
      list {
        s: "loc:@train_network/shuffle_block_0/shuffle_v2_block/conv_bn_relu/BatchNorm/moving_variance"
      }
    }
  }
  attr {
    key: "dtype"
    value {
      type: DT_FLOAT
    }
  }
  attr {
    key: "value"
    value {
      tensor {
        dtype: DT_FLOAT
        tensor_shape {
          dim {
            size: 58
          }
        }
        float_val: 1.0
      }
    }
  }
}
node {
  name: "train_network/shuffle_block_0/shuffle_v2_block/conv_bn_relu/BatchNorm/moving_variance"
  op: "VariableV2"
  attr {
    key: "_class"
    value {
      list {
        s: "loc:@train_network/shuffle_block_0/shuffle_v2_block/conv_bn_relu/BatchNorm/moving_variance"
      }
    }
  }
  attr {
    key: "container"
    value {
      s: ""
    }
  }
  attr {
    key: "dtype"
    value {
      type: DT_FLOAT
    }
  }
  attr {
    key: "shape"
    value {
      shape {
        dim {
          size: 58
        }
      }
    }
  }
  attr {
    key: "shared_name"
    value {
      s: ""
    }
  }
}
node {
  name: "train_network/shuffle_block_0/shuffle_v2_block/conv_bn_relu/BatchNorm/moving_variance/Assign"
  op: "Assign"
  input: "train_network/shuffle_block_0/shuffle_v2_block/conv_bn_relu/BatchNorm/moving_variance"
  input: "train_network/shuffle_block_0/shuffle_v2_block/conv_bn_relu/BatchNorm/moving_variance/Initializer/ones"
  attr {
    key: "T"
    value {
      type: DT_FLOAT
    }
  }
  attr {
    key: "_class"
    value {
      list {
        s: "loc:@train_network/shuffle_block_0/shuffle_v2_block/conv_bn_relu/BatchNorm/moving_variance"
      }
    }
  }
  attr {
    key: "use_locking"
    value {
      b: true
    }
  }
  attr {
    key: "validate_shape"
    value {
      b: true
    }
  }
}
node {
  name: "train_network/shuffle_block_0/shuffle_v2_block/conv_bn_relu/BatchNorm/moving_variance/read"
  op: "Identity"
  input: "train_network/shuffle_block_0/shuffle_v2_block/conv_bn_relu/BatchNorm/moving_variance"
  attr {
    key: "T"
    value {
      type: DT_FLOAT
    }
  }
  attr {
    key: "_class"
    value {
      list {
        s: "loc:@train_network/shuffle_block_0/shuffle_v2_block/conv_bn_relu/BatchNorm/moving_variance"
      }
    }
  }
}
node {
  name: "train_network/shuffle_block_0/shuffle_v2_block/conv_bn_relu/BatchNorm/moments/mean/reduction_indices"
  op: "Const"
  attr {
    key: "dtype"
    value {
      type: DT_INT32
    }
  }
  attr {
    key: "value"
    value {
      tensor {
        dtype: DT_INT32
        tensor_shape {
          dim {
            size: 3
          }
        }
        tensor_content: "\000\000\000\000\001\000\000\000\002\000\000\000"
      }
    }
  }
}
node {
  name: "train_network/shuffle_block_0/shuffle_v2_block/conv_bn_relu/BatchNorm/moments/mean"
  op: "Mean"
  input: "train_network/shuffle_block_0/shuffle_v2_block/conv_bn_relu/Conv/Conv2D"
  input: "train_network/shuffle_block_0/shuffle_v2_block/conv_bn_relu/BatchNorm/moments/mean/reduction_indices"
  attr {
    key: "T"
    value {
      type: DT_FLOAT
    }
  }
  attr {
    key: "Tidx"
    value {
      type: DT_INT32
    }
  }
  attr {
    key: "keep_dims"
    value {
      b: true
    }
  }
}
node {
  name: "train_network/shuffle_block_0/shuffle_v2_block/conv_bn_relu/BatchNorm/moments/StopGradient"
  op: "StopGradient"
  input: "train_network/shuffle_block_0/shuffle_v2_block/conv_bn_relu/BatchNorm/moments/mean"
  attr {
    key: "T"
    value {
      type: DT_FLOAT
    }
  }
}
node {
  name: "train_network/shuffle_block_0/shuffle_v2_block/conv_bn_relu/BatchNorm/moments/SquaredDifference"
  op: "SquaredDifference"
  input: "train_network/shuffle_block_0/shuffle_v2_block/conv_bn_relu/Conv/Conv2D"
  input: "train_network/shuffle_block_0/shuffle_v2_block/conv_bn_relu/BatchNorm/moments/StopGradient"
  attr {
    key: "T"
    value {
      type: DT_FLOAT
    }
  }
}
node {
  name: "train_network/shuffle_block_0/shuffle_v2_block/conv_bn_relu/BatchNorm/moments/variance/reduction_indices"
  op: "Const"
  attr {
    key: "dtype"
    value {
      type: DT_INT32
    }
  }
  attr {
    key: "value"
    value {
      tensor {
        dtype: DT_INT32
        tensor_shape {
          dim {
            size: 3
          }
        }
        tensor_content: "\000\000\000\000\001\000\000\000\002\000\000\000"
      }
    }
  }
}
node {
  name: "train_network/shuffle_block_0/shuffle_v2_block/conv_bn_relu/BatchNorm/moments/variance"
  op: "Mean"
  input: "train_network/shuffle_block_0/shuffle_v2_block/conv_bn_relu/BatchNorm/moments/SquaredDifference"
  input: "train_network/shuffle_block_0/shuffle_v2_block/conv_bn_relu/BatchNorm/moments/variance/reduction_indices"
  attr {
    key: "T"
    value {
      type: DT_FLOAT
    }
  }
  attr {
    key: "Tidx"
    value {
      type: DT_INT32
    }
  }
  attr {
    key: "keep_dims"
    value {
      b: true
    }
  }
}
node {
  name: "train_network/shuffle_block_0/shuffle_v2_block/conv_bn_relu/BatchNorm/moments/Squeeze"
  op: "Squeeze"
  input: "train_network/shuffle_block_0/shuffle_v2_block/conv_bn_relu/BatchNorm/moments/mean"
  attr {
    key: "T"
    value {
      type: DT_FLOAT
    }
  }
  attr {
    key: "squeeze_dims"
    value {
      list {
        i: 0
        i: 1
        i: 2
      }
    }
  }
}
node {
  name: "train_network/shuffle_block_0/shuffle_v2_block/conv_bn_relu/BatchNorm/moments/Squeeze_1"
  op: "Squeeze"
  input: "train_network/shuffle_block_0/shuffle_v2_block/conv_bn_relu/BatchNorm/moments/variance"
  attr {
    key: "T"
    value {
      type: DT_FLOAT
    }
  }
  attr {
    key: "squeeze_dims"
    value {
      list {
        i: 0
        i: 1
        i: 2
      }
    }
  }
}
node {
  name: "train_network/shuffle_block_0/shuffle_v2_block/conv_bn_relu/BatchNorm/AssignMovingAvg/decay"
  op: "Const"
  attr {
    key: "dtype"
    value {
      type: DT_FLOAT
    }
  }
  attr {
    key: "value"
    value {
      tensor {
        dtype: DT_FLOAT
        tensor_shape {
        }
        float_val: 0.0010000000474974513
      }
    }
  }
}
node {
  name: "train_network/shuffle_block_0/shuffle_v2_block/conv_bn_relu/BatchNorm/AssignMovingAvg/sub"
  op: "Sub"
  input: "train_network/shuffle_block_0/shuffle_v2_block/conv_bn_relu/BatchNorm/moving_mean/read"
  input: "train_network/shuffle_block_0/shuffle_v2_block/conv_bn_relu/BatchNorm/moments/Squeeze"
  attr {
    key: "T"
    value {
      type: DT_FLOAT
    }
  }
}
node {
  name: "train_network/shuffle_block_0/shuffle_v2_block/conv_bn_relu/BatchNorm/AssignMovingAvg/mul"
  op: "Mul"
  input: "train_network/shuffle_block_0/shuffle_v2_block/conv_bn_relu/BatchNorm/AssignMovingAvg/sub"
  input: "train_network/shuffle_block_0/shuffle_v2_block/conv_bn_relu/BatchNorm/AssignMovingAvg/decay"
  attr {
    key: "T"
    value {
      type: DT_FLOAT
    }
  }
}
node {
  name: "train_network/shuffle_block_0/shuffle_v2_block/conv_bn_relu/BatchNorm/AssignMovingAvg"
  op: "AssignSub"
  input: "train_network/shuffle_block_0/shuffle_v2_block/conv_bn_relu/BatchNorm/moving_mean"
  input: "train_network/shuffle_block_0/shuffle_v2_block/conv_bn_relu/BatchNorm/AssignMovingAvg/mul"
  attr {
    key: "T"
    value {
      type: DT_FLOAT
    }
  }
  attr {
    key: "_class"
    value {
      list {
        s: "loc:@train_network/shuffle_block_0/shuffle_v2_block/conv_bn_relu/BatchNorm/moving_mean"
      }
    }
  }
  attr {
    key: "use_locking"
    value {
      b: false
    }
  }
}
node {
  name: "train_network/shuffle_block_0/shuffle_v2_block/conv_bn_relu/BatchNorm/AssignMovingAvg_1/decay"
  op: "Const"
  attr {
    key: "dtype"
    value {
      type: DT_FLOAT
    }
  }
  attr {
    key: "value"
    value {
      tensor {
        dtype: DT_FLOAT
        tensor_shape {
        }
        float_val: 0.0010000000474974513
      }
    }
  }
}
node {
  name: "train_network/shuffle_block_0/shuffle_v2_block/conv_bn_relu/BatchNorm/AssignMovingAvg_1/sub"
  op: "Sub"
  input: "train_network/shuffle_block_0/shuffle_v2_block/conv_bn_relu/BatchNorm/moving_variance/read"
  input: "train_network/shuffle_block_0/shuffle_v2_block/conv_bn_relu/BatchNorm/moments/Squeeze_1"
  attr {
    key: "T"
    value {
      type: DT_FLOAT
    }
  }
}
node {
  name: "train_network/shuffle_block_0/shuffle_v2_block/conv_bn_relu/BatchNorm/AssignMovingAvg_1/mul"
  op: "Mul"
  input: "train_network/shuffle_block_0/shuffle_v2_block/conv_bn_relu/BatchNorm/AssignMovingAvg_1/sub"
  input: "train_network/shuffle_block_0/shuffle_v2_block/conv_bn_relu/BatchNorm/AssignMovingAvg_1/decay"
  attr {
    key: "T"
    value {
      type: DT_FLOAT
    }
  }
}
node {
  name: "train_network/shuffle_block_0/shuffle_v2_block/conv_bn_relu/BatchNorm/AssignMovingAvg_1"
  op: "AssignSub"
  input: "train_network/shuffle_block_0/shuffle_v2_block/conv_bn_relu/BatchNorm/moving_variance"
  input: "train_network/shuffle_block_0/shuffle_v2_block/conv_bn_relu/BatchNorm/AssignMovingAvg_1/mul"
  attr {
    key: "T"
    value {
      type: DT_FLOAT
    }
  }
  attr {
    key: "_class"
    value {
      list {
        s: "loc:@train_network/shuffle_block_0/shuffle_v2_block/conv_bn_relu/BatchNorm/moving_variance"
      }
    }
  }
  attr {
    key: "use_locking"
    value {
      b: false
    }
  }
}
node {
  name: "train_network/shuffle_block_0/shuffle_v2_block/conv_bn_relu/BatchNorm/batchnorm/add/y"
  op: "Const"
  attr {
    key: "dtype"
    value {
      type: DT_FLOAT
    }
  }
  attr {
    key: "value"
    value {
      tensor {
        dtype: DT_FLOAT
        tensor_shape {
        }
        float_val: 0.0010000000474974513
      }
    }
  }
}
node {
  name: "train_network/shuffle_block_0/shuffle_v2_block/conv_bn_relu/BatchNorm/batchnorm/add"
  op: "Add"
  input: "train_network/shuffle_block_0/shuffle_v2_block/conv_bn_relu/BatchNorm/moments/Squeeze_1"
  input: "train_network/shuffle_block_0/shuffle_v2_block/conv_bn_relu/BatchNorm/batchnorm/add/y"
  attr {
    key: "T"
    value {
      type: DT_FLOAT
    }
  }
}
node {
  name: "train_network/shuffle_block_0/shuffle_v2_block/conv_bn_relu/BatchNorm/batchnorm/Rsqrt"
  op: "Rsqrt"
  input: "train_network/shuffle_block_0/shuffle_v2_block/conv_bn_relu/BatchNorm/batchnorm/add"
  attr {
    key: "T"
    value {
      type: DT_FLOAT
    }
  }
}
node {
  name: "train_network/shuffle_block_0/shuffle_v2_block/conv_bn_relu/BatchNorm/batchnorm/mul"
  op: "Mul"
  input: "train_network/shuffle_block_0/shuffle_v2_block/conv_bn_relu/Conv/Conv2D"
  input: "train_network/shuffle_block_0/shuffle_v2_block/conv_bn_relu/BatchNorm/batchnorm/Rsqrt"
  attr {
    key: "T"
    value {
      type: DT_FLOAT
    }
  }
}
node {
  name: "train_network/shuffle_block_0/shuffle_v2_block/conv_bn_relu/BatchNorm/batchnorm/mul_1"
  op: "Mul"
  input: "train_network/shuffle_block_0/shuffle_v2_block/conv_bn_relu/BatchNorm/moments/Squeeze"
  input: "train_network/shuffle_block_0/shuffle_v2_block/conv_bn_relu/BatchNorm/batchnorm/Rsqrt"
  attr {
    key: "T"
    value {
      type: DT_FLOAT
    }
  }
}
node {
  name: "train_network/shuffle_block_0/shuffle_v2_block/conv_bn_relu/BatchNorm/batchnorm/sub"
  op: "Sub"
  input: "train_network/shuffle_block_0/shuffle_v2_block/conv_bn_relu/BatchNorm/beta/read"
  input: "train_network/shuffle_block_0/shuffle_v2_block/conv_bn_relu/BatchNorm/batchnorm/mul_1"
  attr {
    key: "T"
    value {
      type: DT_FLOAT
    }
  }
}
node {
  name: "train_network/shuffle_block_0/shuffle_v2_block/conv_bn_relu/BatchNorm/batchnorm/add_1"
  op: "Add"
  input: "train_network/shuffle_block_0/shuffle_v2_block/conv_bn_relu/BatchNorm/batchnorm/mul"
  input: "train_network/shuffle_block_0/shuffle_v2_block/conv_bn_relu/BatchNorm/batchnorm/sub"
  attr {
    key: "T"
    value {
      type: DT_FLOAT
    }
  }
}
node {
  name: "train_network/shuffle_block_0/shuffle_v2_block/conv_bn_relu/BatchNorm/Relu"
  op: "Relu"
  input: "train_network/shuffle_block_0/shuffle_v2_block/conv_bn_relu/BatchNorm/batchnorm/add_1"
  attr {
    key: "T"
    value {
      type: DT_FLOAT
    }
  }
}
node {
  name: "train_network/shuffle_block_0/shuffle_v2_block/depthwise_conv_bn/SeparableConv2d/depthwise_weights/Initializer/random_uniform/shape"
  op: "Const"
  attr {
    key: "_class"
    value {
      list {
        s: "loc:@train_network/shuffle_block_0/shuffle_v2_block/depthwise_conv_bn/SeparableConv2d/depthwise_weights"
      }
    }
  }
  attr {
    key: "dtype"
    value {
      type: DT_INT32
    }
  }
  attr {
    key: "value"
    value {
      tensor {
        dtype: DT_INT32
        tensor_shape {
          dim {
            size: 4
          }
        }
        tensor_content: "\003\000\000\000\003\000\000\000:\000\000\000\001\000\000\000"
      }
    }
  }
}
node {
  name: "train_network/shuffle_block_0/shuffle_v2_block/depthwise_conv_bn/SeparableConv2d/depthwise_weights/Initializer/random_uniform/min"
  op: "Const"
  attr {
    key: "_class"
    value {
      list {
        s: "loc:@train_network/shuffle_block_0/shuffle_v2_block/depthwise_conv_bn/SeparableConv2d/depthwise_weights"
      }
    }
  }
  attr {
    key: "dtype"
    value {
      type: DT_FLOAT
    }
  }
  attr {
    key: "value"
    value {
      tensor {
        dtype: DT_FLOAT
        tensor_shape {
        }
        float_val: -0.10629880428314209
      }
    }
  }
}
node {
  name: "train_network/shuffle_block_0/shuffle_v2_block/depthwise_conv_bn/SeparableConv2d/depthwise_weights/Initializer/random_uniform/max"
  op: "Const"
  attr {
    key: "_class"
    value {
      list {
        s: "loc:@train_network/shuffle_block_0/shuffle_v2_block/depthwise_conv_bn/SeparableConv2d/depthwise_weights"
      }
    }
  }
  attr {
    key: "dtype"
    value {
      type: DT_FLOAT
    }
  }
  attr {
    key: "value"
    value {
      tensor {
        dtype: DT_FLOAT
        tensor_shape {
        }
        float_val: 0.10629880428314209
      }
    }
  }
}
node {
  name: "train_network/shuffle_block_0/shuffle_v2_block/depthwise_conv_bn/SeparableConv2d/depthwise_weights/Initializer/random_uniform/RandomUniform"
  op: "RandomUniform"
  input: "train_network/shuffle_block_0/shuffle_v2_block/depthwise_conv_bn/SeparableConv2d/depthwise_weights/Initializer/random_uniform/shape"
  attr {
    key: "T"
    value {
      type: DT_INT32
    }
  }
  attr {
    key: "_class"
    value {
      list {
        s: "loc:@train_network/shuffle_block_0/shuffle_v2_block/depthwise_conv_bn/SeparableConv2d/depthwise_weights"
      }
    }
  }
  attr {
    key: "dtype"
    value {
      type: DT_FLOAT
    }
  }
  attr {
    key: "seed"
    value {
      i: 0
    }
  }
  attr {
    key: "seed2"
    value {
      i: 0
    }
  }
}
node {
  name: "train_network/shuffle_block_0/shuffle_v2_block/depthwise_conv_bn/SeparableConv2d/depthwise_weights/Initializer/random_uniform/sub"
  op: "Sub"
  input: "train_network/shuffle_block_0/shuffle_v2_block/depthwise_conv_bn/SeparableConv2d/depthwise_weights/Initializer/random_uniform/max"
  input: "train_network/shuffle_block_0/shuffle_v2_block/depthwise_conv_bn/SeparableConv2d/depthwise_weights/Initializer/random_uniform/min"
  attr {
    key: "T"
    value {
      type: DT_FLOAT
    }
  }
  attr {
    key: "_class"
    value {
      list {
        s: "loc:@train_network/shuffle_block_0/shuffle_v2_block/depthwise_conv_bn/SeparableConv2d/depthwise_weights"
      }
    }
  }
}
node {
  name: "train_network/shuffle_block_0/shuffle_v2_block/depthwise_conv_bn/SeparableConv2d/depthwise_weights/Initializer/random_uniform/mul"
  op: "Mul"
  input: "train_network/shuffle_block_0/shuffle_v2_block/depthwise_conv_bn/SeparableConv2d/depthwise_weights/Initializer/random_uniform/RandomUniform"
  input: "train_network/shuffle_block_0/shuffle_v2_block/depthwise_conv_bn/SeparableConv2d/depthwise_weights/Initializer/random_uniform/sub"
  attr {
    key: "T"
    value {
      type: DT_FLOAT
    }
  }
  attr {
    key: "_class"
    value {
      list {
        s: "loc:@train_network/shuffle_block_0/shuffle_v2_block/depthwise_conv_bn/SeparableConv2d/depthwise_weights"
      }
    }
  }
}
node {
  name: "train_network/shuffle_block_0/shuffle_v2_block/depthwise_conv_bn/SeparableConv2d/depthwise_weights/Initializer/random_uniform"
  op: "Add"
  input: "train_network/shuffle_block_0/shuffle_v2_block/depthwise_conv_bn/SeparableConv2d/depthwise_weights/Initializer/random_uniform/mul"
  input: "train_network/shuffle_block_0/shuffle_v2_block/depthwise_conv_bn/SeparableConv2d/depthwise_weights/Initializer/random_uniform/min"
  attr {
    key: "T"
    value {
      type: DT_FLOAT
    }
  }
  attr {
    key: "_class"
    value {
      list {
        s: "loc:@train_network/shuffle_block_0/shuffle_v2_block/depthwise_conv_bn/SeparableConv2d/depthwise_weights"
      }
    }
  }
}
node {
  name: "train_network/shuffle_block_0/shuffle_v2_block/depthwise_conv_bn/SeparableConv2d/depthwise_weights"
  op: "VariableV2"
  attr {
    key: "_class"
    value {
      list {
        s: "loc:@train_network/shuffle_block_0/shuffle_v2_block/depthwise_conv_bn/SeparableConv2d/depthwise_weights"
      }
    }
  }
  attr {
    key: "container"
    value {
      s: ""
    }
  }
  attr {
    key: "dtype"
    value {
      type: DT_FLOAT
    }
  }
  attr {
    key: "shape"
    value {
      shape {
        dim {
          size: 3
        }
        dim {
          size: 3
        }
        dim {
          size: 58
        }
        dim {
          size: 1
        }
      }
    }
  }
  attr {
    key: "shared_name"
    value {
      s: ""
    }
  }
}
node {
  name: "train_network/shuffle_block_0/shuffle_v2_block/depthwise_conv_bn/SeparableConv2d/depthwise_weights/Assign"
  op: "Assign"
  input: "train_network/shuffle_block_0/shuffle_v2_block/depthwise_conv_bn/SeparableConv2d/depthwise_weights"
  input: "train_network/shuffle_block_0/shuffle_v2_block/depthwise_conv_bn/SeparableConv2d/depthwise_weights/Initializer/random_uniform"
  attr {
    key: "T"
    value {
      type: DT_FLOAT
    }
  }
  attr {
    key: "_class"
    value {
      list {
        s: "loc:@train_network/shuffle_block_0/shuffle_v2_block/depthwise_conv_bn/SeparableConv2d/depthwise_weights"
      }
    }
  }
  attr {
    key: "use_locking"
    value {
      b: true
    }
  }
  attr {
    key: "validate_shape"
    value {
      b: true
    }
  }
}
node {
  name: "train_network/shuffle_block_0/shuffle_v2_block/depthwise_conv_bn/SeparableConv2d/depthwise_weights/read"
  op: "Identity"
  input: "train_network/shuffle_block_0/shuffle_v2_block/depthwise_conv_bn/SeparableConv2d/depthwise_weights"
  attr {
    key: "T"
    value {
      type: DT_FLOAT
    }
  }
  attr {
    key: "_class"
    value {
      list {
        s: "loc:@train_network/shuffle_block_0/shuffle_v2_block/depthwise_conv_bn/SeparableConv2d/depthwise_weights"
      }
    }
  }
}
node {
  name: "train_network/shuffle_block_0/shuffle_v2_block/depthwise_conv_bn/SeparableConv2d/depthwise/Shape"
  op: "Const"
  attr {
    key: "dtype"
    value {
      type: DT_INT32
    }
  }
  attr {
    key: "value"
    value {
      tensor {
        dtype: DT_INT32
        tensor_shape {
          dim {
            size: 4
          }
        }
        tensor_content: "\003\000\000\000\003\000\000\000:\000\000\000\001\000\000\000"
      }
    }
  }
}
node {
  name: "train_network/shuffle_block_0/shuffle_v2_block/depthwise_conv_bn/SeparableConv2d/depthwise/dilation_rate"
  op: "Const"
  attr {
    key: "dtype"
    value {
      type: DT_INT32
    }
  }
  attr {
    key: "value"
    value {
      tensor {
        dtype: DT_INT32
        tensor_shape {
          dim {
            size: 2
          }
        }
        tensor_content: "\001\000\000\000\001\000\000\000"
      }
    }
  }
}
node {
  name: "train_network/shuffle_block_0/shuffle_v2_block/depthwise_conv_bn/SeparableConv2d/depthwise"
  op: "DepthwiseConv2dNative"
  input: "train_network/shuffle_block_0/shuffle_v2_block/conv_bn_relu/BatchNorm/Relu"
  input: "train_network/shuffle_block_0/shuffle_v2_block/depthwise_conv_bn/SeparableConv2d/depthwise_weights/read"
  attr {
    key: "T"
    value {
      type: DT_FLOAT
    }
  }
  attr {
    key: "data_format"
    value {
      s: "NHWC"
    }
  }
  attr {
    key: "dilations"
    value {
      list {
        i: 1
        i: 1
        i: 1
        i: 1
      }
    }
  }
  attr {
    key: "padding"
    value {
      s: "SAME"
    }
  }
  attr {
    key: "strides"
    value {
      list {
        i: 1
        i: 2
        i: 2
        i: 1
      }
    }
  }
}
node {
  name: "train_network/shuffle_block_0/shuffle_v2_block/depthwise_conv_bn/BatchNorm/beta/Initializer/zeros"
  op: "Const"
  attr {
    key: "_class"
    value {
      list {
        s: "loc:@train_network/shuffle_block_0/shuffle_v2_block/depthwise_conv_bn/BatchNorm/beta"
      }
    }
  }
  attr {
    key: "dtype"
    value {
      type: DT_FLOAT
    }
  }
  attr {
    key: "value"
    value {
      tensor {
        dtype: DT_FLOAT
        tensor_shape {
          dim {
            size: 58
          }
        }
        float_val: 0.0
      }
    }
  }
}
node {
  name: "train_network/shuffle_block_0/shuffle_v2_block/depthwise_conv_bn/BatchNorm/beta"
  op: "VariableV2"
  attr {
    key: "_class"
    value {
      list {
        s: "loc:@train_network/shuffle_block_0/shuffle_v2_block/depthwise_conv_bn/BatchNorm/beta"
      }
    }
  }
  attr {
    key: "container"
    value {
      s: ""
    }
  }
  attr {
    key: "dtype"
    value {
      type: DT_FLOAT
    }
  }
  attr {
    key: "shape"
    value {
      shape {
        dim {
          size: 58
        }
      }
    }
  }
  attr {
    key: "shared_name"
    value {
      s: ""
    }
  }
}
node {
  name: "train_network/shuffle_block_0/shuffle_v2_block/depthwise_conv_bn/BatchNorm/beta/Assign"
  op: "Assign"
  input: "train_network/shuffle_block_0/shuffle_v2_block/depthwise_conv_bn/BatchNorm/beta"
  input: "train_network/shuffle_block_0/shuffle_v2_block/depthwise_conv_bn/BatchNorm/beta/Initializer/zeros"
  attr {
    key: "T"
    value {
      type: DT_FLOAT
    }
  }
  attr {
    key: "_class"
    value {
      list {
        s: "loc:@train_network/shuffle_block_0/shuffle_v2_block/depthwise_conv_bn/BatchNorm/beta"
      }
    }
  }
  attr {
    key: "use_locking"
    value {
      b: true
    }
  }
  attr {
    key: "validate_shape"
    value {
      b: true
    }
  }
}
node {
  name: "train_network/shuffle_block_0/shuffle_v2_block/depthwise_conv_bn/BatchNorm/beta/read"
  op: "Identity"
  input: "train_network/shuffle_block_0/shuffle_v2_block/depthwise_conv_bn/BatchNorm/beta"
  attr {
    key: "T"
    value {
      type: DT_FLOAT
    }
  }
  attr {
    key: "_class"
    value {
      list {
        s: "loc:@train_network/shuffle_block_0/shuffle_v2_block/depthwise_conv_bn/BatchNorm/beta"
      }
    }
  }
}
node {
  name: "train_network/shuffle_block_0/shuffle_v2_block/depthwise_conv_bn/BatchNorm/moving_mean/Initializer/zeros"
  op: "Const"
  attr {
    key: "_class"
    value {
      list {
        s: "loc:@train_network/shuffle_block_0/shuffle_v2_block/depthwise_conv_bn/BatchNorm/moving_mean"
      }
    }
  }
  attr {
    key: "dtype"
    value {
      type: DT_FLOAT
    }
  }
  attr {
    key: "value"
    value {
      tensor {
        dtype: DT_FLOAT
        tensor_shape {
          dim {
            size: 58
          }
        }
        float_val: 0.0
      }
    }
  }
}
node {
  name: "train_network/shuffle_block_0/shuffle_v2_block/depthwise_conv_bn/BatchNorm/moving_mean"
  op: "VariableV2"
  attr {
    key: "_class"
    value {
      list {
        s: "loc:@train_network/shuffle_block_0/shuffle_v2_block/depthwise_conv_bn/BatchNorm/moving_mean"
      }
    }
  }
  attr {
    key: "container"
    value {
      s: ""
    }
  }
  attr {
    key: "dtype"
    value {
      type: DT_FLOAT
    }
  }
  attr {
    key: "shape"
    value {
      shape {
        dim {
          size: 58
        }
      }
    }
  }
  attr {
    key: "shared_name"
    value {
      s: ""
    }
  }
}
node {
  name: "train_network/shuffle_block_0/shuffle_v2_block/depthwise_conv_bn/BatchNorm/moving_mean/Assign"
  op: "Assign"
  input: "train_network/shuffle_block_0/shuffle_v2_block/depthwise_conv_bn/BatchNorm/moving_mean"
  input: "train_network/shuffle_block_0/shuffle_v2_block/depthwise_conv_bn/BatchNorm/moving_mean/Initializer/zeros"
  attr {
    key: "T"
    value {
      type: DT_FLOAT
    }
  }
  attr {
    key: "_class"
    value {
      list {
        s: "loc:@train_network/shuffle_block_0/shuffle_v2_block/depthwise_conv_bn/BatchNorm/moving_mean"
      }
    }
  }
  attr {
    key: "use_locking"
    value {
      b: true
    }
  }
  attr {
    key: "validate_shape"
    value {
      b: true
    }
  }
}
node {
  name: "train_network/shuffle_block_0/shuffle_v2_block/depthwise_conv_bn/BatchNorm/moving_mean/read"
  op: "Identity"
  input: "train_network/shuffle_block_0/shuffle_v2_block/depthwise_conv_bn/BatchNorm/moving_mean"
  attr {
    key: "T"
    value {
      type: DT_FLOAT
    }
  }
  attr {
    key: "_class"
    value {
      list {
        s: "loc:@train_network/shuffle_block_0/shuffle_v2_block/depthwise_conv_bn/BatchNorm/moving_mean"
      }
    }
  }
}
node {
  name: "train_network/shuffle_block_0/shuffle_v2_block/depthwise_conv_bn/BatchNorm/moving_variance/Initializer/ones"
  op: "Const"
  attr {
    key: "_class"
    value {
      list {
        s: "loc:@train_network/shuffle_block_0/shuffle_v2_block/depthwise_conv_bn/BatchNorm/moving_variance"
      }
    }
  }
  attr {
    key: "dtype"
    value {
      type: DT_FLOAT
    }
  }
  attr {
    key: "value"
    value {
      tensor {
        dtype: DT_FLOAT
        tensor_shape {
          dim {
            size: 58
          }
        }
        float_val: 1.0
      }
    }
  }
}
node {
  name: "train_network/shuffle_block_0/shuffle_v2_block/depthwise_conv_bn/BatchNorm/moving_variance"
  op: "VariableV2"
  attr {
    key: "_class"
    value {
      list {
        s: "loc:@train_network/shuffle_block_0/shuffle_v2_block/depthwise_conv_bn/BatchNorm/moving_variance"
      }
    }
  }
  attr {
    key: "container"
    value {
      s: ""
    }
  }
  attr {
    key: "dtype"
    value {
      type: DT_FLOAT
    }
  }
  attr {
    key: "shape"
    value {
      shape {
        dim {
          size: 58
        }
      }
    }
  }
  attr {
    key: "shared_name"
    value {
      s: ""
    }
  }
}
node {
  name: "train_network/shuffle_block_0/shuffle_v2_block/depthwise_conv_bn/BatchNorm/moving_variance/Assign"
  op: "Assign"
  input: "train_network/shuffle_block_0/shuffle_v2_block/depthwise_conv_bn/BatchNorm/moving_variance"
  input: "train_network/shuffle_block_0/shuffle_v2_block/depthwise_conv_bn/BatchNorm/moving_variance/Initializer/ones"
  attr {
    key: "T"
    value {
      type: DT_FLOAT
    }
  }
  attr {
    key: "_class"
    value {
      list {
        s: "loc:@train_network/shuffle_block_0/shuffle_v2_block/depthwise_conv_bn/BatchNorm/moving_variance"
      }
    }
  }
  attr {
    key: "use_locking"
    value {
      b: true
    }
  }
  attr {
    key: "validate_shape"
    value {
      b: true
    }
  }
}
node {
  name: "train_network/shuffle_block_0/shuffle_v2_block/depthwise_conv_bn/BatchNorm/moving_variance/read"
  op: "Identity"
  input: "train_network/shuffle_block_0/shuffle_v2_block/depthwise_conv_bn/BatchNorm/moving_variance"
  attr {
    key: "T"
    value {
      type: DT_FLOAT
    }
  }
  attr {
    key: "_class"
    value {
      list {
        s: "loc:@train_network/shuffle_block_0/shuffle_v2_block/depthwise_conv_bn/BatchNorm/moving_variance"
      }
    }
  }
}
node {
  name: "train_network/shuffle_block_0/shuffle_v2_block/depthwise_conv_bn/BatchNorm/moments/mean/reduction_indices"
  op: "Const"
  attr {
    key: "dtype"
    value {
      type: DT_INT32
    }
  }
  attr {
    key: "value"
    value {
      tensor {
        dtype: DT_INT32
        tensor_shape {
          dim {
            size: 3
          }
        }
        tensor_content: "\000\000\000\000\001\000\000\000\002\000\000\000"
      }
    }
  }
}
node {
  name: "train_network/shuffle_block_0/shuffle_v2_block/depthwise_conv_bn/BatchNorm/moments/mean"
  op: "Mean"
  input: "train_network/shuffle_block_0/shuffle_v2_block/depthwise_conv_bn/SeparableConv2d/depthwise"
  input: "train_network/shuffle_block_0/shuffle_v2_block/depthwise_conv_bn/BatchNorm/moments/mean/reduction_indices"
  attr {
    key: "T"
    value {
      type: DT_FLOAT
    }
  }
  attr {
    key: "Tidx"
    value {
      type: DT_INT32
    }
  }
  attr {
    key: "keep_dims"
    value {
      b: true
    }
  }
}
node {
  name: "train_network/shuffle_block_0/shuffle_v2_block/depthwise_conv_bn/BatchNorm/moments/StopGradient"
  op: "StopGradient"
  input: "train_network/shuffle_block_0/shuffle_v2_block/depthwise_conv_bn/BatchNorm/moments/mean"
  attr {
    key: "T"
    value {
      type: DT_FLOAT
    }
  }
}
node {
  name: "train_network/shuffle_block_0/shuffle_v2_block/depthwise_conv_bn/BatchNorm/moments/SquaredDifference"
  op: "SquaredDifference"
  input: "train_network/shuffle_block_0/shuffle_v2_block/depthwise_conv_bn/SeparableConv2d/depthwise"
  input: "train_network/shuffle_block_0/shuffle_v2_block/depthwise_conv_bn/BatchNorm/moments/StopGradient"
  attr {
    key: "T"
    value {
      type: DT_FLOAT
    }
  }
}
node {
  name: "train_network/shuffle_block_0/shuffle_v2_block/depthwise_conv_bn/BatchNorm/moments/variance/reduction_indices"
  op: "Const"
  attr {
    key: "dtype"
    value {
      type: DT_INT32
    }
  }
  attr {
    key: "value"
    value {
      tensor {
        dtype: DT_INT32
        tensor_shape {
          dim {
            size: 3
          }
        }
        tensor_content: "\000\000\000\000\001\000\000\000\002\000\000\000"
      }
    }
  }
}
node {
  name: "train_network/shuffle_block_0/shuffle_v2_block/depthwise_conv_bn/BatchNorm/moments/variance"
  op: "Mean"
  input: "train_network/shuffle_block_0/shuffle_v2_block/depthwise_conv_bn/BatchNorm/moments/SquaredDifference"
  input: "train_network/shuffle_block_0/shuffle_v2_block/depthwise_conv_bn/BatchNorm/moments/variance/reduction_indices"
  attr {
    key: "T"
    value {
      type: DT_FLOAT
    }
  }
  attr {
    key: "Tidx"
    value {
      type: DT_INT32
    }
  }
  attr {
    key: "keep_dims"
    value {
      b: true
    }
  }
}
node {
  name: "train_network/shuffle_block_0/shuffle_v2_block/depthwise_conv_bn/BatchNorm/moments/Squeeze"
  op: "Squeeze"
  input: "train_network/shuffle_block_0/shuffle_v2_block/depthwise_conv_bn/BatchNorm/moments/mean"
  attr {
    key: "T"
    value {
      type: DT_FLOAT
    }
  }
  attr {
    key: "squeeze_dims"
    value {
      list {
        i: 0
        i: 1
        i: 2
      }
    }
  }
}
node {
  name: "train_network/shuffle_block_0/shuffle_v2_block/depthwise_conv_bn/BatchNorm/moments/Squeeze_1"
  op: "Squeeze"
  input: "train_network/shuffle_block_0/shuffle_v2_block/depthwise_conv_bn/BatchNorm/moments/variance"
  attr {
    key: "T"
    value {
      type: DT_FLOAT
    }
  }
  attr {
    key: "squeeze_dims"
    value {
      list {
        i: 0
        i: 1
        i: 2
      }
    }
  }
}
node {
  name: "train_network/shuffle_block_0/shuffle_v2_block/depthwise_conv_bn/BatchNorm/AssignMovingAvg/decay"
  op: "Const"
  attr {
    key: "dtype"
    value {
      type: DT_FLOAT
    }
  }
  attr {
    key: "value"
    value {
      tensor {
        dtype: DT_FLOAT
        tensor_shape {
        }
        float_val: 0.0010000000474974513
      }
    }
  }
}
node {
  name: "train_network/shuffle_block_0/shuffle_v2_block/depthwise_conv_bn/BatchNorm/AssignMovingAvg/sub"
  op: "Sub"
  input: "train_network/shuffle_block_0/shuffle_v2_block/depthwise_conv_bn/BatchNorm/moving_mean/read"
  input: "train_network/shuffle_block_0/shuffle_v2_block/depthwise_conv_bn/BatchNorm/moments/Squeeze"
  attr {
    key: "T"
    value {
      type: DT_FLOAT
    }
  }
}
node {
  name: "train_network/shuffle_block_0/shuffle_v2_block/depthwise_conv_bn/BatchNorm/AssignMovingAvg/mul"
  op: "Mul"
  input: "train_network/shuffle_block_0/shuffle_v2_block/depthwise_conv_bn/BatchNorm/AssignMovingAvg/sub"
  input: "train_network/shuffle_block_0/shuffle_v2_block/depthwise_conv_bn/BatchNorm/AssignMovingAvg/decay"
  attr {
    key: "T"
    value {
      type: DT_FLOAT
    }
  }
}
node {
  name: "train_network/shuffle_block_0/shuffle_v2_block/depthwise_conv_bn/BatchNorm/AssignMovingAvg"
  op: "AssignSub"
  input: "train_network/shuffle_block_0/shuffle_v2_block/depthwise_conv_bn/BatchNorm/moving_mean"
  input: "train_network/shuffle_block_0/shuffle_v2_block/depthwise_conv_bn/BatchNorm/AssignMovingAvg/mul"
  attr {
    key: "T"
    value {
      type: DT_FLOAT
    }
  }
  attr {
    key: "_class"
    value {
      list {
        s: "loc:@train_network/shuffle_block_0/shuffle_v2_block/depthwise_conv_bn/BatchNorm/moving_mean"
      }
    }
  }
  attr {
    key: "use_locking"
    value {
      b: false
    }
  }
}
node {
  name: "train_network/shuffle_block_0/shuffle_v2_block/depthwise_conv_bn/BatchNorm/AssignMovingAvg_1/decay"
  op: "Const"
  attr {
    key: "dtype"
    value {
      type: DT_FLOAT
    }
  }
  attr {
    key: "value"
    value {
      tensor {
        dtype: DT_FLOAT
        tensor_shape {
        }
        float_val: 0.0010000000474974513
      }
    }
  }
}
node {
  name: "train_network/shuffle_block_0/shuffle_v2_block/depthwise_conv_bn/BatchNorm/AssignMovingAvg_1/sub"
  op: "Sub"
  input: "train_network/shuffle_block_0/shuffle_v2_block/depthwise_conv_bn/BatchNorm/moving_variance/read"
  input: "train_network/shuffle_block_0/shuffle_v2_block/depthwise_conv_bn/BatchNorm/moments/Squeeze_1"
  attr {
    key: "T"
    value {
      type: DT_FLOAT
    }
  }
}
node {
  name: "train_network/shuffle_block_0/shuffle_v2_block/depthwise_conv_bn/BatchNorm/AssignMovingAvg_1/mul"
  op: "Mul"
  input: "train_network/shuffle_block_0/shuffle_v2_block/depthwise_conv_bn/BatchNorm/AssignMovingAvg_1/sub"
  input: "train_network/shuffle_block_0/shuffle_v2_block/depthwise_conv_bn/BatchNorm/AssignMovingAvg_1/decay"
  attr {
    key: "T"
    value {
      type: DT_FLOAT
    }
  }
}
node {
  name: "train_network/shuffle_block_0/shuffle_v2_block/depthwise_conv_bn/BatchNorm/AssignMovingAvg_1"
  op: "AssignSub"
  input: "train_network/shuffle_block_0/shuffle_v2_block/depthwise_conv_bn/BatchNorm/moving_variance"
  input: "train_network/shuffle_block_0/shuffle_v2_block/depthwise_conv_bn/BatchNorm/AssignMovingAvg_1/mul"
  attr {
    key: "T"
    value {
      type: DT_FLOAT
    }
  }
  attr {
    key: "_class"
    value {
      list {
        s: "loc:@train_network/shuffle_block_0/shuffle_v2_block/depthwise_conv_bn/BatchNorm/moving_variance"
      }
    }
  }
  attr {
    key: "use_locking"
    value {
      b: false
    }
  }
}
node {
  name: "train_network/shuffle_block_0/shuffle_v2_block/depthwise_conv_bn/BatchNorm/batchnorm/add/y"
  op: "Const"
  attr {
    key: "dtype"
    value {
      type: DT_FLOAT
    }
  }
  attr {
    key: "value"
    value {
      tensor {
        dtype: DT_FLOAT
        tensor_shape {
        }
        float_val: 0.0010000000474974513
      }
    }
  }
}
node {
  name: "train_network/shuffle_block_0/shuffle_v2_block/depthwise_conv_bn/BatchNorm/batchnorm/add"
  op: "Add"
  input: "train_network/shuffle_block_0/shuffle_v2_block/depthwise_conv_bn/BatchNorm/moments/Squeeze_1"
  input: "train_network/shuffle_block_0/shuffle_v2_block/depthwise_conv_bn/BatchNorm/batchnorm/add/y"
  attr {
    key: "T"
    value {
      type: DT_FLOAT
    }
  }
}
node {
  name: "train_network/shuffle_block_0/shuffle_v2_block/depthwise_conv_bn/BatchNorm/batchnorm/Rsqrt"
  op: "Rsqrt"
  input: "train_network/shuffle_block_0/shuffle_v2_block/depthwise_conv_bn/BatchNorm/batchnorm/add"
  attr {
    key: "T"
    value {
      type: DT_FLOAT
    }
  }
}
node {
  name: "train_network/shuffle_block_0/shuffle_v2_block/depthwise_conv_bn/BatchNorm/batchnorm/mul"
  op: "Mul"
  input: "train_network/shuffle_block_0/shuffle_v2_block/depthwise_conv_bn/SeparableConv2d/depthwise"
  input: "train_network/shuffle_block_0/shuffle_v2_block/depthwise_conv_bn/BatchNorm/batchnorm/Rsqrt"
  attr {
    key: "T"
    value {
      type: DT_FLOAT
    }
  }
}
node {
  name: "train_network/shuffle_block_0/shuffle_v2_block/depthwise_conv_bn/BatchNorm/batchnorm/mul_1"
  op: "Mul"
  input: "train_network/shuffle_block_0/shuffle_v2_block/depthwise_conv_bn/BatchNorm/moments/Squeeze"
  input: "train_network/shuffle_block_0/shuffle_v2_block/depthwise_conv_bn/BatchNorm/batchnorm/Rsqrt"
  attr {
    key: "T"
    value {
      type: DT_FLOAT
    }
  }
}
node {
  name: "train_network/shuffle_block_0/shuffle_v2_block/depthwise_conv_bn/BatchNorm/batchnorm/sub"
  op: "Sub"
  input: "train_network/shuffle_block_0/shuffle_v2_block/depthwise_conv_bn/BatchNorm/beta/read"
  input: "train_network/shuffle_block_0/shuffle_v2_block/depthwise_conv_bn/BatchNorm/batchnorm/mul_1"
  attr {
    key: "T"
    value {
      type: DT_FLOAT
    }
  }
}
node {
  name: "train_network/shuffle_block_0/shuffle_v2_block/depthwise_conv_bn/BatchNorm/batchnorm/add_1"
  op: "Add"
  input: "train_network/shuffle_block_0/shuffle_v2_block/depthwise_conv_bn/BatchNorm/batchnorm/mul"
  input: "train_network/shuffle_block_0/shuffle_v2_block/depthwise_conv_bn/BatchNorm/batchnorm/sub"
  attr {
    key: "T"
    value {
      type: DT_FLOAT
    }
  }
}
node {
  name: "train_network/shuffle_block_0/shuffle_v2_block/conv_bn_relu_1/Conv/weights/Initializer/random_uniform/shape"
  op: "Const"
  attr {
    key: "_class"
    value {
      list {
        s: "loc:@train_network/shuffle_block_0/shuffle_v2_block/conv_bn_relu_1/Conv/weights"
      }
    }
  }
  attr {
    key: "dtype"
    value {
      type: DT_INT32
    }
  }
  attr {
    key: "value"
    value {
      tensor {
        dtype: DT_INT32
        tensor_shape {
          dim {
            size: 4
          }
        }
        tensor_content: "\001\000\000\000\001\000\000\000:\000\000\000:\000\000\000"
      }
    }
  }
}
node {
  name: "train_network/shuffle_block_0/shuffle_v2_block/conv_bn_relu_1/Conv/weights/Initializer/random_uniform/min"
  op: "Const"
  attr {
    key: "_class"
    value {
      list {
        s: "loc:@train_network/shuffle_block_0/shuffle_v2_block/conv_bn_relu_1/Conv/weights"
      }
    }
  }
  attr {
    key: "dtype"
    value {
      type: DT_FLOAT
    }
  }
  attr {
    key: "value"
    value {
      tensor {
        dtype: DT_FLOAT
        tensor_shape {
        }
        float_val: -0.22742941975593567
      }
    }
  }
}
node {
  name: "train_network/shuffle_block_0/shuffle_v2_block/conv_bn_relu_1/Conv/weights/Initializer/random_uniform/max"
  op: "Const"
  attr {
    key: "_class"
    value {
      list {
        s: "loc:@train_network/shuffle_block_0/shuffle_v2_block/conv_bn_relu_1/Conv/weights"
      }
    }
  }
  attr {
    key: "dtype"
    value {
      type: DT_FLOAT
    }
  }
  attr {
    key: "value"
    value {
      tensor {
        dtype: DT_FLOAT
        tensor_shape {
        }
        float_val: 0.22742941975593567
      }
    }
  }
}
node {
  name: "train_network/shuffle_block_0/shuffle_v2_block/conv_bn_relu_1/Conv/weights/Initializer/random_uniform/RandomUniform"
  op: "RandomUniform"
  input: "train_network/shuffle_block_0/shuffle_v2_block/conv_bn_relu_1/Conv/weights/Initializer/random_uniform/shape"
  attr {
    key: "T"
    value {
      type: DT_INT32
    }
  }
  attr {
    key: "_class"
    value {
      list {
        s: "loc:@train_network/shuffle_block_0/shuffle_v2_block/conv_bn_relu_1/Conv/weights"
      }
    }
  }
  attr {
    key: "dtype"
    value {
      type: DT_FLOAT
    }
  }
  attr {
    key: "seed"
    value {
      i: 0
    }
  }
  attr {
    key: "seed2"
    value {
      i: 0
    }
  }
}
node {
  name: "train_network/shuffle_block_0/shuffle_v2_block/conv_bn_relu_1/Conv/weights/Initializer/random_uniform/sub"
  op: "Sub"
  input: "train_network/shuffle_block_0/shuffle_v2_block/conv_bn_relu_1/Conv/weights/Initializer/random_uniform/max"
  input: "train_network/shuffle_block_0/shuffle_v2_block/conv_bn_relu_1/Conv/weights/Initializer/random_uniform/min"
  attr {
    key: "T"
    value {
      type: DT_FLOAT
    }
  }
  attr {
    key: "_class"
    value {
      list {
        s: "loc:@train_network/shuffle_block_0/shuffle_v2_block/conv_bn_relu_1/Conv/weights"
      }
    }
  }
}
node {
  name: "train_network/shuffle_block_0/shuffle_v2_block/conv_bn_relu_1/Conv/weights/Initializer/random_uniform/mul"
  op: "Mul"
  input: "train_network/shuffle_block_0/shuffle_v2_block/conv_bn_relu_1/Conv/weights/Initializer/random_uniform/RandomUniform"
  input: "train_network/shuffle_block_0/shuffle_v2_block/conv_bn_relu_1/Conv/weights/Initializer/random_uniform/sub"
  attr {
    key: "T"
    value {
      type: DT_FLOAT
    }
  }
  attr {
    key: "_class"
    value {
      list {
        s: "loc:@train_network/shuffle_block_0/shuffle_v2_block/conv_bn_relu_1/Conv/weights"
      }
    }
  }
}
node {
  name: "train_network/shuffle_block_0/shuffle_v2_block/conv_bn_relu_1/Conv/weights/Initializer/random_uniform"
  op: "Add"
  input: "train_network/shuffle_block_0/shuffle_v2_block/conv_bn_relu_1/Conv/weights/Initializer/random_uniform/mul"
  input: "train_network/shuffle_block_0/shuffle_v2_block/conv_bn_relu_1/Conv/weights/Initializer/random_uniform/min"
  attr {
    key: "T"
    value {
      type: DT_FLOAT
    }
  }
  attr {
    key: "_class"
    value {
      list {
        s: "loc:@train_network/shuffle_block_0/shuffle_v2_block/conv_bn_relu_1/Conv/weights"
      }
    }
  }
}
node {
  name: "train_network/shuffle_block_0/shuffle_v2_block/conv_bn_relu_1/Conv/weights"
  op: "VariableV2"
  attr {
    key: "_class"
    value {
      list {
        s: "loc:@train_network/shuffle_block_0/shuffle_v2_block/conv_bn_relu_1/Conv/weights"
      }
    }
  }
  attr {
    key: "container"
    value {
      s: ""
    }
  }
  attr {
    key: "dtype"
    value {
      type: DT_FLOAT
    }
  }
  attr {
    key: "shape"
    value {
      shape {
        dim {
          size: 1
        }
        dim {
          size: 1
        }
        dim {
          size: 58
        }
        dim {
          size: 58
        }
      }
    }
  }
  attr {
    key: "shared_name"
    value {
      s: ""
    }
  }
}
node {
  name: "train_network/shuffle_block_0/shuffle_v2_block/conv_bn_relu_1/Conv/weights/Assign"
  op: "Assign"
  input: "train_network/shuffle_block_0/shuffle_v2_block/conv_bn_relu_1/Conv/weights"
  input: "train_network/shuffle_block_0/shuffle_v2_block/conv_bn_relu_1/Conv/weights/Initializer/random_uniform"
  attr {
    key: "T"
    value {
      type: DT_FLOAT
    }
  }
  attr {
    key: "_class"
    value {
      list {
        s: "loc:@train_network/shuffle_block_0/shuffle_v2_block/conv_bn_relu_1/Conv/weights"
      }
    }
  }
  attr {
    key: "use_locking"
    value {
      b: true
    }
  }
  attr {
    key: "validate_shape"
    value {
      b: true
    }
  }
}
node {
  name: "train_network/shuffle_block_0/shuffle_v2_block/conv_bn_relu_1/Conv/weights/read"
  op: "Identity"
  input: "train_network/shuffle_block_0/shuffle_v2_block/conv_bn_relu_1/Conv/weights"
  attr {
    key: "T"
    value {
      type: DT_FLOAT
    }
  }
  attr {
    key: "_class"
    value {
      list {
        s: "loc:@train_network/shuffle_block_0/shuffle_v2_block/conv_bn_relu_1/Conv/weights"
      }
    }
  }
}
node {
  name: "train_network/shuffle_block_0/shuffle_v2_block/conv_bn_relu_1/Conv/dilation_rate"
  op: "Const"
  attr {
    key: "dtype"
    value {
      type: DT_INT32
    }
  }
  attr {
    key: "value"
    value {
      tensor {
        dtype: DT_INT32
        tensor_shape {
          dim {
            size: 2
          }
        }
        tensor_content: "\001\000\000\000\001\000\000\000"
      }
    }
  }
}
node {
  name: "train_network/shuffle_block_0/shuffle_v2_block/conv_bn_relu_1/Conv/Conv2D"
  op: "Conv2D"
  input: "train_network/shuffle_block_0/shuffle_v2_block/depthwise_conv_bn/BatchNorm/batchnorm/add_1"
  input: "train_network/shuffle_block_0/shuffle_v2_block/conv_bn_relu_1/Conv/weights/read"
  attr {
    key: "T"
    value {
      type: DT_FLOAT
    }
  }
  attr {
    key: "data_format"
    value {
      s: "NHWC"
    }
  }
  attr {
    key: "dilations"
    value {
      list {
        i: 1
        i: 1
        i: 1
        i: 1
      }
    }
  }
  attr {
    key: "padding"
    value {
      s: "SAME"
    }
  }
  attr {
    key: "strides"
    value {
      list {
        i: 1
        i: 1
        i: 1
        i: 1
      }
    }
  }
  attr {
    key: "use_cudnn_on_gpu"
    value {
      b: true
    }
  }
}
node {
  name: "train_network/shuffle_block_0/shuffle_v2_block/conv_bn_relu_1/BatchNorm/beta/Initializer/zeros"
  op: "Const"
  attr {
    key: "_class"
    value {
      list {
        s: "loc:@train_network/shuffle_block_0/shuffle_v2_block/conv_bn_relu_1/BatchNorm/beta"
      }
    }
  }
  attr {
    key: "dtype"
    value {
      type: DT_FLOAT
    }
  }
  attr {
    key: "value"
    value {
      tensor {
        dtype: DT_FLOAT
        tensor_shape {
          dim {
            size: 58
          }
        }
        float_val: 0.0
      }
    }
  }
}
node {
  name: "train_network/shuffle_block_0/shuffle_v2_block/conv_bn_relu_1/BatchNorm/beta"
  op: "VariableV2"
  attr {
    key: "_class"
    value {
      list {
        s: "loc:@train_network/shuffle_block_0/shuffle_v2_block/conv_bn_relu_1/BatchNorm/beta"
      }
    }
  }
  attr {
    key: "container"
    value {
      s: ""
    }
  }
  attr {
    key: "dtype"
    value {
      type: DT_FLOAT
    }
  }
  attr {
    key: "shape"
    value {
      shape {
        dim {
          size: 58
        }
      }
    }
  }
  attr {
    key: "shared_name"
    value {
      s: ""
    }
  }
}
node {
  name: "train_network/shuffle_block_0/shuffle_v2_block/conv_bn_relu_1/BatchNorm/beta/Assign"
  op: "Assign"
  input: "train_network/shuffle_block_0/shuffle_v2_block/conv_bn_relu_1/BatchNorm/beta"
  input: "train_network/shuffle_block_0/shuffle_v2_block/conv_bn_relu_1/BatchNorm/beta/Initializer/zeros"
  attr {
    key: "T"
    value {
      type: DT_FLOAT
    }
  }
  attr {
    key: "_class"
    value {
      list {
        s: "loc:@train_network/shuffle_block_0/shuffle_v2_block/conv_bn_relu_1/BatchNorm/beta"
      }
    }
  }
  attr {
    key: "use_locking"
    value {
      b: true
    }
  }
  attr {
    key: "validate_shape"
    value {
      b: true
    }
  }
}
node {
  name: "train_network/shuffle_block_0/shuffle_v2_block/conv_bn_relu_1/BatchNorm/beta/read"
  op: "Identity"
  input: "train_network/shuffle_block_0/shuffle_v2_block/conv_bn_relu_1/BatchNorm/beta"
  attr {
    key: "T"
    value {
      type: DT_FLOAT
    }
  }
  attr {
    key: "_class"
    value {
      list {
        s: "loc:@train_network/shuffle_block_0/shuffle_v2_block/conv_bn_relu_1/BatchNorm/beta"
      }
    }
  }
}
node {
  name: "train_network/shuffle_block_0/shuffle_v2_block/conv_bn_relu_1/BatchNorm/moving_mean/Initializer/zeros"
  op: "Const"
  attr {
    key: "_class"
    value {
      list {
        s: "loc:@train_network/shuffle_block_0/shuffle_v2_block/conv_bn_relu_1/BatchNorm/moving_mean"
      }
    }
  }
  attr {
    key: "dtype"
    value {
      type: DT_FLOAT
    }
  }
  attr {
    key: "value"
    value {
      tensor {
        dtype: DT_FLOAT
        tensor_shape {
          dim {
            size: 58
          }
        }
        float_val: 0.0
      }
    }
  }
}
node {
  name: "train_network/shuffle_block_0/shuffle_v2_block/conv_bn_relu_1/BatchNorm/moving_mean"
  op: "VariableV2"
  attr {
    key: "_class"
    value {
      list {
        s: "loc:@train_network/shuffle_block_0/shuffle_v2_block/conv_bn_relu_1/BatchNorm/moving_mean"
      }
    }
  }
  attr {
    key: "container"
    value {
      s: ""
    }
  }
  attr {
    key: "dtype"
    value {
      type: DT_FLOAT
    }
  }
  attr {
    key: "shape"
    value {
      shape {
        dim {
          size: 58
        }
      }
    }
  }
  attr {
    key: "shared_name"
    value {
      s: ""
    }
  }
}
node {
  name: "train_network/shuffle_block_0/shuffle_v2_block/conv_bn_relu_1/BatchNorm/moving_mean/Assign"
  op: "Assign"
  input: "train_network/shuffle_block_0/shuffle_v2_block/conv_bn_relu_1/BatchNorm/moving_mean"
  input: "train_network/shuffle_block_0/shuffle_v2_block/conv_bn_relu_1/BatchNorm/moving_mean/Initializer/zeros"
  attr {
    key: "T"
    value {
      type: DT_FLOAT
    }
  }
  attr {
    key: "_class"
    value {
      list {
        s: "loc:@train_network/shuffle_block_0/shuffle_v2_block/conv_bn_relu_1/BatchNorm/moving_mean"
      }
    }
  }
  attr {
    key: "use_locking"
    value {
      b: true
    }
  }
  attr {
    key: "validate_shape"
    value {
      b: true
    }
  }
}
node {
  name: "train_network/shuffle_block_0/shuffle_v2_block/conv_bn_relu_1/BatchNorm/moving_mean/read"
  op: "Identity"
  input: "train_network/shuffle_block_0/shuffle_v2_block/conv_bn_relu_1/BatchNorm/moving_mean"
  attr {
    key: "T"
    value {
      type: DT_FLOAT
    }
  }
  attr {
    key: "_class"
    value {
      list {
        s: "loc:@train_network/shuffle_block_0/shuffle_v2_block/conv_bn_relu_1/BatchNorm/moving_mean"
      }
    }
  }
}
node {
  name: "train_network/shuffle_block_0/shuffle_v2_block/conv_bn_relu_1/BatchNorm/moving_variance/Initializer/ones"
  op: "Const"
  attr {
    key: "_class"
    value {
      list {
        s: "loc:@train_network/shuffle_block_0/shuffle_v2_block/conv_bn_relu_1/BatchNorm/moving_variance"
      }
    }
  }
  attr {
    key: "dtype"
    value {
      type: DT_FLOAT
    }
  }
  attr {
    key: "value"
    value {
      tensor {
        dtype: DT_FLOAT
        tensor_shape {
          dim {
            size: 58
          }
        }
        float_val: 1.0
      }
    }
  }
}
node {
  name: "train_network/shuffle_block_0/shuffle_v2_block/conv_bn_relu_1/BatchNorm/moving_variance"
  op: "VariableV2"
  attr {
    key: "_class"
    value {
      list {
        s: "loc:@train_network/shuffle_block_0/shuffle_v2_block/conv_bn_relu_1/BatchNorm/moving_variance"
      }
    }
  }
  attr {
    key: "container"
    value {
      s: ""
    }
  }
  attr {
    key: "dtype"
    value {
      type: DT_FLOAT
    }
  }
  attr {
    key: "shape"
    value {
      shape {
        dim {
          size: 58
        }
      }
    }
  }
  attr {
    key: "shared_name"
    value {
      s: ""
    }
  }
}
node {
  name: "train_network/shuffle_block_0/shuffle_v2_block/conv_bn_relu_1/BatchNorm/moving_variance/Assign"
  op: "Assign"
  input: "train_network/shuffle_block_0/shuffle_v2_block/conv_bn_relu_1/BatchNorm/moving_variance"
  input: "train_network/shuffle_block_0/shuffle_v2_block/conv_bn_relu_1/BatchNorm/moving_variance/Initializer/ones"
  attr {
    key: "T"
    value {
      type: DT_FLOAT
    }
  }
  attr {
    key: "_class"
    value {
      list {
        s: "loc:@train_network/shuffle_block_0/shuffle_v2_block/conv_bn_relu_1/BatchNorm/moving_variance"
      }
    }
  }
  attr {
    key: "use_locking"
    value {
      b: true
    }
  }
  attr {
    key: "validate_shape"
    value {
      b: true
    }
  }
}
node {
  name: "train_network/shuffle_block_0/shuffle_v2_block/conv_bn_relu_1/BatchNorm/moving_variance/read"
  op: "Identity"
  input: "train_network/shuffle_block_0/shuffle_v2_block/conv_bn_relu_1/BatchNorm/moving_variance"
  attr {
    key: "T"
    value {
      type: DT_FLOAT
    }
  }
  attr {
    key: "_class"
    value {
      list {
        s: "loc:@train_network/shuffle_block_0/shuffle_v2_block/conv_bn_relu_1/BatchNorm/moving_variance"
      }
    }
  }
}
node {
  name: "train_network/shuffle_block_0/shuffle_v2_block/conv_bn_relu_1/BatchNorm/moments/mean/reduction_indices"
  op: "Const"
  attr {
    key: "dtype"
    value {
      type: DT_INT32
    }
  }
  attr {
    key: "value"
    value {
      tensor {
        dtype: DT_INT32
        tensor_shape {
          dim {
            size: 3
          }
        }
        tensor_content: "\000\000\000\000\001\000\000\000\002\000\000\000"
      }
    }
  }
}
node {
  name: "train_network/shuffle_block_0/shuffle_v2_block/conv_bn_relu_1/BatchNorm/moments/mean"
  op: "Mean"
  input: "train_network/shuffle_block_0/shuffle_v2_block/conv_bn_relu_1/Conv/Conv2D"
  input: "train_network/shuffle_block_0/shuffle_v2_block/conv_bn_relu_1/BatchNorm/moments/mean/reduction_indices"
  attr {
    key: "T"
    value {
      type: DT_FLOAT
    }
  }
  attr {
    key: "Tidx"
    value {
      type: DT_INT32
    }
  }
  attr {
    key: "keep_dims"
    value {
      b: true
    }
  }
}
node {
  name: "train_network/shuffle_block_0/shuffle_v2_block/conv_bn_relu_1/BatchNorm/moments/StopGradient"
  op: "StopGradient"
  input: "train_network/shuffle_block_0/shuffle_v2_block/conv_bn_relu_1/BatchNorm/moments/mean"
  attr {
    key: "T"
    value {
      type: DT_FLOAT
    }
  }
}
node {
  name: "train_network/shuffle_block_0/shuffle_v2_block/conv_bn_relu_1/BatchNorm/moments/SquaredDifference"
  op: "SquaredDifference"
  input: "train_network/shuffle_block_0/shuffle_v2_block/conv_bn_relu_1/Conv/Conv2D"
  input: "train_network/shuffle_block_0/shuffle_v2_block/conv_bn_relu_1/BatchNorm/moments/StopGradient"
  attr {
    key: "T"
    value {
      type: DT_FLOAT
    }
  }
}
node {
  name: "train_network/shuffle_block_0/shuffle_v2_block/conv_bn_relu_1/BatchNorm/moments/variance/reduction_indices"
  op: "Const"
  attr {
    key: "dtype"
    value {
      type: DT_INT32
    }
  }
  attr {
    key: "value"
    value {
      tensor {
        dtype: DT_INT32
        tensor_shape {
          dim {
            size: 3
          }
        }
        tensor_content: "\000\000\000\000\001\000\000\000\002\000\000\000"
      }
    }
  }
}
node {
  name: "train_network/shuffle_block_0/shuffle_v2_block/conv_bn_relu_1/BatchNorm/moments/variance"
  op: "Mean"
  input: "train_network/shuffle_block_0/shuffle_v2_block/conv_bn_relu_1/BatchNorm/moments/SquaredDifference"
  input: "train_network/shuffle_block_0/shuffle_v2_block/conv_bn_relu_1/BatchNorm/moments/variance/reduction_indices"
  attr {
    key: "T"
    value {
      type: DT_FLOAT
    }
  }
  attr {
    key: "Tidx"
    value {
      type: DT_INT32
    }
  }
  attr {
    key: "keep_dims"
    value {
      b: true
    }
  }
}
node {
  name: "train_network/shuffle_block_0/shuffle_v2_block/conv_bn_relu_1/BatchNorm/moments/Squeeze"
  op: "Squeeze"
  input: "train_network/shuffle_block_0/shuffle_v2_block/conv_bn_relu_1/BatchNorm/moments/mean"
  attr {
    key: "T"
    value {
      type: DT_FLOAT
    }
  }
  attr {
    key: "squeeze_dims"
    value {
      list {
        i: 0
        i: 1
        i: 2
      }
    }
  }
}
node {
  name: "train_network/shuffle_block_0/shuffle_v2_block/conv_bn_relu_1/BatchNorm/moments/Squeeze_1"
  op: "Squeeze"
  input: "train_network/shuffle_block_0/shuffle_v2_block/conv_bn_relu_1/BatchNorm/moments/variance"
  attr {
    key: "T"
    value {
      type: DT_FLOAT
    }
  }
  attr {
    key: "squeeze_dims"
    value {
      list {
        i: 0
        i: 1
        i: 2
      }
    }
  }
}
node {
  name: "train_network/shuffle_block_0/shuffle_v2_block/conv_bn_relu_1/BatchNorm/AssignMovingAvg/decay"
  op: "Const"
  attr {
    key: "dtype"
    value {
      type: DT_FLOAT
    }
  }
  attr {
    key: "value"
    value {
      tensor {
        dtype: DT_FLOAT
        tensor_shape {
        }
        float_val: 0.0010000000474974513
      }
    }
  }
}
node {
  name: "train_network/shuffle_block_0/shuffle_v2_block/conv_bn_relu_1/BatchNorm/AssignMovingAvg/sub"
  op: "Sub"
  input: "train_network/shuffle_block_0/shuffle_v2_block/conv_bn_relu_1/BatchNorm/moving_mean/read"
  input: "train_network/shuffle_block_0/shuffle_v2_block/conv_bn_relu_1/BatchNorm/moments/Squeeze"
  attr {
    key: "T"
    value {
      type: DT_FLOAT
    }
  }
}
node {
  name: "train_network/shuffle_block_0/shuffle_v2_block/conv_bn_relu_1/BatchNorm/AssignMovingAvg/mul"
  op: "Mul"
  input: "train_network/shuffle_block_0/shuffle_v2_block/conv_bn_relu_1/BatchNorm/AssignMovingAvg/sub"
  input: "train_network/shuffle_block_0/shuffle_v2_block/conv_bn_relu_1/BatchNorm/AssignMovingAvg/decay"
  attr {
    key: "T"
    value {
      type: DT_FLOAT
    }
  }
}
node {
  name: "train_network/shuffle_block_0/shuffle_v2_block/conv_bn_relu_1/BatchNorm/AssignMovingAvg"
  op: "AssignSub"
  input: "train_network/shuffle_block_0/shuffle_v2_block/conv_bn_relu_1/BatchNorm/moving_mean"
  input: "train_network/shuffle_block_0/shuffle_v2_block/conv_bn_relu_1/BatchNorm/AssignMovingAvg/mul"
  attr {
    key: "T"
    value {
      type: DT_FLOAT
    }
  }
  attr {
    key: "_class"
    value {
      list {
        s: "loc:@train_network/shuffle_block_0/shuffle_v2_block/conv_bn_relu_1/BatchNorm/moving_mean"
      }
    }
  }
  attr {
    key: "use_locking"
    value {
      b: false
    }
  }
}
node {
  name: "train_network/shuffle_block_0/shuffle_v2_block/conv_bn_relu_1/BatchNorm/AssignMovingAvg_1/decay"
  op: "Const"
  attr {
    key: "dtype"
    value {
      type: DT_FLOAT
    }
  }
  attr {
    key: "value"
    value {
      tensor {
        dtype: DT_FLOAT
        tensor_shape {
        }
        float_val: 0.0010000000474974513
      }
    }
  }
}
node {
  name: "train_network/shuffle_block_0/shuffle_v2_block/conv_bn_relu_1/BatchNorm/AssignMovingAvg_1/sub"
  op: "Sub"
  input: "train_network/shuffle_block_0/shuffle_v2_block/conv_bn_relu_1/BatchNorm/moving_variance/read"
  input: "train_network/shuffle_block_0/shuffle_v2_block/conv_bn_relu_1/BatchNorm/moments/Squeeze_1"
  attr {
    key: "T"
    value {
      type: DT_FLOAT
    }
  }
}
node {
  name: "train_network/shuffle_block_0/shuffle_v2_block/conv_bn_relu_1/BatchNorm/AssignMovingAvg_1/mul"
  op: "Mul"
  input: "train_network/shuffle_block_0/shuffle_v2_block/conv_bn_relu_1/BatchNorm/AssignMovingAvg_1/sub"
  input: "train_network/shuffle_block_0/shuffle_v2_block/conv_bn_relu_1/BatchNorm/AssignMovingAvg_1/decay"
  attr {
    key: "T"
    value {
      type: DT_FLOAT
    }
  }
}
node {
  name: "train_network/shuffle_block_0/shuffle_v2_block/conv_bn_relu_1/BatchNorm/AssignMovingAvg_1"
  op: "AssignSub"
  input: "train_network/shuffle_block_0/shuffle_v2_block/conv_bn_relu_1/BatchNorm/moving_variance"
  input: "train_network/shuffle_block_0/shuffle_v2_block/conv_bn_relu_1/BatchNorm/AssignMovingAvg_1/mul"
  attr {
    key: "T"
    value {
      type: DT_FLOAT
    }
  }
  attr {
    key: "_class"
    value {
      list {
        s: "loc:@train_network/shuffle_block_0/shuffle_v2_block/conv_bn_relu_1/BatchNorm/moving_variance"
      }
    }
  }
  attr {
    key: "use_locking"
    value {
      b: false
    }
  }
}
node {
  name: "train_network/shuffle_block_0/shuffle_v2_block/conv_bn_relu_1/BatchNorm/batchnorm/add/y"
  op: "Const"
  attr {
    key: "dtype"
    value {
      type: DT_FLOAT
    }
  }
  attr {
    key: "value"
    value {
      tensor {
        dtype: DT_FLOAT
        tensor_shape {
        }
        float_val: 0.0010000000474974513
      }
    }
  }
}
node {
  name: "train_network/shuffle_block_0/shuffle_v2_block/conv_bn_relu_1/BatchNorm/batchnorm/add"
  op: "Add"
  input: "train_network/shuffle_block_0/shuffle_v2_block/conv_bn_relu_1/BatchNorm/moments/Squeeze_1"
  input: "train_network/shuffle_block_0/shuffle_v2_block/conv_bn_relu_1/BatchNorm/batchnorm/add/y"
  attr {
    key: "T"
    value {
      type: DT_FLOAT
    }
  }
}
node {
  name: "train_network/shuffle_block_0/shuffle_v2_block/conv_bn_relu_1/BatchNorm/batchnorm/Rsqrt"
  op: "Rsqrt"
  input: "train_network/shuffle_block_0/shuffle_v2_block/conv_bn_relu_1/BatchNorm/batchnorm/add"
  attr {
    key: "T"
    value {
      type: DT_FLOAT
    }
  }
}
node {
  name: "train_network/shuffle_block_0/shuffle_v2_block/conv_bn_relu_1/BatchNorm/batchnorm/mul"
  op: "Mul"
  input: "train_network/shuffle_block_0/shuffle_v2_block/conv_bn_relu_1/Conv/Conv2D"
  input: "train_network/shuffle_block_0/shuffle_v2_block/conv_bn_relu_1/BatchNorm/batchnorm/Rsqrt"
  attr {
    key: "T"
    value {
      type: DT_FLOAT
    }
  }
}
node {
  name: "train_network/shuffle_block_0/shuffle_v2_block/conv_bn_relu_1/BatchNorm/batchnorm/mul_1"
  op: "Mul"
  input: "train_network/shuffle_block_0/shuffle_v2_block/conv_bn_relu_1/BatchNorm/moments/Squeeze"
  input: "train_network/shuffle_block_0/shuffle_v2_block/conv_bn_relu_1/BatchNorm/batchnorm/Rsqrt"
  attr {
    key: "T"
    value {
      type: DT_FLOAT
    }
  }
}
node {
  name: "train_network/shuffle_block_0/shuffle_v2_block/conv_bn_relu_1/BatchNorm/batchnorm/sub"
  op: "Sub"
  input: "train_network/shuffle_block_0/shuffle_v2_block/conv_bn_relu_1/BatchNorm/beta/read"
  input: "train_network/shuffle_block_0/shuffle_v2_block/conv_bn_relu_1/BatchNorm/batchnorm/mul_1"
  attr {
    key: "T"
    value {
      type: DT_FLOAT
    }
  }
}
node {
  name: "train_network/shuffle_block_0/shuffle_v2_block/conv_bn_relu_1/BatchNorm/batchnorm/add_1"
  op: "Add"
  input: "train_network/shuffle_block_0/shuffle_v2_block/conv_bn_relu_1/BatchNorm/batchnorm/mul"
  input: "train_network/shuffle_block_0/shuffle_v2_block/conv_bn_relu_1/BatchNorm/batchnorm/sub"
  attr {
    key: "T"
    value {
      type: DT_FLOAT
    }
  }
}
node {
  name: "train_network/shuffle_block_0/shuffle_v2_block/conv_bn_relu_1/BatchNorm/Relu"
  op: "Relu"
  input: "train_network/shuffle_block_0/shuffle_v2_block/conv_bn_relu_1/BatchNorm/batchnorm/add_1"
  attr {
    key: "T"
    value {
      type: DT_FLOAT
    }
  }
}
node {
  name: "train_network/shuffle_block_0/shuffle_v2_block/depthwise_conv_bn_1/SeparableConv2d/depthwise_weights/Initializer/random_uniform/shape"
  op: "Const"
  attr {
    key: "_class"
    value {
      list {
        s: "loc:@train_network/shuffle_block_0/shuffle_v2_block/depthwise_conv_bn_1/SeparableConv2d/depthwise_weights"
      }
    }
  }
  attr {
    key: "dtype"
    value {
      type: DT_INT32
    }
  }
  attr {
    key: "value"
    value {
      tensor {
        dtype: DT_INT32
        tensor_shape {
          dim {
            size: 4
          }
        }
        tensor_content: "\003\000\000\000\003\000\000\000\030\000\000\000\001\000\000\000"
      }
    }
  }
}
node {
  name: "train_network/shuffle_block_0/shuffle_v2_block/depthwise_conv_bn_1/SeparableConv2d/depthwise_weights/Initializer/random_uniform/min"
  op: "Const"
  attr {
    key: "_class"
    value {
      list {
        s: "loc:@train_network/shuffle_block_0/shuffle_v2_block/depthwise_conv_bn_1/SeparableConv2d/depthwise_weights"
      }
    }
  }
  attr {
    key: "dtype"
    value {
      type: DT_FLOAT
    }
  }
  attr {
    key: "value"
    value {
      tensor {
        dtype: DT_FLOAT
        tensor_shape {
        }
        float_val: -0.1632993221282959
      }
    }
  }
}
node {
  name: "train_network/shuffle_block_0/shuffle_v2_block/depthwise_conv_bn_1/SeparableConv2d/depthwise_weights/Initializer/random_uniform/max"
  op: "Const"
  attr {
    key: "_class"
    value {
      list {
        s: "loc:@train_network/shuffle_block_0/shuffle_v2_block/depthwise_conv_bn_1/SeparableConv2d/depthwise_weights"
      }
    }
  }
  attr {
    key: "dtype"
    value {
      type: DT_FLOAT
    }
  }
  attr {
    key: "value"
    value {
      tensor {
        dtype: DT_FLOAT
        tensor_shape {
        }
        float_val: 0.1632993221282959
      }
    }
  }
}
node {
  name: "train_network/shuffle_block_0/shuffle_v2_block/depthwise_conv_bn_1/SeparableConv2d/depthwise_weights/Initializer/random_uniform/RandomUniform"
  op: "RandomUniform"
  input: "train_network/shuffle_block_0/shuffle_v2_block/depthwise_conv_bn_1/SeparableConv2d/depthwise_weights/Initializer/random_uniform/shape"
  attr {
    key: "T"
    value {
      type: DT_INT32
    }
  }
  attr {
    key: "_class"
    value {
      list {
        s: "loc:@train_network/shuffle_block_0/shuffle_v2_block/depthwise_conv_bn_1/SeparableConv2d/depthwise_weights"
      }
    }
  }
  attr {
    key: "dtype"
    value {
      type: DT_FLOAT
    }
  }
  attr {
    key: "seed"
    value {
      i: 0
    }
  }
  attr {
    key: "seed2"
    value {
      i: 0
    }
  }
}
node {
  name: "train_network/shuffle_block_0/shuffle_v2_block/depthwise_conv_bn_1/SeparableConv2d/depthwise_weights/Initializer/random_uniform/sub"
  op: "Sub"
  input: "train_network/shuffle_block_0/shuffle_v2_block/depthwise_conv_bn_1/SeparableConv2d/depthwise_weights/Initializer/random_uniform/max"
  input: "train_network/shuffle_block_0/shuffle_v2_block/depthwise_conv_bn_1/SeparableConv2d/depthwise_weights/Initializer/random_uniform/min"
  attr {
    key: "T"
    value {
      type: DT_FLOAT
    }
  }
  attr {
    key: "_class"
    value {
      list {
        s: "loc:@train_network/shuffle_block_0/shuffle_v2_block/depthwise_conv_bn_1/SeparableConv2d/depthwise_weights"
      }
    }
  }
}
node {
  name: "train_network/shuffle_block_0/shuffle_v2_block/depthwise_conv_bn_1/SeparableConv2d/depthwise_weights/Initializer/random_uniform/mul"
  op: "Mul"
  input: "train_network/shuffle_block_0/shuffle_v2_block/depthwise_conv_bn_1/SeparableConv2d/depthwise_weights/Initializer/random_uniform/RandomUniform"
  input: "train_network/shuffle_block_0/shuffle_v2_block/depthwise_conv_bn_1/SeparableConv2d/depthwise_weights/Initializer/random_uniform/sub"
  attr {
    key: "T"
    value {
      type: DT_FLOAT
    }
  }
  attr {
    key: "_class"
    value {
      list {
        s: "loc:@train_network/shuffle_block_0/shuffle_v2_block/depthwise_conv_bn_1/SeparableConv2d/depthwise_weights"
      }
    }
  }
}
node {
  name: "train_network/shuffle_block_0/shuffle_v2_block/depthwise_conv_bn_1/SeparableConv2d/depthwise_weights/Initializer/random_uniform"
  op: "Add"
  input: "train_network/shuffle_block_0/shuffle_v2_block/depthwise_conv_bn_1/SeparableConv2d/depthwise_weights/Initializer/random_uniform/mul"
  input: "train_network/shuffle_block_0/shuffle_v2_block/depthwise_conv_bn_1/SeparableConv2d/depthwise_weights/Initializer/random_uniform/min"
  attr {
    key: "T"
    value {
      type: DT_FLOAT
    }
  }
  attr {
    key: "_class"
    value {
      list {
        s: "loc:@train_network/shuffle_block_0/shuffle_v2_block/depthwise_conv_bn_1/SeparableConv2d/depthwise_weights"
      }
    }
  }
}
node {
  name: "train_network/shuffle_block_0/shuffle_v2_block/depthwise_conv_bn_1/SeparableConv2d/depthwise_weights"
  op: "VariableV2"
  attr {
    key: "_class"
    value {
      list {
        s: "loc:@train_network/shuffle_block_0/shuffle_v2_block/depthwise_conv_bn_1/SeparableConv2d/depthwise_weights"
      }
    }
  }
  attr {
    key: "container"
    value {
      s: ""
    }
  }
  attr {
    key: "dtype"
    value {
      type: DT_FLOAT
    }
  }
  attr {
    key: "shape"
    value {
      shape {
        dim {
          size: 3
        }
        dim {
          size: 3
        }
        dim {
          size: 24
        }
        dim {
          size: 1
        }
      }
    }
  }
  attr {
    key: "shared_name"
    value {
      s: ""
    }
  }
}
node {
  name: "train_network/shuffle_block_0/shuffle_v2_block/depthwise_conv_bn_1/SeparableConv2d/depthwise_weights/Assign"
  op: "Assign"
  input: "train_network/shuffle_block_0/shuffle_v2_block/depthwise_conv_bn_1/SeparableConv2d/depthwise_weights"
  input: "train_network/shuffle_block_0/shuffle_v2_block/depthwise_conv_bn_1/SeparableConv2d/depthwise_weights/Initializer/random_uniform"
  attr {
    key: "T"
    value {
      type: DT_FLOAT
    }
  }
  attr {
    key: "_class"
    value {
      list {
        s: "loc:@train_network/shuffle_block_0/shuffle_v2_block/depthwise_conv_bn_1/SeparableConv2d/depthwise_weights"
      }
    }
  }
  attr {
    key: "use_locking"
    value {
      b: true
    }
  }
  attr {
    key: "validate_shape"
    value {
      b: true
    }
  }
}
node {
  name: "train_network/shuffle_block_0/shuffle_v2_block/depthwise_conv_bn_1/SeparableConv2d/depthwise_weights/read"
  op: "Identity"
  input: "train_network/shuffle_block_0/shuffle_v2_block/depthwise_conv_bn_1/SeparableConv2d/depthwise_weights"
  attr {
    key: "T"
    value {
      type: DT_FLOAT
    }
  }
  attr {
    key: "_class"
    value {
      list {
        s: "loc:@train_network/shuffle_block_0/shuffle_v2_block/depthwise_conv_bn_1/SeparableConv2d/depthwise_weights"
      }
    }
  }
}
node {
  name: "train_network/shuffle_block_0/shuffle_v2_block/depthwise_conv_bn_1/SeparableConv2d/depthwise/Shape"
  op: "Const"
  attr {
    key: "dtype"
    value {
      type: DT_INT32
    }
  }
  attr {
    key: "value"
    value {
      tensor {
        dtype: DT_INT32
        tensor_shape {
          dim {
            size: 4
          }
        }
        tensor_content: "\003\000\000\000\003\000\000\000\030\000\000\000\001\000\000\000"
      }
    }
  }
}
node {
  name: "train_network/shuffle_block_0/shuffle_v2_block/depthwise_conv_bn_1/SeparableConv2d/depthwise/dilation_rate"
  op: "Const"
  attr {
    key: "dtype"
    value {
      type: DT_INT32
    }
  }
  attr {
    key: "value"
    value {
      tensor {
        dtype: DT_INT32
        tensor_shape {
          dim {
            size: 2
          }
        }
        tensor_content: "\001\000\000\000\001\000\000\000"
      }
    }
  }
}
node {
  name: "train_network/shuffle_block_0/shuffle_v2_block/depthwise_conv_bn_1/SeparableConv2d/depthwise"
  op: "DepthwiseConv2dNative"
  input: "train_network/init_block/MaxPool2D/MaxPool"
  input: "train_network/shuffle_block_0/shuffle_v2_block/depthwise_conv_bn_1/SeparableConv2d/depthwise_weights/read"
  attr {
    key: "T"
    value {
      type: DT_FLOAT
    }
  }
  attr {
    key: "data_format"
    value {
      s: "NHWC"
    }
  }
  attr {
    key: "dilations"
    value {
      list {
        i: 1
        i: 1
        i: 1
        i: 1
      }
    }
  }
  attr {
    key: "padding"
    value {
      s: "SAME"
    }
  }
  attr {
    key: "strides"
    value {
      list {
        i: 1
        i: 2
        i: 2
        i: 1
      }
    }
  }
}
node {
  name: "train_network/shuffle_block_0/shuffle_v2_block/depthwise_conv_bn_1/BatchNorm/beta/Initializer/zeros"
  op: "Const"
  attr {
    key: "_class"
    value {
      list {
        s: "loc:@train_network/shuffle_block_0/shuffle_v2_block/depthwise_conv_bn_1/BatchNorm/beta"
      }
    }
  }
  attr {
    key: "dtype"
    value {
      type: DT_FLOAT
    }
  }
  attr {
    key: "value"
    value {
      tensor {
        dtype: DT_FLOAT
        tensor_shape {
          dim {
            size: 24
          }
        }
        float_val: 0.0
      }
    }
  }
}
node {
  name: "train_network/shuffle_block_0/shuffle_v2_block/depthwise_conv_bn_1/BatchNorm/beta"
  op: "VariableV2"
  attr {
    key: "_class"
    value {
      list {
        s: "loc:@train_network/shuffle_block_0/shuffle_v2_block/depthwise_conv_bn_1/BatchNorm/beta"
      }
    }
  }
  attr {
    key: "container"
    value {
      s: ""
    }
  }
  attr {
    key: "dtype"
    value {
      type: DT_FLOAT
    }
  }
  attr {
    key: "shape"
    value {
      shape {
        dim {
          size: 24
        }
      }
    }
  }
  attr {
    key: "shared_name"
    value {
      s: ""
    }
  }
}
node {
  name: "train_network/shuffle_block_0/shuffle_v2_block/depthwise_conv_bn_1/BatchNorm/beta/Assign"
  op: "Assign"
  input: "train_network/shuffle_block_0/shuffle_v2_block/depthwise_conv_bn_1/BatchNorm/beta"
  input: "train_network/shuffle_block_0/shuffle_v2_block/depthwise_conv_bn_1/BatchNorm/beta/Initializer/zeros"
  attr {
    key: "T"
    value {
      type: DT_FLOAT
    }
  }
  attr {
    key: "_class"
    value {
      list {
        s: "loc:@train_network/shuffle_block_0/shuffle_v2_block/depthwise_conv_bn_1/BatchNorm/beta"
      }
    }
  }
  attr {
    key: "use_locking"
    value {
      b: true
    }
  }
  attr {
    key: "validate_shape"
    value {
      b: true
    }
  }
}
node {
  name: "train_network/shuffle_block_0/shuffle_v2_block/depthwise_conv_bn_1/BatchNorm/beta/read"
  op: "Identity"
  input: "train_network/shuffle_block_0/shuffle_v2_block/depthwise_conv_bn_1/BatchNorm/beta"
  attr {
    key: "T"
    value {
      type: DT_FLOAT
    }
  }
  attr {
    key: "_class"
    value {
      list {
        s: "loc:@train_network/shuffle_block_0/shuffle_v2_block/depthwise_conv_bn_1/BatchNorm/beta"
      }
    }
  }
}
node {
  name: "train_network/shuffle_block_0/shuffle_v2_block/depthwise_conv_bn_1/BatchNorm/moving_mean/Initializer/zeros"
  op: "Const"
  attr {
    key: "_class"
    value {
      list {
        s: "loc:@train_network/shuffle_block_0/shuffle_v2_block/depthwise_conv_bn_1/BatchNorm/moving_mean"
      }
    }
  }
  attr {
    key: "dtype"
    value {
      type: DT_FLOAT
    }
  }
  attr {
    key: "value"
    value {
      tensor {
        dtype: DT_FLOAT
        tensor_shape {
          dim {
            size: 24
          }
        }
        float_val: 0.0
      }
    }
  }
}
node {
  name: "train_network/shuffle_block_0/shuffle_v2_block/depthwise_conv_bn_1/BatchNorm/moving_mean"
  op: "VariableV2"
  attr {
    key: "_class"
    value {
      list {
        s: "loc:@train_network/shuffle_block_0/shuffle_v2_block/depthwise_conv_bn_1/BatchNorm/moving_mean"
      }
    }
  }
  attr {
    key: "container"
    value {
      s: ""
    }
  }
  attr {
    key: "dtype"
    value {
      type: DT_FLOAT
    }
  }
  attr {
    key: "shape"
    value {
      shape {
        dim {
          size: 24
        }
      }
    }
  }
  attr {
    key: "shared_name"
    value {
      s: ""
    }
  }
}
node {
  name: "train_network/shuffle_block_0/shuffle_v2_block/depthwise_conv_bn_1/BatchNorm/moving_mean/Assign"
  op: "Assign"
  input: "train_network/shuffle_block_0/shuffle_v2_block/depthwise_conv_bn_1/BatchNorm/moving_mean"
  input: "train_network/shuffle_block_0/shuffle_v2_block/depthwise_conv_bn_1/BatchNorm/moving_mean/Initializer/zeros"
  attr {
    key: "T"
    value {
      type: DT_FLOAT
    }
  }
  attr {
    key: "_class"
    value {
      list {
        s: "loc:@train_network/shuffle_block_0/shuffle_v2_block/depthwise_conv_bn_1/BatchNorm/moving_mean"
      }
    }
  }
  attr {
    key: "use_locking"
    value {
      b: true
    }
  }
  attr {
    key: "validate_shape"
    value {
      b: true
    }
  }
}
node {
  name: "train_network/shuffle_block_0/shuffle_v2_block/depthwise_conv_bn_1/BatchNorm/moving_mean/read"
  op: "Identity"
  input: "train_network/shuffle_block_0/shuffle_v2_block/depthwise_conv_bn_1/BatchNorm/moving_mean"
  attr {
    key: "T"
    value {
      type: DT_FLOAT
    }
  }
  attr {
    key: "_class"
    value {
      list {
        s: "loc:@train_network/shuffle_block_0/shuffle_v2_block/depthwise_conv_bn_1/BatchNorm/moving_mean"
      }
    }
  }
}
node {
  name: "train_network/shuffle_block_0/shuffle_v2_block/depthwise_conv_bn_1/BatchNorm/moving_variance/Initializer/ones"
  op: "Const"
  attr {
    key: "_class"
    value {
      list {
        s: "loc:@train_network/shuffle_block_0/shuffle_v2_block/depthwise_conv_bn_1/BatchNorm/moving_variance"
      }
    }
  }
  attr {
    key: "dtype"
    value {
      type: DT_FLOAT
    }
  }
  attr {
    key: "value"
    value {
      tensor {
        dtype: DT_FLOAT
        tensor_shape {
          dim {
            size: 24
          }
        }
        float_val: 1.0
      }
    }
  }
}
node {
  name: "train_network/shuffle_block_0/shuffle_v2_block/depthwise_conv_bn_1/BatchNorm/moving_variance"
  op: "VariableV2"
  attr {
    key: "_class"
    value {
      list {
        s: "loc:@train_network/shuffle_block_0/shuffle_v2_block/depthwise_conv_bn_1/BatchNorm/moving_variance"
      }
    }
  }
  attr {
    key: "container"
    value {
      s: ""
    }
  }
  attr {
    key: "dtype"
    value {
      type: DT_FLOAT
    }
  }
  attr {
    key: "shape"
    value {
      shape {
        dim {
          size: 24
        }
      }
    }
  }
  attr {
    key: "shared_name"
    value {
      s: ""
    }
  }
}
node {
  name: "train_network/shuffle_block_0/shuffle_v2_block/depthwise_conv_bn_1/BatchNorm/moving_variance/Assign"
  op: "Assign"
  input: "train_network/shuffle_block_0/shuffle_v2_block/depthwise_conv_bn_1/BatchNorm/moving_variance"
  input: "train_network/shuffle_block_0/shuffle_v2_block/depthwise_conv_bn_1/BatchNorm/moving_variance/Initializer/ones"
  attr {
    key: "T"
    value {
      type: DT_FLOAT
    }
  }
  attr {
    key: "_class"
    value {
      list {
        s: "loc:@train_network/shuffle_block_0/shuffle_v2_block/depthwise_conv_bn_1/BatchNorm/moving_variance"
      }
    }
  }
  attr {
    key: "use_locking"
    value {
      b: true
    }
  }
  attr {
    key: "validate_shape"
    value {
      b: true
    }
  }
}
node {
  name: "train_network/shuffle_block_0/shuffle_v2_block/depthwise_conv_bn_1/BatchNorm/moving_variance/read"
  op: "Identity"
  input: "train_network/shuffle_block_0/shuffle_v2_block/depthwise_conv_bn_1/BatchNorm/moving_variance"
  attr {
    key: "T"
    value {
      type: DT_FLOAT
    }
  }
  attr {
    key: "_class"
    value {
      list {
        s: "loc:@train_network/shuffle_block_0/shuffle_v2_block/depthwise_conv_bn_1/BatchNorm/moving_variance"
      }
    }
  }
}
node {
  name: "train_network/shuffle_block_0/shuffle_v2_block/depthwise_conv_bn_1/BatchNorm/moments/mean/reduction_indices"
  op: "Const"
  attr {
    key: "dtype"
    value {
      type: DT_INT32
    }
  }
  attr {
    key: "value"
    value {
      tensor {
        dtype: DT_INT32
        tensor_shape {
          dim {
            size: 3
          }
        }
        tensor_content: "\000\000\000\000\001\000\000\000\002\000\000\000"
      }
    }
  }
}
node {
  name: "train_network/shuffle_block_0/shuffle_v2_block/depthwise_conv_bn_1/BatchNorm/moments/mean"
  op: "Mean"
  input: "train_network/shuffle_block_0/shuffle_v2_block/depthwise_conv_bn_1/SeparableConv2d/depthwise"
  input: "train_network/shuffle_block_0/shuffle_v2_block/depthwise_conv_bn_1/BatchNorm/moments/mean/reduction_indices"
  attr {
    key: "T"
    value {
      type: DT_FLOAT
    }
  }
  attr {
    key: "Tidx"
    value {
      type: DT_INT32
    }
  }
  attr {
    key: "keep_dims"
    value {
      b: true
    }
  }
}
node {
  name: "train_network/shuffle_block_0/shuffle_v2_block/depthwise_conv_bn_1/BatchNorm/moments/StopGradient"
  op: "StopGradient"
  input: "train_network/shuffle_block_0/shuffle_v2_block/depthwise_conv_bn_1/BatchNorm/moments/mean"
  attr {
    key: "T"
    value {
      type: DT_FLOAT
    }
  }
}
node {
  name: "train_network/shuffle_block_0/shuffle_v2_block/depthwise_conv_bn_1/BatchNorm/moments/SquaredDifference"
  op: "SquaredDifference"
  input: "train_network/shuffle_block_0/shuffle_v2_block/depthwise_conv_bn_1/SeparableConv2d/depthwise"
  input: "train_network/shuffle_block_0/shuffle_v2_block/depthwise_conv_bn_1/BatchNorm/moments/StopGradient"
  attr {
    key: "T"
    value {
      type: DT_FLOAT
    }
  }
}
node {
  name: "train_network/shuffle_block_0/shuffle_v2_block/depthwise_conv_bn_1/BatchNorm/moments/variance/reduction_indices"
  op: "Const"
  attr {
    key: "dtype"
    value {
      type: DT_INT32
    }
  }
  attr {
    key: "value"
    value {
      tensor {
        dtype: DT_INT32
        tensor_shape {
          dim {
            size: 3
          }
        }
        tensor_content: "\000\000\000\000\001\000\000\000\002\000\000\000"
      }
    }
  }
}
node {
  name: "train_network/shuffle_block_0/shuffle_v2_block/depthwise_conv_bn_1/BatchNorm/moments/variance"
  op: "Mean"
  input: "train_network/shuffle_block_0/shuffle_v2_block/depthwise_conv_bn_1/BatchNorm/moments/SquaredDifference"
  input: "train_network/shuffle_block_0/shuffle_v2_block/depthwise_conv_bn_1/BatchNorm/moments/variance/reduction_indices"
  attr {
    key: "T"
    value {
      type: DT_FLOAT
    }
  }
  attr {
    key: "Tidx"
    value {
      type: DT_INT32
    }
  }
  attr {
    key: "keep_dims"
    value {
      b: true
    }
  }
}
node {
  name: "train_network/shuffle_block_0/shuffle_v2_block/depthwise_conv_bn_1/BatchNorm/moments/Squeeze"
  op: "Squeeze"
  input: "train_network/shuffle_block_0/shuffle_v2_block/depthwise_conv_bn_1/BatchNorm/moments/mean"
  attr {
    key: "T"
    value {
      type: DT_FLOAT
    }
  }
  attr {
    key: "squeeze_dims"
    value {
      list {
        i: 0
        i: 1
        i: 2
      }
    }
  }
}
node {
  name: "train_network/shuffle_block_0/shuffle_v2_block/depthwise_conv_bn_1/BatchNorm/moments/Squeeze_1"
  op: "Squeeze"
  input: "train_network/shuffle_block_0/shuffle_v2_block/depthwise_conv_bn_1/BatchNorm/moments/variance"
  attr {
    key: "T"
    value {
      type: DT_FLOAT
    }
  }
  attr {
    key: "squeeze_dims"
    value {
      list {
        i: 0
        i: 1
        i: 2
      }
    }
  }
}
node {
  name: "train_network/shuffle_block_0/shuffle_v2_block/depthwise_conv_bn_1/BatchNorm/AssignMovingAvg/decay"
  op: "Const"
  attr {
    key: "dtype"
    value {
      type: DT_FLOAT
    }
  }
  attr {
    key: "value"
    value {
      tensor {
        dtype: DT_FLOAT
        tensor_shape {
        }
        float_val: 0.0010000000474974513
      }
    }
  }
}
node {
  name: "train_network/shuffle_block_0/shuffle_v2_block/depthwise_conv_bn_1/BatchNorm/AssignMovingAvg/sub"
  op: "Sub"
  input: "train_network/shuffle_block_0/shuffle_v2_block/depthwise_conv_bn_1/BatchNorm/moving_mean/read"
  input: "train_network/shuffle_block_0/shuffle_v2_block/depthwise_conv_bn_1/BatchNorm/moments/Squeeze"
  attr {
    key: "T"
    value {
      type: DT_FLOAT
    }
  }
}
node {
  name: "train_network/shuffle_block_0/shuffle_v2_block/depthwise_conv_bn_1/BatchNorm/AssignMovingAvg/mul"
  op: "Mul"
  input: "train_network/shuffle_block_0/shuffle_v2_block/depthwise_conv_bn_1/BatchNorm/AssignMovingAvg/sub"
  input: "train_network/shuffle_block_0/shuffle_v2_block/depthwise_conv_bn_1/BatchNorm/AssignMovingAvg/decay"
  attr {
    key: "T"
    value {
      type: DT_FLOAT
    }
  }
}
node {
  name: "train_network/shuffle_block_0/shuffle_v2_block/depthwise_conv_bn_1/BatchNorm/AssignMovingAvg"
  op: "AssignSub"
  input: "train_network/shuffle_block_0/shuffle_v2_block/depthwise_conv_bn_1/BatchNorm/moving_mean"
  input: "train_network/shuffle_block_0/shuffle_v2_block/depthwise_conv_bn_1/BatchNorm/AssignMovingAvg/mul"
  attr {
    key: "T"
    value {
      type: DT_FLOAT
    }
  }
  attr {
    key: "_class"
    value {
      list {
        s: "loc:@train_network/shuffle_block_0/shuffle_v2_block/depthwise_conv_bn_1/BatchNorm/moving_mean"
      }
    }
  }
  attr {
    key: "use_locking"
    value {
      b: false
    }
  }
}
node {
  name: "train_network/shuffle_block_0/shuffle_v2_block/depthwise_conv_bn_1/BatchNorm/AssignMovingAvg_1/decay"
  op: "Const"
  attr {
    key: "dtype"
    value {
      type: DT_FLOAT
    }
  }
  attr {
    key: "value"
    value {
      tensor {
        dtype: DT_FLOAT
        tensor_shape {
        }
        float_val: 0.0010000000474974513
      }
    }
  }
}
node {
  name: "train_network/shuffle_block_0/shuffle_v2_block/depthwise_conv_bn_1/BatchNorm/AssignMovingAvg_1/sub"
  op: "Sub"
  input: "train_network/shuffle_block_0/shuffle_v2_block/depthwise_conv_bn_1/BatchNorm/moving_variance/read"
  input: "train_network/shuffle_block_0/shuffle_v2_block/depthwise_conv_bn_1/BatchNorm/moments/Squeeze_1"
  attr {
    key: "T"
    value {
      type: DT_FLOAT
    }
  }
}
node {
  name: "train_network/shuffle_block_0/shuffle_v2_block/depthwise_conv_bn_1/BatchNorm/AssignMovingAvg_1/mul"
  op: "Mul"
  input: "train_network/shuffle_block_0/shuffle_v2_block/depthwise_conv_bn_1/BatchNorm/AssignMovingAvg_1/sub"
  input: "train_network/shuffle_block_0/shuffle_v2_block/depthwise_conv_bn_1/BatchNorm/AssignMovingAvg_1/decay"
  attr {
    key: "T"
    value {
      type: DT_FLOAT
    }
  }
}
node {
  name: "train_network/shuffle_block_0/shuffle_v2_block/depthwise_conv_bn_1/BatchNorm/AssignMovingAvg_1"
  op: "AssignSub"
  input: "train_network/shuffle_block_0/shuffle_v2_block/depthwise_conv_bn_1/BatchNorm/moving_variance"
  input: "train_network/shuffle_block_0/shuffle_v2_block/depthwise_conv_bn_1/BatchNorm/AssignMovingAvg_1/mul"
  attr {
    key: "T"
    value {
      type: DT_FLOAT
    }
  }
  attr {
    key: "_class"
    value {
      list {
        s: "loc:@train_network/shuffle_block_0/shuffle_v2_block/depthwise_conv_bn_1/BatchNorm/moving_variance"
      }
    }
  }
  attr {
    key: "use_locking"
    value {
      b: false
    }
  }
}
node {
  name: "train_network/shuffle_block_0/shuffle_v2_block/depthwise_conv_bn_1/BatchNorm/batchnorm/add/y"
  op: "Const"
  attr {
    key: "dtype"
    value {
      type: DT_FLOAT
    }
  }
  attr {
    key: "value"
    value {
      tensor {
        dtype: DT_FLOAT
        tensor_shape {
        }
        float_val: 0.0010000000474974513
      }
    }
  }
}
node {
  name: "train_network/shuffle_block_0/shuffle_v2_block/depthwise_conv_bn_1/BatchNorm/batchnorm/add"
  op: "Add"
  input: "train_network/shuffle_block_0/shuffle_v2_block/depthwise_conv_bn_1/BatchNorm/moments/Squeeze_1"
  input: "train_network/shuffle_block_0/shuffle_v2_block/depthwise_conv_bn_1/BatchNorm/batchnorm/add/y"
  attr {
    key: "T"
    value {
      type: DT_FLOAT
    }
  }
}
node {
  name: "train_network/shuffle_block_0/shuffle_v2_block/depthwise_conv_bn_1/BatchNorm/batchnorm/Rsqrt"
  op: "Rsqrt"
  input: "train_network/shuffle_block_0/shuffle_v2_block/depthwise_conv_bn_1/BatchNorm/batchnorm/add"
  attr {
    key: "T"
    value {
      type: DT_FLOAT
    }
  }
}
node {
  name: "train_network/shuffle_block_0/shuffle_v2_block/depthwise_conv_bn_1/BatchNorm/batchnorm/mul"
  op: "Mul"
  input: "train_network/shuffle_block_0/shuffle_v2_block/depthwise_conv_bn_1/SeparableConv2d/depthwise"
  input: "train_network/shuffle_block_0/shuffle_v2_block/depthwise_conv_bn_1/BatchNorm/batchnorm/Rsqrt"
  attr {
    key: "T"
    value {
      type: DT_FLOAT
    }
  }
}
node {
  name: "train_network/shuffle_block_0/shuffle_v2_block/depthwise_conv_bn_1/BatchNorm/batchnorm/mul_1"
  op: "Mul"
  input: "train_network/shuffle_block_0/shuffle_v2_block/depthwise_conv_bn_1/BatchNorm/moments/Squeeze"
  input: "train_network/shuffle_block_0/shuffle_v2_block/depthwise_conv_bn_1/BatchNorm/batchnorm/Rsqrt"
  attr {
    key: "T"
    value {
      type: DT_FLOAT
    }
  }
}
node {
  name: "train_network/shuffle_block_0/shuffle_v2_block/depthwise_conv_bn_1/BatchNorm/batchnorm/sub"
  op: "Sub"
  input: "train_network/shuffle_block_0/shuffle_v2_block/depthwise_conv_bn_1/BatchNorm/beta/read"
  input: "train_network/shuffle_block_0/shuffle_v2_block/depthwise_conv_bn_1/BatchNorm/batchnorm/mul_1"
  attr {
    key: "T"
    value {
      type: DT_FLOAT
    }
  }
}
node {
  name: "train_network/shuffle_block_0/shuffle_v2_block/depthwise_conv_bn_1/BatchNorm/batchnorm/add_1"
  op: "Add"
  input: "train_network/shuffle_block_0/shuffle_v2_block/depthwise_conv_bn_1/BatchNorm/batchnorm/mul"
  input: "train_network/shuffle_block_0/shuffle_v2_block/depthwise_conv_bn_1/BatchNorm/batchnorm/sub"
  attr {
    key: "T"
    value {
      type: DT_FLOAT
    }
  }
}
node {
  name: "train_network/shuffle_block_0/shuffle_v2_block/conv_bn_relu_2/Conv/weights/Initializer/random_uniform/shape"
  op: "Const"
  attr {
    key: "_class"
    value {
      list {
        s: "loc:@train_network/shuffle_block_0/shuffle_v2_block/conv_bn_relu_2/Conv/weights"
      }
    }
  }
  attr {
    key: "dtype"
    value {
      type: DT_INT32
    }
  }
  attr {
    key: "value"
    value {
      tensor {
        dtype: DT_INT32
        tensor_shape {
          dim {
            size: 4
          }
        }
        tensor_content: "\001\000\000\000\001\000\000\000\030\000\000\000:\000\000\000"
      }
    }
  }
}
node {
  name: "train_network/shuffle_block_0/shuffle_v2_block/conv_bn_relu_2/Conv/weights/Initializer/random_uniform/min"
  op: "Const"
  attr {
    key: "_class"
    value {
      list {
        s: "loc:@train_network/shuffle_block_0/shuffle_v2_block/conv_bn_relu_2/Conv/weights"
      }
    }
  }
  attr {
    key: "dtype"
    value {
      type: DT_FLOAT
    }
  }
  attr {
    key: "value"
    value {
      tensor {
        dtype: DT_FLOAT
        tensor_shape {
        }
        float_val: -0.27050089836120605
      }
    }
  }
}
node {
  name: "train_network/shuffle_block_0/shuffle_v2_block/conv_bn_relu_2/Conv/weights/Initializer/random_uniform/max"
  op: "Const"
  attr {
    key: "_class"
    value {
      list {
        s: "loc:@train_network/shuffle_block_0/shuffle_v2_block/conv_bn_relu_2/Conv/weights"
      }
    }
  }
  attr {
    key: "dtype"
    value {
      type: DT_FLOAT
    }
  }
  attr {
    key: "value"
    value {
      tensor {
        dtype: DT_FLOAT
        tensor_shape {
        }
        float_val: 0.27050089836120605
      }
    }
  }
}
node {
  name: "train_network/shuffle_block_0/shuffle_v2_block/conv_bn_relu_2/Conv/weights/Initializer/random_uniform/RandomUniform"
  op: "RandomUniform"
  input: "train_network/shuffle_block_0/shuffle_v2_block/conv_bn_relu_2/Conv/weights/Initializer/random_uniform/shape"
  attr {
    key: "T"
    value {
      type: DT_INT32
    }
  }
  attr {
    key: "_class"
    value {
      list {
        s: "loc:@train_network/shuffle_block_0/shuffle_v2_block/conv_bn_relu_2/Conv/weights"
      }
    }
  }
  attr {
    key: "dtype"
    value {
      type: DT_FLOAT
    }
  }
  attr {
    key: "seed"
    value {
      i: 0
    }
  }
  attr {
    key: "seed2"
    value {
      i: 0
    }
  }
}
node {
  name: "train_network/shuffle_block_0/shuffle_v2_block/conv_bn_relu_2/Conv/weights/Initializer/random_uniform/sub"
  op: "Sub"
  input: "train_network/shuffle_block_0/shuffle_v2_block/conv_bn_relu_2/Conv/weights/Initializer/random_uniform/max"
  input: "train_network/shuffle_block_0/shuffle_v2_block/conv_bn_relu_2/Conv/weights/Initializer/random_uniform/min"
  attr {
    key: "T"
    value {
      type: DT_FLOAT
    }
  }
  attr {
    key: "_class"
    value {
      list {
        s: "loc:@train_network/shuffle_block_0/shuffle_v2_block/conv_bn_relu_2/Conv/weights"
      }
    }
  }
}
node {
  name: "train_network/shuffle_block_0/shuffle_v2_block/conv_bn_relu_2/Conv/weights/Initializer/random_uniform/mul"
  op: "Mul"
  input: "train_network/shuffle_block_0/shuffle_v2_block/conv_bn_relu_2/Conv/weights/Initializer/random_uniform/RandomUniform"
  input: "train_network/shuffle_block_0/shuffle_v2_block/conv_bn_relu_2/Conv/weights/Initializer/random_uniform/sub"
  attr {
    key: "T"
    value {
      type: DT_FLOAT
    }
  }
  attr {
    key: "_class"
    value {
      list {
        s: "loc:@train_network/shuffle_block_0/shuffle_v2_block/conv_bn_relu_2/Conv/weights"
      }
    }
  }
}
node {
  name: "train_network/shuffle_block_0/shuffle_v2_block/conv_bn_relu_2/Conv/weights/Initializer/random_uniform"
  op: "Add"
  input: "train_network/shuffle_block_0/shuffle_v2_block/conv_bn_relu_2/Conv/weights/Initializer/random_uniform/mul"
  input: "train_network/shuffle_block_0/shuffle_v2_block/conv_bn_relu_2/Conv/weights/Initializer/random_uniform/min"
  attr {
    key: "T"
    value {
      type: DT_FLOAT
    }
  }
  attr {
    key: "_class"
    value {
      list {
        s: "loc:@train_network/shuffle_block_0/shuffle_v2_block/conv_bn_relu_2/Conv/weights"
      }
    }
  }
}
node {
  name: "train_network/shuffle_block_0/shuffle_v2_block/conv_bn_relu_2/Conv/weights"
  op: "VariableV2"
  attr {
    key: "_class"
    value {
      list {
        s: "loc:@train_network/shuffle_block_0/shuffle_v2_block/conv_bn_relu_2/Conv/weights"
      }
    }
  }
  attr {
    key: "container"
    value {
      s: ""
    }
  }
  attr {
    key: "dtype"
    value {
      type: DT_FLOAT
    }
  }
  attr {
    key: "shape"
    value {
      shape {
        dim {
          size: 1
        }
        dim {
          size: 1
        }
        dim {
          size: 24
        }
        dim {
          size: 58
        }
      }
    }
  }
  attr {
    key: "shared_name"
    value {
      s: ""
    }
  }
}
node {
  name: "train_network/shuffle_block_0/shuffle_v2_block/conv_bn_relu_2/Conv/weights/Assign"
  op: "Assign"
  input: "train_network/shuffle_block_0/shuffle_v2_block/conv_bn_relu_2/Conv/weights"
  input: "train_network/shuffle_block_0/shuffle_v2_block/conv_bn_relu_2/Conv/weights/Initializer/random_uniform"
  attr {
    key: "T"
    value {
      type: DT_FLOAT
    }
  }
  attr {
    key: "_class"
    value {
      list {
        s: "loc:@train_network/shuffle_block_0/shuffle_v2_block/conv_bn_relu_2/Conv/weights"
      }
    }
  }
  attr {
    key: "use_locking"
    value {
      b: true
    }
  }
  attr {
    key: "validate_shape"
    value {
      b: true
    }
  }
}
node {
  name: "train_network/shuffle_block_0/shuffle_v2_block/conv_bn_relu_2/Conv/weights/read"
  op: "Identity"
  input: "train_network/shuffle_block_0/shuffle_v2_block/conv_bn_relu_2/Conv/weights"
  attr {
    key: "T"
    value {
      type: DT_FLOAT
    }
  }
  attr {
    key: "_class"
    value {
      list {
        s: "loc:@train_network/shuffle_block_0/shuffle_v2_block/conv_bn_relu_2/Conv/weights"
      }
    }
  }
}
node {
  name: "train_network/shuffle_block_0/shuffle_v2_block/conv_bn_relu_2/Conv/dilation_rate"
  op: "Const"
  attr {
    key: "dtype"
    value {
      type: DT_INT32
    }
  }
  attr {
    key: "value"
    value {
      tensor {
        dtype: DT_INT32
        tensor_shape {
          dim {
            size: 2
          }
        }
        tensor_content: "\001\000\000\000\001\000\000\000"
      }
    }
  }
}
node {
  name: "train_network/shuffle_block_0/shuffle_v2_block/conv_bn_relu_2/Conv/Conv2D"
  op: "Conv2D"
  input: "train_network/shuffle_block_0/shuffle_v2_block/depthwise_conv_bn_1/BatchNorm/batchnorm/add_1"
  input: "train_network/shuffle_block_0/shuffle_v2_block/conv_bn_relu_2/Conv/weights/read"
  attr {
    key: "T"
    value {
      type: DT_FLOAT
    }
  }
  attr {
    key: "data_format"
    value {
      s: "NHWC"
    }
  }
  attr {
    key: "dilations"
    value {
      list {
        i: 1
        i: 1
        i: 1
        i: 1
      }
    }
  }
  attr {
    key: "padding"
    value {
      s: "SAME"
    }
  }
  attr {
    key: "strides"
    value {
      list {
        i: 1
        i: 1
        i: 1
        i: 1
      }
    }
  }
  attr {
    key: "use_cudnn_on_gpu"
    value {
      b: true
    }
  }
}
node {
  name: "train_network/shuffle_block_0/shuffle_v2_block/conv_bn_relu_2/BatchNorm/beta/Initializer/zeros"
  op: "Const"
  attr {
    key: "_class"
    value {
      list {
        s: "loc:@train_network/shuffle_block_0/shuffle_v2_block/conv_bn_relu_2/BatchNorm/beta"
      }
    }
  }
  attr {
    key: "dtype"
    value {
      type: DT_FLOAT
    }
  }
  attr {
    key: "value"
    value {
      tensor {
        dtype: DT_FLOAT
        tensor_shape {
          dim {
            size: 58
          }
        }
        float_val: 0.0
      }
    }
  }
}
node {
  name: "train_network/shuffle_block_0/shuffle_v2_block/conv_bn_relu_2/BatchNorm/beta"
  op: "VariableV2"
  attr {
    key: "_class"
    value {
      list {
        s: "loc:@train_network/shuffle_block_0/shuffle_v2_block/conv_bn_relu_2/BatchNorm/beta"
      }
    }
  }
  attr {
    key: "container"
    value {
      s: ""
    }
  }
  attr {
    key: "dtype"
    value {
      type: DT_FLOAT
    }
  }
  attr {
    key: "shape"
    value {
      shape {
        dim {
          size: 58
        }
      }
    }
  }
  attr {
    key: "shared_name"
    value {
      s: ""
    }
  }
}
node {
  name: "train_network/shuffle_block_0/shuffle_v2_block/conv_bn_relu_2/BatchNorm/beta/Assign"
  op: "Assign"
  input: "train_network/shuffle_block_0/shuffle_v2_block/conv_bn_relu_2/BatchNorm/beta"
  input: "train_network/shuffle_block_0/shuffle_v2_block/conv_bn_relu_2/BatchNorm/beta/Initializer/zeros"
  attr {
    key: "T"
    value {
      type: DT_FLOAT
    }
  }
  attr {
    key: "_class"
    value {
      list {
        s: "loc:@train_network/shuffle_block_0/shuffle_v2_block/conv_bn_relu_2/BatchNorm/beta"
      }
    }
  }
  attr {
    key: "use_locking"
    value {
      b: true
    }
  }
  attr {
    key: "validate_shape"
    value {
      b: true
    }
  }
}
node {
  name: "train_network/shuffle_block_0/shuffle_v2_block/conv_bn_relu_2/BatchNorm/beta/read"
  op: "Identity"
  input: "train_network/shuffle_block_0/shuffle_v2_block/conv_bn_relu_2/BatchNorm/beta"
  attr {
    key: "T"
    value {
      type: DT_FLOAT
    }
  }
  attr {
    key: "_class"
    value {
      list {
        s: "loc:@train_network/shuffle_block_0/shuffle_v2_block/conv_bn_relu_2/BatchNorm/beta"
      }
    }
  }
}
node {
  name: "train_network/shuffle_block_0/shuffle_v2_block/conv_bn_relu_2/BatchNorm/moving_mean/Initializer/zeros"
  op: "Const"
  attr {
    key: "_class"
    value {
      list {
        s: "loc:@train_network/shuffle_block_0/shuffle_v2_block/conv_bn_relu_2/BatchNorm/moving_mean"
      }
    }
  }
  attr {
    key: "dtype"
    value {
      type: DT_FLOAT
    }
  }
  attr {
    key: "value"
    value {
      tensor {
        dtype: DT_FLOAT
        tensor_shape {
          dim {
            size: 58
          }
        }
        float_val: 0.0
      }
    }
  }
}
node {
  name: "train_network/shuffle_block_0/shuffle_v2_block/conv_bn_relu_2/BatchNorm/moving_mean"
  op: "VariableV2"
  attr {
    key: "_class"
    value {
      list {
        s: "loc:@train_network/shuffle_block_0/shuffle_v2_block/conv_bn_relu_2/BatchNorm/moving_mean"
      }
    }
  }
  attr {
    key: "container"
    value {
      s: ""
    }
  }
  attr {
    key: "dtype"
    value {
      type: DT_FLOAT
    }
  }
  attr {
    key: "shape"
    value {
      shape {
        dim {
          size: 58
        }
      }
    }
  }
  attr {
    key: "shared_name"
    value {
      s: ""
    }
  }
}
node {
  name: "train_network/shuffle_block_0/shuffle_v2_block/conv_bn_relu_2/BatchNorm/moving_mean/Assign"
  op: "Assign"
  input: "train_network/shuffle_block_0/shuffle_v2_block/conv_bn_relu_2/BatchNorm/moving_mean"
  input: "train_network/shuffle_block_0/shuffle_v2_block/conv_bn_relu_2/BatchNorm/moving_mean/Initializer/zeros"
  attr {
    key: "T"
    value {
      type: DT_FLOAT
    }
  }
  attr {
    key: "_class"
    value {
      list {
        s: "loc:@train_network/shuffle_block_0/shuffle_v2_block/conv_bn_relu_2/BatchNorm/moving_mean"
      }
    }
  }
  attr {
    key: "use_locking"
    value {
      b: true
    }
  }
  attr {
    key: "validate_shape"
    value {
      b: true
    }
  }
}
node {
  name: "train_network/shuffle_block_0/shuffle_v2_block/conv_bn_relu_2/BatchNorm/moving_mean/read"
  op: "Identity"
  input: "train_network/shuffle_block_0/shuffle_v2_block/conv_bn_relu_2/BatchNorm/moving_mean"
  attr {
    key: "T"
    value {
      type: DT_FLOAT
    }
  }
  attr {
    key: "_class"
    value {
      list {
        s: "loc:@train_network/shuffle_block_0/shuffle_v2_block/conv_bn_relu_2/BatchNorm/moving_mean"
      }
    }
  }
}
node {
  name: "train_network/shuffle_block_0/shuffle_v2_block/conv_bn_relu_2/BatchNorm/moving_variance/Initializer/ones"
  op: "Const"
  attr {
    key: "_class"
    value {
      list {
        s: "loc:@train_network/shuffle_block_0/shuffle_v2_block/conv_bn_relu_2/BatchNorm/moving_variance"
      }
    }
  }
  attr {
    key: "dtype"
    value {
      type: DT_FLOAT
    }
  }
  attr {
    key: "value"
    value {
      tensor {
        dtype: DT_FLOAT
        tensor_shape {
          dim {
            size: 58
          }
        }
        float_val: 1.0
      }
    }
  }
}
node {
  name: "train_network/shuffle_block_0/shuffle_v2_block/conv_bn_relu_2/BatchNorm/moving_variance"
  op: "VariableV2"
  attr {
    key: "_class"
    value {
      list {
        s: "loc:@train_network/shuffle_block_0/shuffle_v2_block/conv_bn_relu_2/BatchNorm/moving_variance"
      }
    }
  }
  attr {
    key: "container"
    value {
      s: ""
    }
  }
  attr {
    key: "dtype"
    value {
      type: DT_FLOAT
    }
  }
  attr {
    key: "shape"
    value {
      shape {
        dim {
          size: 58
        }
      }
    }
  }
  attr {
    key: "shared_name"
    value {
      s: ""
    }
  }
}
node {
  name: "train_network/shuffle_block_0/shuffle_v2_block/conv_bn_relu_2/BatchNorm/moving_variance/Assign"
  op: "Assign"
  input: "train_network/shuffle_block_0/shuffle_v2_block/conv_bn_relu_2/BatchNorm/moving_variance"
  input: "train_network/shuffle_block_0/shuffle_v2_block/conv_bn_relu_2/BatchNorm/moving_variance/Initializer/ones"
  attr {
    key: "T"
    value {
      type: DT_FLOAT
    }
  }
  attr {
    key: "_class"
    value {
      list {
        s: "loc:@train_network/shuffle_block_0/shuffle_v2_block/conv_bn_relu_2/BatchNorm/moving_variance"
      }
    }
  }
  attr {
    key: "use_locking"
    value {
      b: true
    }
  }
  attr {
    key: "validate_shape"
    value {
      b: true
    }
  }
}
node {
  name: "train_network/shuffle_block_0/shuffle_v2_block/conv_bn_relu_2/BatchNorm/moving_variance/read"
  op: "Identity"
  input: "train_network/shuffle_block_0/shuffle_v2_block/conv_bn_relu_2/BatchNorm/moving_variance"
  attr {
    key: "T"
    value {
      type: DT_FLOAT
    }
  }
  attr {
    key: "_class"
    value {
      list {
        s: "loc:@train_network/shuffle_block_0/shuffle_v2_block/conv_bn_relu_2/BatchNorm/moving_variance"
      }
    }
  }
}
node {
  name: "train_network/shuffle_block_0/shuffle_v2_block/conv_bn_relu_2/BatchNorm/moments/mean/reduction_indices"
  op: "Const"
  attr {
    key: "dtype"
    value {
      type: DT_INT32
    }
  }
  attr {
    key: "value"
    value {
      tensor {
        dtype: DT_INT32
        tensor_shape {
          dim {
            size: 3
          }
        }
        tensor_content: "\000\000\000\000\001\000\000\000\002\000\000\000"
      }
    }
  }
}
node {
  name: "train_network/shuffle_block_0/shuffle_v2_block/conv_bn_relu_2/BatchNorm/moments/mean"
  op: "Mean"
  input: "train_network/shuffle_block_0/shuffle_v2_block/conv_bn_relu_2/Conv/Conv2D"
  input: "train_network/shuffle_block_0/shuffle_v2_block/conv_bn_relu_2/BatchNorm/moments/mean/reduction_indices"
  attr {
    key: "T"
    value {
      type: DT_FLOAT
    }
  }
  attr {
    key: "Tidx"
    value {
      type: DT_INT32
    }
  }
  attr {
    key: "keep_dims"
    value {
      b: true
    }
  }
}
node {
  name: "train_network/shuffle_block_0/shuffle_v2_block/conv_bn_relu_2/BatchNorm/moments/StopGradient"
  op: "StopGradient"
  input: "train_network/shuffle_block_0/shuffle_v2_block/conv_bn_relu_2/BatchNorm/moments/mean"
  attr {
    key: "T"
    value {
      type: DT_FLOAT
    }
  }
}
node {
  name: "train_network/shuffle_block_0/shuffle_v2_block/conv_bn_relu_2/BatchNorm/moments/SquaredDifference"
  op: "SquaredDifference"
  input: "train_network/shuffle_block_0/shuffle_v2_block/conv_bn_relu_2/Conv/Conv2D"
  input: "train_network/shuffle_block_0/shuffle_v2_block/conv_bn_relu_2/BatchNorm/moments/StopGradient"
  attr {
    key: "T"
    value {
      type: DT_FLOAT
    }
  }
}
node {
  name: "train_network/shuffle_block_0/shuffle_v2_block/conv_bn_relu_2/BatchNorm/moments/variance/reduction_indices"
  op: "Const"
  attr {
    key: "dtype"
    value {
      type: DT_INT32
    }
  }
  attr {
    key: "value"
    value {
      tensor {
        dtype: DT_INT32
        tensor_shape {
          dim {
            size: 3
          }
        }
        tensor_content: "\000\000\000\000\001\000\000\000\002\000\000\000"
      }
    }
  }
}
node {
  name: "train_network/shuffle_block_0/shuffle_v2_block/conv_bn_relu_2/BatchNorm/moments/variance"
  op: "Mean"
  input: "train_network/shuffle_block_0/shuffle_v2_block/conv_bn_relu_2/BatchNorm/moments/SquaredDifference"
  input: "train_network/shuffle_block_0/shuffle_v2_block/conv_bn_relu_2/BatchNorm/moments/variance/reduction_indices"
  attr {
    key: "T"
    value {
      type: DT_FLOAT
    }
  }
  attr {
    key: "Tidx"
    value {
      type: DT_INT32
    }
  }
  attr {
    key: "keep_dims"
    value {
      b: true
    }
  }
}
node {
  name: "train_network/shuffle_block_0/shuffle_v2_block/conv_bn_relu_2/BatchNorm/moments/Squeeze"
  op: "Squeeze"
  input: "train_network/shuffle_block_0/shuffle_v2_block/conv_bn_relu_2/BatchNorm/moments/mean"
  attr {
    key: "T"
    value {
      type: DT_FLOAT
    }
  }
  attr {
    key: "squeeze_dims"
    value {
      list {
        i: 0
        i: 1
        i: 2
      }
    }
  }
}
node {
  name: "train_network/shuffle_block_0/shuffle_v2_block/conv_bn_relu_2/BatchNorm/moments/Squeeze_1"
  op: "Squeeze"
  input: "train_network/shuffle_block_0/shuffle_v2_block/conv_bn_relu_2/BatchNorm/moments/variance"
  attr {
    key: "T"
    value {
      type: DT_FLOAT
    }
  }
  attr {
    key: "squeeze_dims"
    value {
      list {
        i: 0
        i: 1
        i: 2
      }
    }
  }
}
node {
  name: "train_network/shuffle_block_0/shuffle_v2_block/conv_bn_relu_2/BatchNorm/AssignMovingAvg/decay"
  op: "Const"
  attr {
    key: "dtype"
    value {
      type: DT_FLOAT
    }
  }
  attr {
    key: "value"
    value {
      tensor {
        dtype: DT_FLOAT
        tensor_shape {
        }
        float_val: 0.0010000000474974513
      }
    }
  }
}
node {
  name: "train_network/shuffle_block_0/shuffle_v2_block/conv_bn_relu_2/BatchNorm/AssignMovingAvg/sub"
  op: "Sub"
  input: "train_network/shuffle_block_0/shuffle_v2_block/conv_bn_relu_2/BatchNorm/moving_mean/read"
  input: "train_network/shuffle_block_0/shuffle_v2_block/conv_bn_relu_2/BatchNorm/moments/Squeeze"
  attr {
    key: "T"
    value {
      type: DT_FLOAT
    }
  }
}
node {
  name: "train_network/shuffle_block_0/shuffle_v2_block/conv_bn_relu_2/BatchNorm/AssignMovingAvg/mul"
  op: "Mul"
  input: "train_network/shuffle_block_0/shuffle_v2_block/conv_bn_relu_2/BatchNorm/AssignMovingAvg/sub"
  input: "train_network/shuffle_block_0/shuffle_v2_block/conv_bn_relu_2/BatchNorm/AssignMovingAvg/decay"
  attr {
    key: "T"
    value {
      type: DT_FLOAT
    }
  }
}
node {
  name: "train_network/shuffle_block_0/shuffle_v2_block/conv_bn_relu_2/BatchNorm/AssignMovingAvg"
  op: "AssignSub"
  input: "train_network/shuffle_block_0/shuffle_v2_block/conv_bn_relu_2/BatchNorm/moving_mean"
  input: "train_network/shuffle_block_0/shuffle_v2_block/conv_bn_relu_2/BatchNorm/AssignMovingAvg/mul"
  attr {
    key: "T"
    value {
      type: DT_FLOAT
    }
  }
  attr {
    key: "_class"
    value {
      list {
        s: "loc:@train_network/shuffle_block_0/shuffle_v2_block/conv_bn_relu_2/BatchNorm/moving_mean"
      }
    }
  }
  attr {
    key: "use_locking"
    value {
      b: false
    }
  }
}
node {
  name: "train_network/shuffle_block_0/shuffle_v2_block/conv_bn_relu_2/BatchNorm/AssignMovingAvg_1/decay"
  op: "Const"
  attr {
    key: "dtype"
    value {
      type: DT_FLOAT
    }
  }
  attr {
    key: "value"
    value {
      tensor {
        dtype: DT_FLOAT
        tensor_shape {
        }
        float_val: 0.0010000000474974513
      }
    }
  }
}
node {
  name: "train_network/shuffle_block_0/shuffle_v2_block/conv_bn_relu_2/BatchNorm/AssignMovingAvg_1/sub"
  op: "Sub"
  input: "train_network/shuffle_block_0/shuffle_v2_block/conv_bn_relu_2/BatchNorm/moving_variance/read"
  input: "train_network/shuffle_block_0/shuffle_v2_block/conv_bn_relu_2/BatchNorm/moments/Squeeze_1"
  attr {
    key: "T"
    value {
      type: DT_FLOAT
    }
  }
}
node {
  name: "train_network/shuffle_block_0/shuffle_v2_block/conv_bn_relu_2/BatchNorm/AssignMovingAvg_1/mul"
  op: "Mul"
  input: "train_network/shuffle_block_0/shuffle_v2_block/conv_bn_relu_2/BatchNorm/AssignMovingAvg_1/sub"
  input: "train_network/shuffle_block_0/shuffle_v2_block/conv_bn_relu_2/BatchNorm/AssignMovingAvg_1/decay"
  attr {
    key: "T"
    value {
      type: DT_FLOAT
    }
  }
}
node {
  name: "train_network/shuffle_block_0/shuffle_v2_block/conv_bn_relu_2/BatchNorm/AssignMovingAvg_1"
  op: "AssignSub"
  input: "train_network/shuffle_block_0/shuffle_v2_block/conv_bn_relu_2/BatchNorm/moving_variance"
  input: "train_network/shuffle_block_0/shuffle_v2_block/conv_bn_relu_2/BatchNorm/AssignMovingAvg_1/mul"
  attr {
    key: "T"
    value {
      type: DT_FLOAT
    }
  }
  attr {
    key: "_class"
    value {
      list {
        s: "loc:@train_network/shuffle_block_0/shuffle_v2_block/conv_bn_relu_2/BatchNorm/moving_variance"
      }
    }
  }
  attr {
    key: "use_locking"
    value {
      b: false
    }
  }
}
node {
  name: "train_network/shuffle_block_0/shuffle_v2_block/conv_bn_relu_2/BatchNorm/batchnorm/add/y"
  op: "Const"
  attr {
    key: "dtype"
    value {
      type: DT_FLOAT
    }
  }
  attr {
    key: "value"
    value {
      tensor {
        dtype: DT_FLOAT
        tensor_shape {
        }
        float_val: 0.0010000000474974513
      }
    }
  }
}
node {
  name: "train_network/shuffle_block_0/shuffle_v2_block/conv_bn_relu_2/BatchNorm/batchnorm/add"
  op: "Add"
  input: "train_network/shuffle_block_0/shuffle_v2_block/conv_bn_relu_2/BatchNorm/moments/Squeeze_1"
  input: "train_network/shuffle_block_0/shuffle_v2_block/conv_bn_relu_2/BatchNorm/batchnorm/add/y"
  attr {
    key: "T"
    value {
      type: DT_FLOAT
    }
  }
}
node {
  name: "train_network/shuffle_block_0/shuffle_v2_block/conv_bn_relu_2/BatchNorm/batchnorm/Rsqrt"
  op: "Rsqrt"
  input: "train_network/shuffle_block_0/shuffle_v2_block/conv_bn_relu_2/BatchNorm/batchnorm/add"
  attr {
    key: "T"
    value {
      type: DT_FLOAT
    }
  }
}
node {
  name: "train_network/shuffle_block_0/shuffle_v2_block/conv_bn_relu_2/BatchNorm/batchnorm/mul"
  op: "Mul"
  input: "train_network/shuffle_block_0/shuffle_v2_block/conv_bn_relu_2/Conv/Conv2D"
  input: "train_network/shuffle_block_0/shuffle_v2_block/conv_bn_relu_2/BatchNorm/batchnorm/Rsqrt"
  attr {
    key: "T"
    value {
      type: DT_FLOAT
    }
  }
}
node {
  name: "train_network/shuffle_block_0/shuffle_v2_block/conv_bn_relu_2/BatchNorm/batchnorm/mul_1"
  op: "Mul"
  input: "train_network/shuffle_block_0/shuffle_v2_block/conv_bn_relu_2/BatchNorm/moments/Squeeze"
  input: "train_network/shuffle_block_0/shuffle_v2_block/conv_bn_relu_2/BatchNorm/batchnorm/Rsqrt"
  attr {
    key: "T"
    value {
      type: DT_FLOAT
    }
  }
}
node {
  name: "train_network/shuffle_block_0/shuffle_v2_block/conv_bn_relu_2/BatchNorm/batchnorm/sub"
  op: "Sub"
  input: "train_network/shuffle_block_0/shuffle_v2_block/conv_bn_relu_2/BatchNorm/beta/read"
  input: "train_network/shuffle_block_0/shuffle_v2_block/conv_bn_relu_2/BatchNorm/batchnorm/mul_1"
  attr {
    key: "T"
    value {
      type: DT_FLOAT
    }
  }
}
node {
  name: "train_network/shuffle_block_0/shuffle_v2_block/conv_bn_relu_2/BatchNorm/batchnorm/add_1"
  op: "Add"
  input: "train_network/shuffle_block_0/shuffle_v2_block/conv_bn_relu_2/BatchNorm/batchnorm/mul"
  input: "train_network/shuffle_block_0/shuffle_v2_block/conv_bn_relu_2/BatchNorm/batchnorm/sub"
  attr {
    key: "T"
    value {
      type: DT_FLOAT
    }
  }
}
node {
  name: "train_network/shuffle_block_0/shuffle_v2_block/conv_bn_relu_2/BatchNorm/Relu"
  op: "Relu"
  input: "train_network/shuffle_block_0/shuffle_v2_block/conv_bn_relu_2/BatchNorm/batchnorm/add_1"
  attr {
    key: "T"
    value {
      type: DT_FLOAT
    }
  }
}
node {
  name: "train_network/shuffle_block_0/shuffle_v2_block/concat/axis"
  op: "Const"
  attr {
    key: "dtype"
    value {
      type: DT_INT32
    }
  }
  attr {
    key: "value"
    value {
      tensor {
        dtype: DT_INT32
        tensor_shape {
        }
        int_val: 3
      }
    }
  }
}
node {
  name: "train_network/shuffle_block_0/shuffle_v2_block/concat"
  op: "ConcatV2"
  input: "train_network/shuffle_block_0/shuffle_v2_block/conv_bn_relu_1/BatchNorm/Relu"
  input: "train_network/shuffle_block_0/shuffle_v2_block/conv_bn_relu_2/BatchNorm/Relu"
  input: "train_network/shuffle_block_0/shuffle_v2_block/concat/axis"
  attr {
    key: "N"
    value {
      i: 2
    }
  }
  attr {
    key: "T"
    value {
      type: DT_FLOAT
    }
  }
  attr {
    key: "Tidx"
    value {
      type: DT_INT32
    }
  }
}
node {
  name: "train_network/shuffle_block_0/shuffle_v2_block/shuffle_unit/Shape"
  op: "Const"
  attr {
    key: "dtype"
    value {
      type: DT_INT32
    }
  }
  attr {
    key: "value"
    value {
      tensor {
        dtype: DT_INT32
        tensor_shape {
          dim {
            size: 4
          }
        }
        tensor_content: "\000\001\000\000\004\000\000\000\004\000\000\000t\000\000\000"
      }
    }
  }
}
node {
  name: "train_network/shuffle_block_0/shuffle_v2_block/shuffle_unit/strided_slice/stack"
  op: "Const"
  attr {
    key: "dtype"
    value {
      type: DT_INT32
    }
  }
  attr {
    key: "value"
    value {
      tensor {
        dtype: DT_INT32
        tensor_shape {
          dim {
            size: 1
          }
        }
        int_val: 0
      }
    }
  }
}
node {
  name: "train_network/shuffle_block_0/shuffle_v2_block/shuffle_unit/strided_slice/stack_1"
  op: "Const"
  attr {
    key: "dtype"
    value {
      type: DT_INT32
    }
  }
  attr {
    key: "value"
    value {
      tensor {
        dtype: DT_INT32
        tensor_shape {
          dim {
            size: 1
          }
        }
        int_val: 1
      }
    }
  }
}
node {
  name: "train_network/shuffle_block_0/shuffle_v2_block/shuffle_unit/strided_slice/stack_2"
  op: "Const"
  attr {
    key: "dtype"
    value {
      type: DT_INT32
    }
  }
  attr {
    key: "value"
    value {
      tensor {
        dtype: DT_INT32
        tensor_shape {
          dim {
            size: 1
          }
        }
        int_val: 1
      }
    }
  }
}
node {
  name: "train_network/shuffle_block_0/shuffle_v2_block/shuffle_unit/strided_slice"
  op: "StridedSlice"
  input: "train_network/shuffle_block_0/shuffle_v2_block/shuffle_unit/Shape"
  input: "train_network/shuffle_block_0/shuffle_v2_block/shuffle_unit/strided_slice/stack"
  input: "train_network/shuffle_block_0/shuffle_v2_block/shuffle_unit/strided_slice/stack_1"
  input: "train_network/shuffle_block_0/shuffle_v2_block/shuffle_unit/strided_slice/stack_2"
  attr {
    key: "Index"
    value {
      type: DT_INT32
    }
  }
  attr {
    key: "T"
    value {
      type: DT_INT32
    }
  }
  attr {
    key: "begin_mask"
    value {
      i: 0
    }
  }
  attr {
    key: "ellipsis_mask"
    value {
      i: 0
    }
  }
  attr {
    key: "end_mask"
    value {
      i: 0
    }
  }
  attr {
    key: "new_axis_mask"
    value {
      i: 0
    }
  }
  attr {
    key: "shrink_axis_mask"
    value {
      i: 1
    }
  }
}
node {
  name: "train_network/shuffle_block_0/shuffle_v2_block/shuffle_unit/packed/1"
  op: "Const"
  attr {
    key: "dtype"
    value {
      type: DT_INT32
    }
  }
  attr {
    key: "value"
    value {
      tensor {
        dtype: DT_INT32
        tensor_shape {
        }
        int_val: 4
      }
    }
  }
}
node {
  name: "train_network/shuffle_block_0/shuffle_v2_block/shuffle_unit/packed/2"
  op: "Const"
  attr {
    key: "dtype"
    value {
      type: DT_INT32
    }
  }
  attr {
    key: "value"
    value {
      tensor {
        dtype: DT_INT32
        tensor_shape {
        }
        int_val: 4
      }
    }
  }
}
node {
  name: "train_network/shuffle_block_0/shuffle_v2_block/shuffle_unit/packed/3"
  op: "Const"
  attr {
    key: "dtype"
    value {
      type: DT_INT32
    }
  }
  attr {
    key: "value"
    value {
      tensor {
        dtype: DT_INT32
        tensor_shape {
        }
        int_val: 2
      }
    }
  }
}
node {
  name: "train_network/shuffle_block_0/shuffle_v2_block/shuffle_unit/packed/4"
  op: "Const"
  attr {
    key: "dtype"
    value {
      type: DT_INT32
    }
  }
  attr {
    key: "value"
    value {
      tensor {
        dtype: DT_INT32
        tensor_shape {
        }
        int_val: 58
      }
    }
  }
}
node {
  name: "train_network/shuffle_block_0/shuffle_v2_block/shuffle_unit/packed"
  op: "Pack"
  input: "train_network/shuffle_block_0/shuffle_v2_block/shuffle_unit/strided_slice"
  input: "train_network/shuffle_block_0/shuffle_v2_block/shuffle_unit/packed/1"
  input: "train_network/shuffle_block_0/shuffle_v2_block/shuffle_unit/packed/2"
…
    key: "validate_shape"
    value {
      b: true
    }
  }
}
node {
  name: "train_network/end_block/conv_bn_relu/Conv/weights/read"
  op: "Identity"
  input: "train_network/end_block/conv_bn_relu/Conv/weights"
  attr {
    key: "T"
    value {
      type: DT_FLOAT
    }
  }
  attr {
    key: "_class"
    value {
      list {
        s: "loc:@train_network/end_block/conv_bn_relu/Conv/weights"
      }
    }
  }
}
node {
  name: "train_network/end_block/conv_bn_relu/Conv/dilation_rate"
  op: "Const"
  attr {
    key: "dtype"
    value {
      type: DT_INT32
    }
  }
  attr {
    key: "value"
    value {
      tensor {
        dtype: DT_INT32
        tensor_shape {
          dim {
            size: 2
          }
        }
        tensor_content: "\001\000\000\000\001\000\000\000"
      }
    }
  }
}
node {
  name: "train_network/end_block/conv_bn_relu/Conv/Conv2D"
  op: "Conv2D"
  input: "train_network/shuffle_block_2/shuffle_v2_block_3/shuffle_unit/Reshape_1"
  input: "train_network/end_block/conv_bn_relu/Conv/weights/read"
  attr {
    key: "T"
    value {
      type: DT_FLOAT
    }
  }
  attr {
    key: "data_format"
    value {
      s: "NHWC"
    }
  }
  attr {
    key: "dilations"
    value {
      list {
        i: 1
        i: 1
        i: 1
        i: 1
      }
    }
  }
  attr {
    key: "padding"
    value {
      s: "SAME"
    }
  }
  attr {
    key: "strides"
    value {
      list {
        i: 1
        i: 1
        i: 1
        i: 1
      }
    }
  }
  attr {
    key: "use_cudnn_on_gpu"
    value {
      b: true
    }
  }
}
node {
  name: "train_network/end_block/conv_bn_relu/BatchNorm/beta/Initializer/zeros/shape_as_tensor"
  op: "Const"
  attr {
    key: "_class"
    value {
      list {
        s: "loc:@train_network/end_block/conv_bn_relu/BatchNorm/beta"
      }
    }
  }
  attr {
    key: "dtype"
    value {
      type: DT_INT32
    }
  }
  attr {
    key: "value"
    value {
      tensor {
        dtype: DT_INT32
        tensor_shape {
          dim {
            size: 1
          }
        }
        int_val: 1024
      }
    }
  }
}
node {
  name: "train_network/end_block/conv_bn_relu/BatchNorm/beta/Initializer/zeros/Const"
  op: "Const"
  attr {
    key: "_class"
    value {
      list {
        s: "loc:@train_network/end_block/conv_bn_relu/BatchNorm/beta"
      }
    }
  }
  attr {
    key: "dtype"
    value {
      type: DT_FLOAT
    }
  }
  attr {
    key: "value"
    value {
      tensor {
        dtype: DT_FLOAT
        tensor_shape {
        }
        float_val: 0.0
      }
    }
  }
}
node {
  name: "train_network/end_block/conv_bn_relu/BatchNorm/beta/Initializer/zeros"
  op: "Fill"
  input: "train_network/end_block/conv_bn_relu/BatchNorm/beta/Initializer/zeros/shape_as_tensor"
  input: "train_network/end_block/conv_bn_relu/BatchNorm/beta/Initializer/zeros/Const"
  attr {
    key: "T"
    value {
      type: DT_FLOAT
    }
  }
  attr {
    key: "_class"
    value {
      list {
        s: "loc:@train_network/end_block/conv_bn_relu/BatchNorm/beta"
      }
    }
  }
  attr {
    key: "index_type"
    value {
      type: DT_INT32
    }
  }
}
node {
  name: "train_network/end_block/conv_bn_relu/BatchNorm/beta"
  op: "VariableV2"
  attr {
    key: "_class"
    value {
      list {
        s: "loc:@train_network/end_block/conv_bn_relu/BatchNorm/beta"
      }
    }
  }
  attr {
    key: "container"
    value {
      s: ""
    }
  }
  attr {
    key: "dtype"
    value {
      type: DT_FLOAT
    }
  }
  attr {
    key: "shape"
    value {
      shape {
        dim {
          size: 1024
        }
      }
    }
  }
  attr {
    key: "shared_name"
    value {
      s: ""
    }
  }
}
node {
  name: "train_network/end_block/conv_bn_relu/BatchNorm/beta/Assign"
  op: "Assign"
  input: "train_network/end_block/conv_bn_relu/BatchNorm/beta"
  input: "train_network/end_block/conv_bn_relu/BatchNorm/beta/Initializer/zeros"
  attr {
    key: "T"
    value {
      type: DT_FLOAT
    }
  }
  attr {
    key: "_class"
    value {
      list {
        s: "loc:@train_network/end_block/conv_bn_relu/BatchNorm/beta"
      }
    }
  }
  attr {
    key: "use_locking"
    value {
      b: true
    }
  }
  attr {
    key: "validate_shape"
    value {
      b: true
    }
  }
}
node {
  name: "train_network/end_block/conv_bn_relu/BatchNorm/beta/read"
  op: "Identity"
  input: "train_network/end_block/conv_bn_relu/BatchNorm/beta"
  attr {
    key: "T"
    value {
      type: DT_FLOAT
    }
  }
  attr {
    key: "_class"
    value {
      list {
        s: "loc:@train_network/end_block/conv_bn_relu/BatchNorm/beta"
      }
    }
  }
}
node {
  name: "train_network/end_block/conv_bn_relu/BatchNorm/moving_mean/Initializer/zeros/shape_as_tensor"
  op: "Const"
  attr {
    key: "_class"
    value {
      list {
        s: "loc:@train_network/end_block/conv_bn_relu/BatchNorm/moving_mean"
      }
    }
  }
  attr {
    key: "dtype"
    value {
      type: DT_INT32
    }
  }
  attr {
    key: "value"
    value {
      tensor {
        dtype: DT_INT32
        tensor_shape {
          dim {
            size: 1
          }
        }
        int_val: 1024
      }
    }
  }
}
node {
  name: "train_network/end_block/conv_bn_relu/BatchNorm/moving_mean/Initializer/zeros/Const"
  op: "Const"
  attr {
    key: "_class"
    value {
      list {
        s: "loc:@train_network/end_block/conv_bn_relu/BatchNorm/moving_mean"
      }
    }
  }
  attr {
    key: "dtype"
    value {
      type: DT_FLOAT
    }
  }
  attr {
    key: "value"
    value {
      tensor {
        dtype: DT_FLOAT
        tensor_shape {
        }
        float_val: 0.0
      }
    }
  }
}
node {
  name: "train_network/end_block/conv_bn_relu/BatchNorm/moving_mean/Initializer/zeros"
  op: "Fill"
  input: "train_network/end_block/conv_bn_relu/BatchNorm/moving_mean/Initializer/zeros/shape_as_tensor"
  input: "train_network/end_block/conv_bn_relu/BatchNorm/moving_mean/Initializer/zeros/Const"
  attr {
    key: "T"
    value {
      type: DT_FLOAT
    }
  }
  attr {
    key: "_class"
    value {
      list {
        s: "loc:@train_network/end_block/conv_bn_relu/BatchNorm/moving_mean"
      }
    }
  }
  attr {
    key: "index_type"
    value {
      type: DT_INT32
    }
  }
}
node {
  name: "train_network/end_block/conv_bn_relu/BatchNorm/moving_mean"
  op: "VariableV2"
  attr {
    key: "_class"
    value {
      list {
        s: "loc:@train_network/end_block/conv_bn_relu/BatchNorm/moving_mean"
      }
    }
  }
  attr {
    key: "container"
    value {
      s: ""
    }
  }
  attr {
    key: "dtype"
    value {
      type: DT_FLOAT
    }
  }
  attr {
    key: "shape"
    value {
      shape {
        dim {
          size: 1024
        }
      }
    }
  }
  attr {
    key: "shared_name"
    value {
      s: ""
    }
  }
}
node {
  name: "train_network/end_block/conv_bn_relu/BatchNorm/moving_mean/Assign"
  op: "Assign"
  input: "train_network/end_block/conv_bn_relu/BatchNorm/moving_mean"
  input: "train_network/end_block/conv_bn_relu/BatchNorm/moving_mean/Initializer/zeros"
  attr {
    key: "T"
    value {
      type: DT_FLOAT
    }
  }
  attr {
    key: "_class"
    value {
      list {
        s: "loc:@train_network/end_block/conv_bn_relu/BatchNorm/moving_mean"
      }
    }
  }
  attr {
    key: "use_locking"
    value {
      b: true
    }
  }
  attr {
    key: "validate_shape"
    value {
      b: true
    }
  }
}
node {
  name: "train_network/end_block/conv_bn_relu/BatchNorm/moving_mean/read"
  op: "Identity"
  input: "train_network/end_block/conv_bn_relu/BatchNorm/moving_mean"
  attr {
    key: "T"
    value {
      type: DT_FLOAT
    }
  }
  attr {
    key: "_class"
    value {
      list {
        s: "loc:@train_network/end_block/conv_bn_relu/BatchNorm/moving_mean"
      }
    }
  }
}
node {
  name: "train_network/end_block/conv_bn_relu/BatchNorm/moving_variance/Initializer/ones/shape_as_tensor"
  op: "Const"
  attr {
    key: "_class"
    value {
      list {
        s: "loc:@train_network/end_block/conv_bn_relu/BatchNorm/moving_variance"
      }
    }
  }
  attr {
    key: "dtype"
    value {
      type: DT_INT32
    }
  }
  attr {
    key: "value"
    value {
      tensor {
        dtype: DT_INT32
        tensor_shape {
          dim {
            size: 1
          }
        }
        int_val: 1024
      }
    }
  }
}
node {
  name: "train_network/end_block/conv_bn_relu/BatchNorm/moving_variance/Initializer/ones/Const"
  op: "Const"
  attr {
    key: "_class"
    value {
      list {
        s: "loc:@train_network/end_block/conv_bn_relu/BatchNorm/moving_variance"
      }
    }
  }
  attr {
    key: "dtype"
    value {
      type: DT_FLOAT
    }
  }
  attr {
    key: "value"
    value {
      tensor {
        dtype: DT_FLOAT
        tensor_shape {
        }
        float_val: 1.0
      }
    }
  }
}
node {
  name: "train_network/end_block/conv_bn_relu/BatchNorm/moving_variance/Initializer/ones"
  op: "Fill"
  input: "train_network/end_block/conv_bn_relu/BatchNorm/moving_variance/Initializer/ones/shape_as_tensor"
  input: "train_network/end_block/conv_bn_relu/BatchNorm/moving_variance/Initializer/ones/Const"
  attr {
    key: "T"
    value {
      type: DT_FLOAT
    }
  }
  attr {
    key: "_class"
    value {
      list {
        s: "loc:@train_network/end_block/conv_bn_relu/BatchNorm/moving_variance"
      }
    }
  }
  attr {
    key: "index_type"
    value {
      type: DT_INT32
    }
  }
}
node {
  name: "train_network/end_block/conv_bn_relu/BatchNorm/moving_variance"
  op: "VariableV2"
  attr {
    key: "_class"
    value {
      list {
        s: "loc:@train_network/end_block/conv_bn_relu/BatchNorm/moving_variance"
      }
    }
  }
  attr {
    key: "container"
    value {
      s: ""
    }
  }
  attr {
    key: "dtype"
    value {
      type: DT_FLOAT
    }
  }
  attr {
    key: "shape"
    value {
      shape {
        dim {
          size: 1024
        }
      }
    }
  }
  attr {
    key: "shared_name"
    value {
      s: ""
    }
  }
}
node {
  name: "train_network/end_block/conv_bn_relu/BatchNorm/moving_variance/Assign"
  op: "Assign"
  input: "train_network/end_block/conv_bn_relu/BatchNorm/moving_variance"
  input: "train_network/end_block/conv_bn_relu/BatchNorm/moving_variance/Initializer/ones"
  attr {
    key: "T"
    value {
      type: DT_FLOAT
    }
  }
  attr {
    key: "_class"
    value {
      list {
        s: "loc:@train_network/end_block/conv_bn_relu/BatchNorm/moving_variance"
      }
    }
  }
  attr {
    key: "use_locking"
    value {
      b: true
    }
  }
  attr {
    key: "validate_shape"
    value {
      b: true
    }
  }
}
node {
  name: "train_network/end_block/conv_bn_relu/BatchNorm/moving_variance/read"
  op: "Identity"
  input: "train_network/end_block/conv_bn_relu/BatchNorm/moving_variance"
  attr {
    key: "T"
    value {
      type: DT_FLOAT
    }
  }
  attr {
    key: "_class"
    value {
      list {
        s: "loc:@train_network/end_block/conv_bn_relu/BatchNorm/moving_variance"
      }
    }
  }
}
node {
  name: "train_network/end_block/conv_bn_relu/BatchNorm/moments/mean/reduction_indices"
  op: "Const"
  attr {
    key: "dtype"
    value {
      type: DT_INT32
    }
  }
  attr {
    key: "value"
    value {
      tensor {
        dtype: DT_INT32
        tensor_shape {
          dim {
            size: 3
          }
        }
        tensor_content: "\000\000\000\000\001\000\000\000\002\000\000\000"
      }
    }
  }
}
node {
  name: "train_network/end_block/conv_bn_relu/BatchNorm/moments/mean"
  op: "Mean"
  input: "train_network/end_block/conv_bn_relu/Conv/Conv2D"
  input: "train_network/end_block/conv_bn_relu/BatchNorm/moments/mean/reduction_indices"
  attr {
    key: "T"
    value {
      type: DT_FLOAT
    }
  }
  attr {
    key: "Tidx"
    value {
      type: DT_INT32
    }
  }
  attr {
    key: "keep_dims"
    value {
      b: true
    }
  }
}
node {
  name: "train_network/end_block/conv_bn_relu/BatchNorm/moments/StopGradient"
  op: "StopGradient"
  input: "train_network/end_block/conv_bn_relu/BatchNorm/moments/mean"
  attr {
    key: "T"
    value {
      type: DT_FLOAT
    }
  }
}
node {
  name: "train_network/end_block/conv_bn_relu/BatchNorm/moments/SquaredDifference"
  op: "SquaredDifference"
  input: "train_network/end_block/conv_bn_relu/Conv/Conv2D"
  input: "train_network/end_block/conv_bn_relu/BatchNorm/moments/StopGradient"
  attr {
    key: "T"
    value {
      type: DT_FLOAT
    }
  }
}
node {
  name: "train_network/end_block/conv_bn_relu/BatchNorm/moments/variance/reduction_indices"
  op: "Const"
  attr {
    key: "dtype"
    value {
      type: DT_INT32
    }
  }
  attr {
    key: "value"
    value {
      tensor {
        dtype: DT_INT32
        tensor_shape {
          dim {
            size: 3
          }
        }
        tensor_content: "\000\000\000\000\001\000\000\000\002\000\000\000"
      }
    }
  }
}
node {
  name: "train_network/end_block/conv_bn_relu/BatchNorm/moments/variance"
  op: "Mean"
  input: "train_network/end_block/conv_bn_relu/BatchNorm/moments/SquaredDifference"
  input: "train_network/end_block/conv_bn_relu/BatchNorm/moments/variance/reduction_indices"
  attr {
    key: "T"
    value {
      type: DT_FLOAT
    }
  }
  attr {
    key: "Tidx"
    value {
      type: DT_INT32
    }
  }
  attr {
    key: "keep_dims"
    value {
      b: true
    }
  }
}
node {
  name: "train_network/end_block/conv_bn_relu/BatchNorm/moments/Squeeze"
  op: "Squeeze"
  input: "train_network/end_block/conv_bn_relu/BatchNorm/moments/mean"
  attr {
    key: "T"
    value {
      type: DT_FLOAT
    }
  }
  attr {
    key: "squeeze_dims"
    value {
      list {
        i: 0
        i: 1
        i: 2
      }
    }
  }
}
node {
  name: "train_network/end_block/conv_bn_relu/BatchNorm/moments/Squeeze_1"
  op: "Squeeze"
  input: "train_network/end_block/conv_bn_relu/BatchNorm/moments/variance"
  attr {
    key: "T"
    value {
      type: DT_FLOAT
    }
  }
  attr {
    key: "squeeze_dims"
    value {
      list {
        i: 0
        i: 1
        i: 2
      }
    }
  }
}
node {
  name: "train_network/end_block/conv_bn_relu/BatchNorm/AssignMovingAvg/decay"
  op: "Const"
  attr {
    key: "dtype"
    value {
      type: DT_FLOAT
    }
  }
  attr {
    key: "value"
    value {
      tensor {
        dtype: DT_FLOAT
        tensor_shape {
        }
        float_val: 0.0010000000474974513
      }
    }
  }
}
node {
  name: "train_network/end_block/conv_bn_relu/BatchNorm/AssignMovingAvg/sub"
  op: "Sub"
  input: "train_network/end_block/conv_bn_relu/BatchNorm/moving_mean/read"
  input: "train_network/end_block/conv_bn_relu/BatchNorm/moments/Squeeze"
  attr {
    key: "T"
    value {
      type: DT_FLOAT
    }
  }
}
node {
  name: "train_network/end_block/conv_bn_relu/BatchNorm/AssignMovingAvg/mul"
  op: "Mul"
  input: "train_network/end_block/conv_bn_relu/BatchNorm/AssignMovingAvg/sub"
  input: "train_network/end_block/conv_bn_relu/BatchNorm/AssignMovingAvg/decay"
  attr {
    key: "T"
    value {
      type: DT_FLOAT
    }
  }
}
node {
  name: "train_network/end_block/conv_bn_relu/BatchNorm/AssignMovingAvg"
  op: "AssignSub"
  input: "train_network/end_block/conv_bn_relu/BatchNorm/moving_mean"
  input: "train_network/end_block/conv_bn_relu/BatchNorm/AssignMovingAvg/mul"
  attr {
    key: "T"
    value {
      type: DT_FLOAT
    }
  }
  attr {
    key: "_class"
    value {
      list {
        s: "loc:@train_network/end_block/conv_bn_relu/BatchNorm/moving_mean"
      }
    }
  }
  attr {
    key: "use_locking"
    value {
      b: false
    }
  }
}
node {
  name: "train_network/end_block/conv_bn_relu/BatchNorm/AssignMovingAvg_1/decay"
  op: "Const"
  attr {
    key: "dtype"
    value {
      type: DT_FLOAT
    }
  }
  attr {
    key: "value"
    value {
      tensor {
        dtype: DT_FLOAT
        tensor_shape {
        }
        float_val: 0.0010000000474974513
      }
    }
  }
}
node {
  name: "train_network/end_block/conv_bn_relu/BatchNorm/AssignMovingAvg_1/sub"
  op: "Sub"
  input: "train_network/end_block/conv_bn_relu/BatchNorm/moving_variance/read"
  input: "train_network/end_block/conv_bn_relu/BatchNorm/moments/Squeeze_1"
  attr {
    key: "T"
    value {
      type: DT_FLOAT
    }
  }
}
node {
  name: "train_network/end_block/conv_bn_relu/BatchNorm/AssignMovingAvg_1/mul"
  op: "Mul"
  input: "train_network/end_block/conv_bn_relu/BatchNorm/AssignMovingAvg_1/sub"
  input: "train_network/end_block/conv_bn_relu/BatchNorm/AssignMovingAvg_1/decay"
  attr {
    key: "T"
    value {
      type: DT_FLOAT
    }
  }
}
node {
  name: "train_network/end_block/conv_bn_relu/BatchNorm/AssignMovingAvg_1"
  op: "AssignSub"
  input: "train_network/end_block/conv_bn_relu/BatchNorm/moving_variance"
  input: "train_network/end_block/conv_bn_relu/BatchNorm/AssignMovingAvg_1/mul"
  attr {
    key: "T"
    value {
      type: DT_FLOAT
    }
  }
  attr {
    key: "_class"
    value {
      list {
        s: "loc:@train_network/end_block/conv_bn_relu/BatchNorm/moving_variance"
      }
    }
  }
  attr {
    key: "use_locking"
    value {
      b: false
    }
  }
}
node {
  name: "train_network/end_block/conv_bn_relu/BatchNorm/batchnorm/add/y"
  op: "Const"
  attr {
    key: "dtype"
    value {
      type: DT_FLOAT
    }
  }
  attr {
    key: "value"
    value {
      tensor {
        dtype: DT_FLOAT
        tensor_shape {
        }
        float_val: 0.0010000000474974513
      }
    }
  }
}
node {
  name: "train_network/end_block/conv_bn_relu/BatchNorm/batchnorm/add"
  op: "Add"
  input: "train_network/end_block/conv_bn_relu/BatchNorm/moments/Squeeze_1"
  input: "train_network/end_block/conv_bn_relu/BatchNorm/batchnorm/add/y"
  attr {
    key: "T"
    value {
      type: DT_FLOAT
    }
  }
}
node {
  name: "train_network/end_block/conv_bn_relu/BatchNorm/batchnorm/Rsqrt"
  op: "Rsqrt"
  input: "train_network/end_block/conv_bn_relu/BatchNorm/batchnorm/add"
  attr {
    key: "T"
    value {
      type: DT_FLOAT
    }
  }
}
node {
  name: "train_network/end_block/conv_bn_relu/BatchNorm/batchnorm/mul"
  op: "Mul"
  input: "train_network/end_block/conv_bn_relu/Conv/Conv2D"
  input: "train_network/end_block/conv_bn_relu/BatchNorm/batchnorm/Rsqrt"
  attr {
    key: "T"
    value {
      type: DT_FLOAT
    }
  }
}
node {
  name: "train_network/end_block/conv_bn_relu/BatchNorm/batchnorm/mul_1"
  op: "Mul"
  input: "train_network/end_block/conv_bn_relu/BatchNorm/moments/Squeeze"
  input: "train_network/end_block/conv_bn_relu/BatchNorm/batchnorm/Rsqrt"
  attr {
    key: "T"
    value {
      type: DT_FLOAT
    }
  }
}
node {
  name: "train_network/end_block/conv_bn_relu/BatchNorm/batchnorm/sub"
  op: "Sub"
  input: "train_network/end_block/conv_bn_relu/BatchNorm/beta/read"
  input: "train_network/end_block/conv_bn_relu/BatchNorm/batchnorm/mul_1"
  attr {
    key: "T"
    value {
      type: DT_FLOAT
    }
  }
}
node {
  name: "train_network/end_block/conv_bn_relu/BatchNorm/batchnorm/add_1"
  op: "Add"
  input: "train_network/end_block/conv_bn_relu/BatchNorm/batchnorm/mul"
  input: "train_network/end_block/conv_bn_relu/BatchNorm/batchnorm/sub"
  attr {
    key: "T"
    value {
      type: DT_FLOAT
    }
  }
}
node {
  name: "train_network/end_block/conv_bn_relu/BatchNorm/Relu"
  op: "Relu"
  input: "train_network/end_block/conv_bn_relu/BatchNorm/batchnorm/add_1"
  attr {
    key: "T"
    value {
      type: DT_FLOAT
    }
  }
}
node {
  name: "train_network/prediction/global_pool2D/AvgPool2D/AvgPool"
  op: "AvgPool"
  input: "train_network/end_block/conv_bn_relu/BatchNorm/Relu"
  attr {
    key: "T"
    value {
      type: DT_FLOAT
    }
  }
  attr {
    key: "data_format"
    value {
      s: "NHWC"
    }
  }
  attr {
    key: "ksize"
    value {
      list {
        i: 1
        i: 1
        i: 1
        i: 1
      }
    }
  }
  attr {
    key: "padding"
    value {
      s: "VALID"
    }
  }
  attr {
    key: "strides"
    value {
      list {
        i: 1
        i: 1
        i: 1
        i: 1
      }
    }
  }
}
node {
  name: "train_network/prediction/Conv/weights/Initializer/random_uniform/shape"
  op: "Const"
  attr {
    key: "_class"
    value {
      list {
        s: "loc:@train_network/prediction/Conv/weights"
      }
    }
  }
  attr {
    key: "dtype"
    value {
      type: DT_INT32
    }
  }
  attr {
    key: "value"
    value {
      tensor {
        dtype: DT_INT32
        tensor_shape {
          dim {
            size: 4
          }
        }
        tensor_content: "\001\000\000\000\001\000\000\000\000\004\000\000\n\000\000\000"
      }
    }
  }
}
node {
  name: "train_network/prediction/Conv/weights/Initializer/random_uniform/min"
  op: "Const"
  attr {
    key: "_class"
    value {
      list {
        s: "loc:@train_network/prediction/Conv/weights"
      }
    }
  }
  attr {
    key: "dtype"
    value {
      type: DT_FLOAT
    }
  }
  attr {
    key: "value"
    value {
      tensor {
        dtype: DT_FLOAT
        tensor_shape {
        }
        float_val: -0.0761755108833313
      }
    }
  }
}
node {
  name: "train_network/prediction/Conv/weights/Initializer/random_uniform/max"
  op: "Const"
  attr {
    key: "_class"
    value {
      list {
        s: "loc:@train_network/prediction/Conv/weights"
      }
    }
  }
  attr {
    key: "dtype"
    value {
      type: DT_FLOAT
    }
  }
  attr {
    key: "value"
    value {
      tensor {
        dtype: DT_FLOAT
        tensor_shape {
        }
        float_val: 0.0761755108833313
      }
    }
  }
}
node {
  name: "train_network/prediction/Conv/weights/Initializer/random_uniform/RandomUniform"
  op: "RandomUniform"
  input: "train_network/prediction/Conv/weights/Initializer/random_uniform/shape"
  attr {
    key: "T"
    value {
      type: DT_INT32
    }
  }
  attr {
    key: "_class"
    value {
      list {
        s: "loc:@train_network/prediction/Conv/weights"
      }
    }
  }
  attr {
    key: "dtype"
    value {
      type: DT_FLOAT
    }
  }
  attr {
    key: "seed"
    value {
      i: 0
    }
  }
  attr {
    key: "seed2"
    value {
      i: 0
    }
  }
}
node {
  name: "train_network/prediction/Conv/weights/Initializer/random_uniform/sub"
  op: "Sub"
  input: "train_network/prediction/Conv/weights/Initializer/random_uniform/max"
  input: "train_network/prediction/Conv/weights/Initializer/random_uniform/min"
  attr {
    key: "T"
    value {
      type: DT_FLOAT
    }
  }
  attr {
    key: "_class"
    value {
      list {
        s: "loc:@train_network/prediction/Conv/weights"
      }
    }
  }
}
node {
  name: "train_network/prediction/Conv/weights/Initializer/random_uniform/mul"
  op: "Mul"
  input: "train_network/prediction/Conv/weights/Initializer/random_uniform/RandomUniform"
  input: "train_network/prediction/Conv/weights/Initializer/random_uniform/sub"
  attr {
    key: "T"
    value {
      type: DT_FLOAT
    }
  }
  attr {
    key: "_class"
    value {
      list {
        s: "loc:@train_network/prediction/Conv/weights"
      }
    }
  }
}
node {
  name: "train_network/prediction/Conv/weights/Initializer/random_uniform"
  op: "Add"
  input: "train_network/prediction/Conv/weights/Initializer/random_uniform/mul"
  input: "train_network/prediction/Conv/weights/Initializer/random_uniform/min"
  attr {
    key: "T"
    value {
      type: DT_FLOAT
    }
  }
  attr {
    key: "_class"
    value {
      list {
        s: "loc:@train_network/prediction/Conv/weights"
      }
    }
  }
}
node {
  name: "train_network/prediction/Conv/weights"
  op: "VariableV2"
  attr {
    key: "_class"
    value {
      list {
        s: "loc:@train_network/prediction/Conv/weights"
      }
    }
  }
  attr {
    key: "container"
    value {
      s: ""
    }
  }
  attr {
    key: "dtype"
    value {
      type: DT_FLOAT
    }
  }
  attr {
    key: "shape"
    value {
      shape {
        dim {
          size: 1
        }
        dim {
          size: 1
        }
        dim {
          size: 1024
        }
        dim {
          size: 10
        }
      }
    }
  }
  attr {
    key: "shared_name"
    value {
      s: ""
    }
  }
}
node {
  name: "train_network/prediction/Conv/weights/Assign"
  op: "Assign"
  input: "train_network/prediction/Conv/weights"
  input: "train_network/prediction/Conv/weights/Initializer/random_uniform"
  attr {
    key: "T"
    value {
      type: DT_FLOAT
    }
  }
  attr {
    key: "_class"
    value {
      list {
        s: "loc:@train_network/prediction/Conv/weights"
      }
    }
  }
  attr {
    key: "use_locking"
    value {
      b: true
    }
  }
  attr {
    key: "validate_shape"
    value {
      b: true
    }
  }
}
node {
  name: "train_network/prediction/Conv/weights/read"
  op: "Identity"
  input: "train_network/prediction/Conv/weights"
  attr {
    key: "T"
    value {
      type: DT_FLOAT
    }
  }
  attr {
    key: "_class"
    value {
      list {
        s: "loc:@train_network/prediction/Conv/weights"
      }
    }
  }
}
node {
  name: "train_network/prediction/Conv/dilation_rate"
  op: "Const"
  attr {
    key: "dtype"
    value {
      type: DT_INT32
    }
  }
  attr {
    key: "value"
    value {
      tensor {
        dtype: DT_INT32
        tensor_shape {
          dim {
            size: 2
          }
        }
        tensor_content: "\001\000\000\000\001\000\000\000"
      }
    }
  }
}
node {
  name: "train_network/prediction/Conv/Conv2D"
  op: "Conv2D"
  input: "train_network/prediction/global_pool2D/AvgPool2D/AvgPool"
  input: "train_network/prediction/Conv/weights/read"
  attr {
    key: "T"
    value {
      type: DT_FLOAT
    }
  }
  attr {
    key: "data_format"
    value {
      s: "NHWC"
    }
  }
  attr {
    key: "dilations"
    value {
      list {
        i: 1
        i: 1
        i: 1
        i: 1
      }
    }
  }
  attr {
    key: "padding"
    value {
      s: "SAME"
    }
  }
  attr {
    key: "strides"
    value {
      list {
        i: 1
        i: 1
        i: 1
        i: 1
      }
    }
  }
  attr {
    key: "use_cudnn_on_gpu"
    value {
      b: true
    }
  }
}
node {
  name: "train_network/prediction/Reshape/shape"
  op: "Const"
  attr {
    key: "dtype"
    value {
      type: DT_INT32
    }
  }
  attr {
    key: "value"
    value {
      tensor {
        dtype: DT_INT32
        tensor_shape {
          dim {
            size: 2
          }
        }
        tensor_content: "\377\377\377\377\n\000\000\000"
      }
    }
  }
}
node {
  name: "train_network/prediction/Reshape"
  op: "Reshape"
  input: "train_network/prediction/Conv/Conv2D"
  input: "train_network/prediction/Reshape/shape"
  attr {
    key: "T"
    value {
      type: DT_FLOAT
    }
  }
  attr {
    key: "Tshape"
    value {
      type: DT_INT32
    }
  }
}
node {
  name: "train_network/prediction/cls_prediction"
  op: "Identity"
  input: "train_network/prediction/Reshape"
  attr {
    key: "T"
    value {
      type: DT_FLOAT
    }
  }
}
node {
  name: "init"
  op: "NoOp"
  input: "^train_network/end_block/conv_bn_relu/BatchNorm/beta/Assign"
  input: "^train_network/end_block/conv_bn_relu/BatchNorm/moving_mean/Assign"
  input: "^train_network/end_block/conv_bn_relu/BatchNorm/moving_variance/Assign"
  input: "^train_network/end_block/conv_bn_relu/Conv/weights/Assign"
  input: "^train_network/init_block/conv_bn_relu/BatchNorm/beta/Assign"
  input: "^train_network/init_block/conv_bn_relu/BatchNorm/moving_mean/Assign"
  input: "^train_network/init_block/conv_bn_relu/BatchNorm/moving_variance/Assign"
  input: "^train_network/init_block/conv_bn_relu/Conv/weights/Assign"
  input: "^train_network/prediction/Conv/weights/Assign"
  input: "^train_network/shuffle_block_0/shuffle_v2_block/conv_bn_relu/BatchNorm/beta/Assign"
  input: "^train_network/shuffle_block_0/shuffle_v2_block/conv_bn_relu/BatchNorm/moving_mean/Assign"
  input: "^train_network/shuffle_block_0/shuffle_v2_block/conv_bn_relu/BatchNorm/moving_variance/Assign"
  input: "^train_network/shuffle_block_0/shuffle_v2_block/conv_bn_relu/Conv/weights/Assign"
  input: "^train_network/shuffle_block_0/shuffle_v2_block/conv_bn_relu_1/BatchNorm/beta/Assign"
  input: "^train_network/shuffle_block_0/shuffle_v2_block/conv_bn_relu_1/BatchNorm/moving_mean/Assign"
  input: "^train_network/shuffle_block_0/shuffle_v2_block/conv_bn_relu_1/BatchNorm/moving_variance/Assign"
  input: "^train_network/shuffle_block_0/shuffle_v2_block/conv_bn_relu_1/Conv/weights/Assign"
  input: "^train_network/shuffle_block_0/shuffle_v2_block/conv_bn_relu_2/BatchNorm/beta/Assign"
  input: "^train_network/shuffle_block_0/shuffle_v2_block/conv_bn_relu_2/BatchNorm/moving_mean/Assign"
  input: "^train_network/shuffle_block_0/shuffle_v2_block/conv_bn_relu_2/BatchNorm/moving_variance/Assign"
  input: "^train_network/shuffle_block_0/shuffle_v2_block/conv_bn_relu_2/Conv/weights/Assign"
  input: "^train_network/shuffle_block_0/shuffle_v2_block/depthwise_conv_bn/BatchNorm/beta/Assign"
  input: "^train_network/shuffle_block_0/shuffle_v2_block/depthwise_conv_bn/BatchNorm/moving_mean/Assign"
  input: "^train_network/shuffle_block_0/shuffle_v2_block/depthwise_conv_bn/BatchNorm/moving_variance/Assign"
  input: "^train_network/shuffle_block_0/shuffle_v2_block/depthwise_conv_bn/SeparableConv2d/depthwise_weights/Assign"
  input: "^train_network/shuffle_block_0/shuffle_v2_block/depthwise_conv_bn_1/BatchNorm/beta/Assign"
  input: "^train_network/shuffle_block_0/shuffle_v2_block/depthwise_conv_bn_1/BatchNorm/moving_mean/Assign"
  input: "^train_network/shuffle_block_0/shuffle_v2_block/depthwise_conv_bn_1/BatchNorm/moving_variance/Assign"
  input: "^train_network/shuffle_block_0/shuffle_v2_block/depthwise_conv_bn_1/SeparableConv2d/depthwise_weights/Assign"
  input: "^train_network/shuffle_block_0/shuffle_v2_block_1/conv_bn_relu/BatchNorm/beta/Assign"
  input: "^train_network/shuffle_block_0/shuffle_v2_block_1/conv_bn_relu/BatchNorm/moving_mean/Assign"
  input: "^train_network/shuffle_block_0/shuffle_v2_block_1/conv_bn_relu/BatchNorm/moving_variance/Assign"
  input: "^train_network/shuffle_block_0/shuffle_v2_block_1/conv_bn_relu/Conv/weights/Assign"
  input: "^train_network/shuffle_block_0/shuffle_v2_block_1/conv_bn_relu_1/BatchNorm/beta/Assign"
  input: "^train_network/shuffle_block_0/shuffle_v2_block_1/conv_bn_relu_1/BatchNorm/moving_mean/Assign"
  input: "^train_network/shuffle_block_0/shuffle_v2_block_1/conv_bn_relu_1/BatchNorm/moving_variance/Assign"
  input: "^train_network/shuffle_block_0/shuffle_v2_block_1/conv_bn_relu_1/Conv/weights/Assign"
  input: "^train_network/shuffle_block_0/shuffle_v2_block_1/depthwise_conv_bn/BatchNorm/beta/Assign"
  input: "^train_network/shuffle_block_0/shuffle_v2_block_1/depthwise_conv_bn/BatchNorm/moving_mean/Assign"
  input: "^train_network/shuffle_block_0/shuffle_v2_block_1/depthwise_conv_bn/BatchNorm/moving_variance/Assign"
  input: "^train_network/shuffle_block_0/shuffle_v2_block_1/depthwise_conv_bn/SeparableConv2d/depthwise_weights/Assign"
  input: "^train_network/shuffle_block_0/shuffle_v2_block_2/conv_bn_relu/BatchNorm/beta/Assign"
  input: "^train_network/shuffle_block_0/shuffle_v2_block_2/conv_bn_relu/BatchNorm/moving_mean/Assign"
  input: "^train_network/shuffle_block_0/shuffle_v2_block_2/conv_bn_relu/BatchNorm/moving_variance/Assign"
  input: "^train_network/shuffle_block_0/shuffle_v2_block_2/conv_bn_relu/Conv/weights/Assign"
  input: "^train_network/shuffle_block_0/shuffle_v2_block_2/conv_bn_relu_1/BatchNorm/beta/Assign"
  input: "^train_network/shuffle_block_0/shuffle_v2_block_2/conv_bn_relu_1/BatchNorm/moving_mean/Assign"
  input: "^train_network/shuffle_block_0/shuffle_v2_block_2/conv_bn_relu_1/BatchNorm/moving_variance/Assign"
  input: "^train_network/shuffle_block_0/shuffle_v2_block_2/conv_bn_relu_1/Conv/weights/Assign"
  input: "^train_network/shuffle_block_0/shuffle_v2_block_2/depthwise_conv_bn/BatchNorm/beta/Assign"
  input: "^train_network/shuffle_block_0/shuffle_v2_block_2/depthwise_conv_bn/BatchNorm/moving_mean/Assign"
  input: "^train_network/shuffle_block_0/shuffle_v2_block_2/depthwise_conv_bn/BatchNorm/moving_variance/Assign"
  input: "^train_network/shuffle_block_0/shuffle_v2_block_2/depthwise_conv_bn/SeparableConv2d/depthwise_weights/Assign"
  input: "^train_network/shuffle_block_0/shuffle_v2_block_3/conv_bn_relu/BatchNorm/beta/Assign"
  input: "^train_network/shuffle_block_0/shuffle_v2_block_3/conv_bn_relu/BatchNorm/moving_mean/Assign"
  input: "^train_network/shuffle_block_0/shuffle_v2_block_3/conv_bn_relu/BatchNorm/moving_variance/Assign"
  input: "^train_network/shuffle_block_0/shuffle_v2_block_3/conv_bn_relu/Conv/weights/Assign"
  input: "^train_network/shuffle_block_0/shuffle_v2_block_3/conv_bn_relu_1/BatchNorm/beta/Assign"
  input: "^train_network/shuffle_block_0/shuffle_v2_block_3/conv_bn_relu_1/BatchNorm/moving_mean/Assign"
  input: "^train_network/shuffle_block_0/shuffle_v2_block_3/conv_bn_relu_1/BatchNorm/moving_variance/Assign"
  input: "^train_network/shuffle_block_0/shuffle_v2_block_3/conv_bn_relu_1/Conv/weights/Assign"
  input: "^train_network/shuffle_block_0/shuffle_v2_block_3/depthwise_conv_bn/BatchNorm/beta/Assign"
  input: "^train_network/shuffle_block_0/shuffle_v2_block_3/depthwise_conv_bn/BatchNorm/moving_mean/Assign"
  input: "^train_network/shuffle_block_0/shuffle_v2_block_3/depthwise_conv_bn/BatchNorm/moving_variance/Assign"
  input: "^train_network/shuffle_block_0/shuffle_v2_block_3/depthwise_conv_bn/SeparableConv2d/depthwise_weights/Assign"
  input: "^train_network/shuffle_block_1/shuffle_v2_block/conv_bn_relu/BatchNorm/beta/Assign"
  input: "^train_network/shuffle_block_1/shuffle_v2_block/conv_bn_relu/BatchNorm/moving_mean/Assign"
  input: "^train_network/shuffle_block_1/shuffle_v2_block/conv_bn_relu/BatchNorm/moving_variance/Assign"
  input: "^train_network/shuffle_block_1/shuffle_v2_block/conv_bn_relu/Conv/weights/Assign"
  input: "^train_network/shuffle_block_1/shuffle_v2_block/conv_bn_relu_1/BatchNorm/beta/Assign"
  input: "^train_network/shuffle_block_1/shuffle_v2_block/conv_bn_relu_1/BatchNorm/moving_mean/Assign"
  input: "^train_network/shuffle_block_1/shuffle_v2_block/conv_bn_relu_1/BatchNorm/moving_variance/Assign"
  input: "^train_network/shuffle_block_1/shuffle_v2_block/conv_bn_relu_1/Conv/weights/Assign"
  input: "^train_network/shuffle_block_1/shuffle_v2_block/conv_bn_relu_2/BatchNorm/beta/Assign"
  input: "^train_network/shuffle_block_1/shuffle_v2_block/conv_bn_relu_2/BatchNorm/moving_mean/Assign"
  input: "^train_network/shuffle_block_1/shuffle_v2_block/conv_bn_relu_2/BatchNorm/moving_variance/Assign"
  input: "^train_network/shuffle_block_1/shuffle_v2_block/conv_bn_relu_2/Conv/weights/Assign"
  input: "^train_network/shuffle_block_1/shuffle_v2_block/depthwise_conv_bn/BatchNorm/beta/Assign"
  input: "^train_network/shuffle_block_1/shuffle_v2_block/depthwise_conv_bn/BatchNorm/moving_mean/Assign"
  input: "^train_network/shuffle_block_1/shuffle_v2_block/depthwise_conv_bn/BatchNorm/moving_variance/Assign"
  input: "^train_network/shuffle_block_1/shuffle_v2_block/depthwise_conv_bn/SeparableConv2d/depthwise_weights/Assign"
  input: "^train_network/shuffle_block_1/shuffle_v2_block/depthwise_conv_bn_1/BatchNorm/beta/Assign"
  input: "^train_network/shuffle_block_1/shuffle_v2_block/depthwise_conv_bn_1/BatchNorm/moving_mean/Assign"
  input: "^train_network/shuffle_block_1/shuffle_v2_block/depthwise_conv_bn_1/BatchNorm/moving_variance/Assign"
  input: "^train_network/shuffle_block_1/shuffle_v2_block/depthwise_conv_bn_1/SeparableConv2d/depthwise_weights/Assign"
  input: "^train_network/shuffle_block_1/shuffle_v2_block_1/conv_bn_relu/BatchNorm/beta/Assign"
  input: "^train_network/shuffle_block_1/shuffle_v2_block_1/conv_bn_relu/BatchNorm/moving_mean/Assign"
  input: "^train_network/shuffle_block_1/shuffle_v2_block_1/conv_bn_relu/BatchNorm/moving_variance/Assign"
  input: "^train_network/shuffle_block_1/shuffle_v2_block_1/conv_bn_relu/Conv/weights/Assign"
  input: "^train_network/shuffle_block_1/shuffle_v2_block_1/conv_bn_relu_1/BatchNorm/beta/Assign"
  input: "^train_network/shuffle_block_1/shuffle_v2_block_1/conv_bn_relu_1/BatchNorm/moving_mean/Assign"
  input: "^train_network/shuffle_block_1/shuffle_v2_block_1/conv_bn_relu_1/BatchNorm/moving_variance/Assign"
  input: "^train_network/shuffle_block_1/shuffle_v2_block_1/conv_bn_relu_1/Conv/weights/Assign"
  input: "^train_network/shuffle_block_1/shuffle_v2_block_1/depthwise_conv_bn/BatchNorm/beta/Assign"
  input: "^train_network/shuffle_block_1/shuffle_v2_block_1/depthwise_conv_bn/BatchNorm/moving_mean/Assign"
  input: "^train_network/shuffle_block_1/shuffle_v2_block_1/depthwise_conv_bn/BatchNorm/moving_variance/Assign"
  input: "^train_network/shuffle_block_1/shuffle_v2_block_1/depthwise_conv_bn/SeparableConv2d/depthwise_weights/Assign"
  input: "^train_network/shuffle_block_1/shuffle_v2_block_2/conv_bn_relu/BatchNorm/beta/Assign"
  input: "^train_network/shuffle_block_1/shuffle_v2_block_2/conv_bn_relu/BatchNorm/moving_mean/Assign"
  input: "^train_network/shuffle_block_1/shuffle_v2_block_2/conv_bn_relu/BatchNorm/moving_variance/Assign"
  input: "^train_network/shuffle_block_1/shuffle_v2_block_2/conv_bn_relu/Conv/weights/Assign"
  input: "^train_network/shuffle_block_1/shuffle_v2_block_2/conv_bn_relu_1/BatchNorm/beta/Assign"
  input: "^train_network/shuffle_block_1/shuffle_v2_block_2/conv_bn_relu_1/BatchNorm/moving_mean/Assign"
  input: "^train_network/shuffle_block_1/shuffle_v2_block_2/conv_bn_relu_1/BatchNorm/moving_variance/Assign"
  input: "^train_network/shuffle_block_1/shuffle_v2_block_2/conv_bn_relu_1/Conv/weights/Assign"
  input: "^train_network/shuffle_block_1/shuffle_v2_block_2/depthwise_conv_bn/BatchNorm/beta/Assign"
  input: "^train_network/shuffle_block_1/shuffle_v2_block_2/depthwise_conv_bn/BatchNorm/moving_mean/Assign"
  input: "^train_network/shuffle_block_1/shuffle_v2_block_2/depthwise_conv_bn/BatchNorm/moving_variance/Assign"
  input: "^train_network/shuffle_block_1/shuffle_v2_block_2/depthwise_conv_bn/SeparableConv2d/depthwise_weights/Assign"
  input: "^train_network/shuffle_block_1/shuffle_v2_block_3/conv_bn_relu/BatchNorm/beta/Assign"
  input: "^train_network/shuffle_block_1/shuffle_v2_block_3/conv_bn_relu/BatchNorm/moving_mean/Assign"
  input: "^train_network/shuffle_block_1/shuffle_v2_block_3/conv_bn_relu/BatchNorm/moving_variance/Assign"
  input: "^train_network/shuffle_block_1/shuffle_v2_block_3/conv_bn_relu/Conv/weights/Assign"
  input: "^train_network/shuffle_block_1/shuffle_v2_block_3/conv_bn_relu_1/BatchNorm/beta/Assign"
  input: "^train_network/shuffle_block_1/shuffle_v2_block_3/conv_bn_relu_1/BatchNorm/moving_mean/Assign"
  input: "^train_network/shuffle_block_1/shuffle_v2_block_3/conv_bn_relu_1/BatchNorm/moving_variance/Assign"
  input: "^train_network/shuffle_block_1/shuffle_v2_block_3/conv_bn_relu_1/Conv/weights/Assign"
  input: "^train_network/shuffle_block_1/shuffle_v2_block_3/depthwise_conv_bn/BatchNorm/beta/Assign"
  input: "^train_network/shuffle_block_1/shuffle_v2_block_3/depthwise_conv_bn/BatchNorm/moving_mean/Assign"
  input: "^train_network/shuffle_block_1/shuffle_v2_block_3/depthwise_conv_bn/BatchNorm/moving_variance/Assign"
  input: "^train_network/shuffle_block_1/shuffle_v2_block_3/depthwise_conv_bn/SeparableConv2d/depthwise_weights/Assign"
  input: "^train_network/shuffle_block_1/shuffle_v2_block_4/conv_bn_relu/BatchNorm/beta/Assign"
  input: "^train_network/shuffle_block_1/shuffle_v2_block_4/conv_bn_relu/BatchNorm/moving_mean/Assign"
  input: "^train_network/shuffle_block_1/shuffle_v2_block_4/conv_bn_relu/BatchNorm/moving_variance/Assign"
  input: "^train_network/shuffle_block_1/shuffle_v2_block_4/conv_bn_relu/Conv/weights/Assign"
  input: "^train_network/shuffle_block_1/shuffle_v2_block_4/conv_bn_relu_1/BatchNorm/beta/Assign"
  input: "^train_network/shuffle_block_1/shuffle_v2_block_4/conv_bn_relu_1/BatchNorm/moving_mean/Assign"
  input: "^train_network/shuffle_block_1/shuffle_v2_block_4/conv_bn_relu_1/BatchNorm/moving_variance/Assign"
  input: "^train_network/shuffle_block_1/shuffle_v2_block_4/conv_bn_relu_1/Conv/weights/Assign"
  input: "^train_network/shuffle_block_1/shuffle_v2_block_4/depthwise_conv_bn/BatchNorm/beta/Assign"
  input: "^train_network/shuffle_block_1/shuffle_v2_block_4/depthwise_conv_bn/BatchNorm/moving_mean/Assign"
  input: "^train_network/shuffle_block_1/shuffle_v2_block_4/depthwise_conv_bn/BatchNorm/moving_variance/Assign"
  input: "^train_network/shuffle_block_1/shuffle_v2_block_4/depthwise_conv_bn/SeparableConv2d/depthwise_weights/Assign"
  input: "^train_network/shuffle_block_1/shuffle_v2_block_5/conv_bn_relu/BatchNorm/beta/Assign"
  input: "^train_network/shuffle_block_1/shuffle_v2_block_5/conv_bn_relu/BatchNorm/moving_mean/Assign"
  input: "^train_network/shuffle_block_1/shuffle_v2_block_5/conv_bn_relu/BatchNorm/moving_variance/Assign"
  input: "^train_network/shuffle_block_1/shuffle_v2_block_5/conv_bn_relu/Conv/weights/Assign"
  input: "^train_network/shuffle_block_1/shuffle_v2_block_5/conv_bn_relu_1/BatchNorm/beta/Assign"
  input: "^train_network/shuffle_block_1/shuffle_v2_block_5/conv_bn_relu_1/BatchNorm/moving_mean/Assign"
  input: "^train_network/shuffle_block_1/shuffle_v2_block_5/conv_bn_relu_1/BatchNorm/moving_variance/Assign"
  input: "^train_network/shuffle_block_1/shuffle_v2_block_5/conv_bn_relu_1/Conv/weights/Assign"
  input: "^train_network/shuffle_block_1/shuffle_v2_block_5/depthwise_conv_bn/BatchNorm/beta/Assign"
  input: "^train_network/shuffle_block_1/shuffle_v2_block_5/depthwise_conv_bn/BatchNorm/moving_mean/Assign"
  input: "^train_network/shuffle_block_1/shuffle_v2_block_5/depthwise_conv_bn/BatchNorm/moving_variance/Assign"
  input: "^train_network/shuffle_block_1/shuffle_v2_block_5/depthwise_conv_bn/SeparableConv2d/depthwise_weights/Assign"
  input: "^train_network/shuffle_block_1/shuffle_v2_block_6/conv_bn_relu/BatchNorm/beta/Assign"
  input: "^train_network/shuffle_block_1/shuffle_v2_block_6/conv_bn_relu/BatchNorm/moving_mean/Assign"
  input: "^train_network/shuffle_block_1/shuffle_v2_block_6/conv_bn_relu/BatchNorm/moving_variance/Assign"
  input: "^train_network/shuffle_block_1/shuffle_v2_block_6/conv_bn_relu/Conv/weights/Assign"
  input: "^train_network/shuffle_block_1/shuffle_v2_block_6/conv_bn_relu_1/BatchNorm/beta/Assign"
  input: "^train_network/shuffle_block_1/shuffle_v2_block_6/conv_bn_relu_1/BatchNorm/moving_mean/Assign"
  input: "^train_network/shuffle_block_1/shuffle_v2_block_6/conv_bn_relu_1/BatchNorm/moving_variance/Assign"
  input: "^train_network/shuffle_block_1/shuffle_v2_block_6/conv_bn_relu_1/Conv/weights/Assign"
  input: "^train_network/shuffle_block_1/shuffle_v2_block_6/depthwise_conv_bn/BatchNorm/beta/Assign"
  input: "^train_network/shuffle_block_1/shuffle_v2_block_6/depthwise_conv_bn/BatchNorm/moving_mean/Assign"
  input: "^train_network/shuffle_block_1/shuffle_v2_block_6/depthwise_conv_bn/BatchNorm/moving_variance/Assign"
  input: "^train_network/shuffle_block_1/shuffle_v2_block_6/depthwise_conv_bn/SeparableConv2d/depthwise_weights/Assign"
  input: "^train_network/shuffle_block_1/shuffle_v2_block_7/conv_bn_relu/BatchNorm/beta/Assign"
  input: "^train_network/shuffle_block_1/shuffle_v2_block_7/conv_bn_relu/BatchNorm/moving_mean/Assign"
  input: "^train_network/shuffle_block_1/shuffle_v2_block_7/conv_bn_relu/BatchNorm/moving_variance/Assign"
  input: "^train_network/shuffle_block_1/shuffle_v2_block_7/conv_bn_relu/Conv/weights/Assign"
  input: "^train_network/shuffle_block_1/shuffle_v2_block_7/conv_bn_relu_1/BatchNorm/beta/Assign"
  input: "^train_network/shuffle_block_1/shuffle_v2_block_7/conv_bn_relu_1/BatchNorm/moving_mean/Assign"
  input: "^train_network/shuffle_block_1/shuffle_v2_block_7/conv_bn_relu_1/BatchNorm/moving_variance/Assign"
  input: "^train_network/shuffle_block_1/shuffle_v2_block_7/conv_bn_relu_1/Conv/weights/Assign"
  input: "^train_network/shuffle_block_1/shuffle_v2_block_7/depthwise_conv_bn/BatchNorm/beta/Assign"
  input: "^train_network/shuffle_block_1/shuffle_v2_block_7/depthwise_conv_bn/BatchNorm/moving_mean/Assign"
  input: "^train_network/shuffle_block_1/shuffle_v2_block_7/depthwise_conv_bn/BatchNorm/moving_variance/Assign"
  input: "^train_network/shuffle_block_1/shuffle_v2_block_7/depthwise_conv_bn/SeparableConv2d/depthwise_weights/Assign"
  input: "^train_network/shuffle_block_2/shuffle_v2_block/conv_bn_relu/BatchNorm/beta/Assign"
  input: "^train_network/shuffle_block_2/shuffle_v2_block/conv_bn_relu/BatchNorm/moving_mean/Assign"
  input: "^train_network/shuffle_block_2/shuffle_v2_block/conv_bn_relu/BatchNorm/moving_variance/Assign"
  input: "^train_network/shuffle_block_2/shuffle_v2_block/conv_bn_relu/Conv/weights/Assign"
  input: "^train_network/shuffle_block_2/shuffle_v2_block/conv_bn_relu_1/BatchNorm/beta/Assign"
  input: "^train_network/shuffle_block_2/shuffle_v2_block/conv_bn_relu_1/BatchNorm/moving_mean/Assign"
  input: "^train_network/shuffle_block_2/shuffle_v2_block/conv_bn_relu_1/BatchNorm/moving_variance/Assign"
  input: "^train_network/shuffle_block_2/shuffle_v2_block/conv_bn_relu_1/Conv/weights/Assign"
  input: "^train_network/shuffle_block_2/shuffle_v2_block/conv_bn_relu_2/BatchNorm/beta/Assign"
  input: "^train_network/shuffle_block_2/shuffle_v2_block/conv_bn_relu_2/BatchNorm/moving_mean/Assign"
  input: "^train_network/shuffle_block_2/shuffle_v2_block/conv_bn_relu_2/BatchNorm/moving_variance/Assign"
  input: "^train_network/shuffle_block_2/shuffle_v2_block/conv_bn_relu_2/Conv/weights/Assign"
  input: "^train_network/shuffle_block_2/shuffle_v2_block/depthwise_conv_bn/BatchNorm/beta/Assign"
  input: "^train_network/shuffle_block_2/shuffle_v2_block/depthwise_conv_bn/BatchNorm/moving_mean/Assign"
  input: "^train_network/shuffle_block_2/shuffle_v2_block/depthwise_conv_bn/BatchNorm/moving_variance/Assign"
  input: "^train_network/shuffle_block_2/shuffle_v2_block/depthwise_conv_bn/SeparableConv2d/depthwise_weights/Assign"
  input: "^train_network/shuffle_block_2/shuffle_v2_block/depthwise_conv_bn_1/BatchNorm/beta/Assign"
  input: "^train_network/shuffle_block_2/shuffle_v2_block/depthwise_conv_bn_1/BatchNorm/moving_mean/Assign"
  input: "^train_network/shuffle_block_2/shuffle_v2_block/depthwise_conv_bn_1/BatchNorm/moving_variance/Assign"
  input: "^train_network/shuffle_block_2/shuffle_v2_block/depthwise_conv_bn_1/SeparableConv2d/depthwise_weights/Assign"
  input: "^train_network/shuffle_block_2/shuffle_v2_block_1/conv_bn_relu/BatchNorm/beta/Assign"
  input: "^train_network/shuffle_block_2/shuffle_v2_block_1/conv_bn_relu/BatchNorm/moving_mean/Assign"
  input: "^train_network/shuffle_block_2/shuffle_v2_block_1/conv_bn_relu/BatchNorm/moving_variance/Assign"
  input: "^train_network/shuffle_block_2/shuffle_v2_block_1/conv_bn_relu/Conv/weights/Assign"
  input: "^train_network/shuffle_block_2/shuffle_v2_block_1/conv_bn_relu_1/BatchNorm/beta/Assign"
  input: "^train_network/shuffle_block_2/shuffle_v2_block_1/conv_bn_relu_1/BatchNorm/moving_mean/Assign"
  input: "^train_network/shuffle_block_2/shuffle_v2_block_1/conv_bn_relu_1/BatchNorm/moving_variance/Assign"
  input: "^train_network/shuffle_block_2/shuffle_v2_block_1/conv_bn_relu_1/Conv/weights/Assign"
  input: "^train_network/shuffle_block_2/shuffle_v2_block_1/depthwise_conv_bn/BatchNorm/beta/Assign"
  input: "^train_network/shuffle_block_2/shuffle_v2_block_1/depthwise_conv_bn/BatchNorm/moving_mean/Assign"
  input: "^train_network/shuffle_block_2/shuffle_v2_block_1/depthwise_conv_bn/BatchNorm/moving_variance/Assign"
  input: "^train_network/shuffle_block_2/shuffle_v2_block_1/depthwise_conv_bn/SeparableConv2d/depthwise_weights/Assign"
  input: "^train_network/shuffle_block_2/shuffle_v2_block_2/conv_bn_relu/BatchNorm/beta/Assign"
  input: "^train_network/shuffle_block_2/shuffle_v2_block_2/conv_bn_relu/BatchNorm/moving_mean/Assign"
  input: "^train_network/shuffle_block_2/shuffle_v2_block_2/conv_bn_relu/BatchNorm/moving_variance/Assign"
  input: "^train_network/shuffle_block_2/shuffle_v2_block_2/conv_bn_relu/Conv/weights/Assign"
  input: "^train_network/shuffle_block_2/shuffle_v2_block_2/conv_bn_relu_1/BatchNorm/beta/Assign"
  input: "^train_network/shuffle_block_2/shuffle_v2_block_2/conv_bn_relu_1/BatchNorm/moving_mean/Assign"
  input: "^train_network/shuffle_block_2/shuffle_v2_block_2/conv_bn_relu_1/BatchNorm/moving_variance/Assign"
  input: "^train_network/shuffle_block_2/shuffle_v2_block_2/conv_bn_relu_1/Conv/weights/Assign"
  input: "^train_network/shuffle_block_2/shuffle_v2_block_2/depthwise_conv_bn/BatchNorm/beta/Assign"
  input: "^train_network/shuffle_block_2/shuffle_v2_block_2/depthwise_conv_bn/BatchNorm/moving_mean/Assign"
  input: "^train_network/shuffle_block_2/shuffle_v2_block_2/depthwise_conv_bn/BatchNorm/moving_variance/Assign"
  input: "^train_network/shuffle_block_2/shuffle_v2_block_2/depthwise_conv_bn/SeparableConv2d/depthwise_weights/Assign"
  input: "^train_network/shuffle_block_2/shuffle_v2_block_3/conv_bn_relu/BatchNorm/beta/Assign"
  input: "^train_network/shuffle_block_2/shuffle_v2_block_3/conv_bn_relu/BatchNorm/moving_mean/Assign"
  input: "^train_network/shuffle_block_2/shuffle_v2_block_3/conv_bn_relu/BatchNorm/moving_variance/Assign"
  input: "^train_network/shuffle_block_2/shuffle_v2_block_3/conv_bn_relu/Conv/weights/Assign"
  input: "^train_network/shuffle_block_2/shuffle_v2_block_3/conv_bn_relu_1/BatchNorm/beta/Assign"
  input: "^train_network/shuffle_block_2/shuffle_v2_block_3/conv_bn_relu_1/BatchNorm/moving_mean/Assign"
  input: "^train_network/shuffle_block_2/shuffle_v2_block_3/conv_bn_relu_1/BatchNorm/moving_variance/Assign"
  input: "^train_network/shuffle_block_2/shuffle_v2_block_3/conv_bn_relu_1/Conv/weights/Assign"
  input: "^train_network/shuffle_block_2/shuffle_v2_block_3/depthwise_conv_bn/BatchNorm/beta/Assign"
  input: "^train_network/shuffle_block_2/shuffle_v2_block_3/depthwise_conv_bn/BatchNorm/moving_mean/Assign"
  input: "^train_network/shuffle_block_2/shuffle_v2_block_3/depthwise_conv_bn/BatchNorm/moving_variance/Assign"
  input: "^train_network/shuffle_block_2/shuffle_v2_block_3/depthwise_conv_bn/SeparableConv2d/depthwise_weights/Assign"
}
versions {
  producer: 26
}
